unitree_rl_gym/logs/rough_go2/exported/policies/policy_1.pt (torch, 774728 bytes, 8 tensors)

weight f4 [512, 48]
000000 5f 0e 29 bc d6 c5 59 be b3 b7 22 be a4 22 4e 3e
       -0.010318368 -0.21266875 -0.15890388 0.20130402
000010 75 95 d9 3e 68 eb e0 be ea 51 81 be bc 34 c2 be
       0.4249684 -0.439296 -0.25257808 -0.37930858
000020 e3 77 ba 3d 83 5e d3 bd 39 06 16 bd 6f 16 18 3f
       0.09104898 -0.10320761 -0.03662703 0.5940923
000030 a0 2d 8f 3e 3e f0 45 3e f3 be 11 be eb cd 7c 3d
       0.27964497 0.19329926 -0.14232998 0.061719816
000040 8b 13 2d bd 66 6c 85 be ca 5a 27 3e ed bd 01 bd
       -0.042254966 -0.26059264 0.16343227 -0.031675268
000050 e4 29 36 bd 18 26 bc bd 8c d4 56 3e 83 b0 37 3e
       -0.044473544 -0.09186953 0.20979518 0.17938428
000060 79 33 e4 bc 82 81 2d 3e ef 4b fb 3d e1 d6 63 3e
       -0.027856575 0.16943935 0.122703426 0.22249939
000070 e4 4a a4 be 45 a2 51 be c5 8a b5 bc 18 ef 97 ba
       -0.32088387 -0.20472057 -0.022160897 -0.0011591641
000080 3b ae 32 3e d1 6a 94 bd 1f d3 2b be 5c e2 a7 3e
       0.17449276 -0.07246936 -0.16779755 0.32789886
000090 e3 f0 a7 3b 6e f0 70 3d 38 cf b3 3d 6e 0f 98 3d
       0.0051251515 0.05882304 0.08779758 0.07424818
0000a0 70 6f 6d 3c 78 1c 9b 3c bd a1 84 3b 21 2b de bc
       0.014491901 0.018934473 0.004047601 -0.027120175
0000b0 e5 d7 0b bd 37 e2 2f 3c 5f 9b c2 3c b0 13 9c bc
       -0.03414144 0.010735086 0.023755727 -0.019052356
0000c0 77 71 eb bb 14 16 48 3d 0f 24 b3 3d 6d 93 0d be
       -0.007185157 0.04884918 0.08747112 -0.1382577
0000d0 8f 16 ba 3e 1f 33 82 3e 0a 6f a4 3e c6 7b aa 3e
       0.36345336 0.25429627 0.32115966 0.33297557
0000e0 83 76 13 3e 50 f0 51 3d b4 21 2f bd 5e 81 1a bf
       0.14400677 0.05125457 -0.04275675 -0.6035365
0000f0 73 12 89 bd f5 05 dc 3d 59 95 0b 3d 12 93 bd bd
       -0.06692972 0.10743324 0.034077976 -0.09256567
000100 93 7c 0e 3e ce dc 6b 3e 5b eb 23 bf 84 c8 d3 bc
       0.13914709 0.23033449 -0.64031 -0.02585245
000110 e6 70 42 3e 49 03 0f 3d 60 ac 1e 3c 71 f6 b7 bd
       0.1898838 0.034915242 0.009684652 -0.08982552
000120 f2 bb d3 3d 99 fb a6 3d d7 e8 a9 bd d9 34 65 3e
       0.10338582 0.08153457 -0.08296364 0.22383441
000130 f5 e6 6b be a4 ee 71 3d 9b 6d 62 3d 56 b0 93 be
       -0.23037322 0.059065476 0.05528031 -0.2884547
000140 ca 87 ff bc 16 96 b4 be 89 a9 8c 3e 19 9f fb bc
       -0.031192679 -0.35270756 0.27473095 -0.030715512
000150 02 0d 37 3d a8 ed cb 3d 40 64 1e 3d 12 6e d1 bb
       0.04469014 0.09957439 0.038669825 -0.006391295
000160 8a 64 a5 3d 3d 7a 09 be ce de 63 3d 2c 3f 19 bd
       0.08075817 -0.13425536 0.055632405 -0.03741376
000170 e0 af 2f 3c 82 d7 fa bd b2 93 b8 3d 22 ba b3 bd
       0.010723084 -0.12248136 0.09012546 -0.087757364
000180 55 37 9f bd 04 94 16 be 86 b8 55 be 90 2d 26 3e
       -0.077742256 -0.14704901 -0.20871171 0.16228318
000190 29 2c 58 bd 03 92 92 3d 14 2e 62 bd 60 9d 41 bf
       -0.05277649 0.07156756 -0.055219725 -0.7563076
0001a0 38 4c d8 bb 3f 56 c7 bd 29 d7 26 bd e9 94 40 be
       -0.006600883 -0.09733247 -0.040732536 -0.18806805
0001b0 20 34 17 3d 57 a1 7b 3e 99 2f e0 3d 7e 0c 22 3f
       0.036914945 0.24573265 0.109465785 0.6330031
0001c0 64 41 f5 bd f8 5e 2b bf 34 60 21 3e 79 ba 03 bf
       -0.11975363 -0.66941786 0.15759355 -0.5145641
0001d0 f1 a5 bd 3d 2f 38 ab be 4d 4c 8f 3d 5f 4b 0a 3e
       0.092601664 -0.33441302 0.06996975 0.13505314
0001e0 8e 27 53 3e a7 6b 54 3d b1 7e 8f 3e 38 52 80 bc
       0.20620558 0.051860478 0.28026345 -0.015664205
0001f0 dc 89 8f bd a5 f2 c8 3c 80 d2 fd bb f8 14 05 be
       -0.070087165 0.024529764 -0.007746041 -0.1299628
000200 8c f2 e8 bd d9 30 46 3e f6 33 5e bd 65 8f 2d 3c
       -0.11374387 0.19354571 -0.054248773 0.01059327
000210 c0 8f 03 3d dc fa ad 3b c5 96 48 bc 20 a5 24 bd
       0.032119513 0.005309446 -0.0122429775 -0.040196538
000220 e4 cb 85 3d 4f 1b 4c 3c a9 3e 94 bc 49 d0 1f bd
       0.0653303 0.012457683 -0.018096285 -0.039016996
000230 c3 e5 51 bd 9f 92 3f 3c 2c 23 fe 3b 64 e2 80 3c
       -0.05124451 0.011692672 0.0077556577 0.015732951
000240 e2 27 2d be f6 f7 4e 3e 19 d8 b9 bd 6d 1a ec 3d
       -0.16909745 0.20211777 -0.090744205 0.11528478
000250 d3 9f 5b be 3f b2 1d be fd ea 5d bd cb 1b 65 bd
       -0.21447687 -0.15400027 -0.05417918 -0.05593471
000260 30 25 da 3c 06 f3 d8 3d ab 77 0c be 36 66 2b 3f
       0.02662906 0.10593228 -0.13717525 0.66952837
000270 bf 35 c6 3d 1d 9a a0 be d7 8c d4 3c ef 48 af bd
       0.0967822 -0.3136758 0.025946064 -0.08558833
000280 59 1a 0c 3e 8f d2 9b 3d 62 d9 08 bf 1b 4b 03 3e
       0.13681926 0.0760852 -0.534567 0.12821619
000290 a3 ca ea 3d 69 3d 23 3e e4 fb d1 be 9f 49 d8 3e
       0.11464431 0.15941395 -0.4101249 0.42243668
0002a0 c6 8e 76 be 25 29 85 bd 8b 45 f6 bd a8 3c 69 3e
       -0.24077901 -0.06501988 -0.12024983 0.22777045
0002b0 b1 0c 8a bd b9 e5 3c 3d 18 a0 50 3d 5f 1e 07 be
       -0.06740702 0.046117518 0.050933927 -0.1319518
0002c0 55 4d a6 ba 3d ae 58 3e 88 e0 16 be 4b 71 91 3d
       -0.0012687842 0.21160217 -0.1473409 0.07101687
0002d0 4f 78 17 3d 8e 68 88 3d f4 f3 a1 bd d5 30 a4 bd
       0.03697997 0.06660567 -0.079078585 -0.080171265
0002e0 30 11 ae 3c 6a 6c 81 bd fa b3 76 3d dd 29 b7 bd
       0.02124843 -0.063195065 0.060230233 -0.08943532
0002f0 5c 5a ba bd b5 2c f9 3d 42 4f 17 3c 43 ae 2c 3d
       -0.09099266 0.1216673 0.009235205 0.042158376
000300 f6 bc f2 3c 87 c6 04 3b ef 93 a0 3d 94 b1 85 be
       0.02963112 0.0020259933 0.07840716 -0.26112044
000310 48 d8 c9 be f5 d6 4a bc 8f d1 02 be 1d 84 f5 3e
       -0.39422822 -0.012380351 -0.12775253 0.47952357
000320 f7 32 da 3b 99 70 19 3d 70 24 15 3c 7b 2a dc bd
       0.0066589075 0.037460897 0.009102926 -0.1075029
000330 da 8e 36 be 2c 97 03 be 7f 35 3c 3e 12 12 d4 be
       -0.17827931 -0.12850636 0.18379782 -0.41420037
000340 e3 84 93 3d 51 f2 80 bc e6 5f d7 3d 25 4e ec be
       0.072030805 -0.015740545 0.10516338 -0.4615337
000350 e6 94 58 3e 39 27 94 bd 3b e0 25 bd 15 6d 8d 3e
       0.2115055 -0.07234044 -0.040497046 0.27622285
000360 81 f2 88 3e 8d b7 a7 3d cf a7 8a be bd e9 b6 be
       0.26747516 0.081893064 -0.27081153 -0.35725203
000370 44 72 b2 3c 0e 7f 06 be d4 78 e6 3d b3 ac 07 be
       0.021783002 -0.13134405 0.11253515 -0.13249473
000380 8b 50 5e 3e e1 f3 e7 bd 87 0e 97 be 20 33 2c 3e
       0.21710412 -0.11325813 -0.2950327 0.16816378
000390 2e b0 bf 3c 7d 86 04 bd 36 63 96 bd 1a 1a 4c 3d
       0.023399439 -0.03235482 -0.07343142 0.04982958
0003a0 85 a3 75 3d a1 fd 08 3d 7e 8f 18 bd f5 47 5b bd
       0.059970398 0.033445004 -0.03724622 -0.05353542
0003b0 36 75 52 bd de 4a 82 3d cf 2d 3b 3d 72 2e 04 be
       -0.051381312 0.06361936 0.045697983 -0.12908342
0003c0 96 4f 1f 3e be f6 95 bd 84 3b 2c 3e 71 f2 d2 3c
       0.15557703 -0.07322453 0.16819578 0.02575037
0003d0 63 a0 b8 3d 3e 79 5f be d0 c1 19 bd b2 09 0e be
       0.09014966 -0.21823594 -0.03753835 -0.13870886
0003e0 f0 b8 b1 3d 27 d1 c5 bd 17 d6 f1 bc 8d 7b 67 3d
       0.08677852 -0.09659033 -0.029521031 0.05651431
0003f0 b2 8b 1d 3e b4 42 15 3e d2 9d 15 bd fb d5 1e be
       0.15385321 0.14576226 -0.036527462 -0.15511315

bias f4 [512]
000000 d2 9d b5 bd d2 da 62 be 81 08 28 3e cd 9a 4d bc
       -0.088679925 -0.22153786 0.16409494 -0.012549114
000010 00 02 b5 3d 98 3f 4c be 61 66 c7 bd 85 9a 45 be
       0.08838272 -0.19946134 -0.09736324 -0.19297226
000020 73 0e 92 bd 0d e4 e6 3b 39 9d df bd 09 63 a6 3d
       -0.07131662 0.0070462287 -0.1091866 0.08124358
000030 be 79 22 bd 7d f4 a6 3d cb 09 46 bd 18 9e 28 be
       -0.039666884 0.08152101 -0.048349183 -0.16466558
000040 3f d4 01 be eb 06 cb bc ab 69 97 bd 53 92 14 3b
       -0.12678622 -0.024783572 -0.073932014 0.0022670224
000050 c9 d4 93 3c 59 2f 03 bd 4a f3 2c be 12 92 99 bc
       0.0180458 -0.032027576 -0.16889682 -0.01874641
000060 46 ce c7 bd 7e 73 7f 3d 70 a3 1d be f5 f6 60 3d
       -0.097561404 0.062366 -0.15394378 0.054923017
000070 6d 73 51 3d f7 30 04 3e 9c a0 8e 3c 97 3b 0a be
       0.05113547 0.12909304 0.017410569 -0.13499294
000080 95 57 5f be 16 e9 be bd 20 d5 ca bd 40 3f 0e 3e
       -0.21810754 -0.09321801 -0.099039316 0.13891315
000090 35 1e 45 3d d5 b9 bc 3d 13 cd 3a 3e 10 50 b1 bd
       0.04812451 0.09215132 0.18242292 -0.08657849
0000a0 40 30 c2 3d 1b 02 ac bd 1f a9 00 bc a8 26 d2 3c
       0.09481859 -0.08398839 -0.007852822 0.025653198
0000b0 58 11 e0 ba 66 6d 8b 3d 2a 3e 66 be 3f 00 67 be
       -0.0017095013 0.068079755 -0.22484651 -0.22558688
0000c0 1f 7b ac bd 16 5f 6d bd 58 ab 27 be 5c 64 58 3d
       -0.08421921 -0.05795201 -0.16373956 0.052830085
0000d0 e4 f7 d9 3b bc a1 d3 bc e7 97 ff bd d0 49 2b 3d
       0.0066518653 -0.025833957 -0.12480145 0.04181844
0000e0 53 8a 2c 3d 1f f7 47 bd b2 ba c4 bb 07 b1 dc bd
       0.042124104 -0.048819657 -0.006003701 -0.10775953
0000f0 50 54 81 bb 10 fb 3d bd e2 fd 3c 3c d7 6d 05 3e
       -0.0039468184 -0.04638201 0.01153514 0.13030182
000100 2b 7a 9c bd 11 7d 6f 3d 38 2a 87 3c 81 88 c3 3d
       -0.07640489 0.058468882 0.016499624 0.095475204
000110 7c 68 9e 3c 45 8c 57 3c 2c c8 a9 bd 0a 11 94 bd
       0.019336931 0.013156001 -0.08290133 -0.072298124
000120 64 23 c3 bd 13 f4 d6 bc 47 9e 4a be 64 d8 a7 3d
       -0.095282346 -0.02623943 -0.1978694 0.0819557
000130 44 43 fe bd d5 af 1f be 66 a9 b1 3d 13 be 18 be
       -0.12415174 -0.15594418 0.08674888 -0.14916258
000140 42 03 70 3b 63 2b 3c bd 3b af 5d bb 1f 3f 46 bd
       0.0036623036 -0.045939814 -0.003382637 -0.04840004
000150 14 96 72 bd 81 29 fe bb 07 4e c9 bc d0 b0 58 3c
       -0.059225157 -0.0077564125 -0.02457334 0.013225749
000160 c4 c9 24 be 30 41 eb 3c 31 8f 82 bd 00 2f a1 3d
       -0.16092592 0.028717607 -0.06374968 0.07870293
000170 7f f7 bb bd 1a 5e f0 bd 58 1f 55 bd de 12 be 3b
       -0.091780655 -0.117366984 -0.052031845 0.005800589
000180 3d 3a c1 bc 4a 6e 16 3e 99 66 1f be 91 2e 6e bd
       -0.02358734 0.1469051 -0.15566482 -0.058149878
000190 3d dd f2 bd 03 aa db bd b7 a2 b8 3d 58 17 8c bd
       -0.11858604 -0.107257865 0.090154104 -0.0684039
0001a0 40 d8 8c 3d ea 87 89 bd 6a 5b 05 be ef b1 aa bd
       0.06877184 -0.06715377 -0.13023153 -0.083347194
0001b0 d4 aa e2 bc 88 99 6c bd 4b 28 40 bd 07 26 26 be
       -0.027669348 -0.057763606 -0.046913426 -0.16225444
0001c0 c5 41 45 3d db 7e 80 bd 6a 44 05 3e 28 9c 7f bd
       0.048158426 -0.06274196 0.13014379 -0.06240478
0001d0 91 f1 8a 3d 88 67 11 bd 9b 90 76 3d 16 3a 43 bd
       0.067843564 -0.035499126 0.0601965 -0.047662817
0001e0 26 2d 16 be 43 87 35 be 8a c7 e8 bd 2f d5 8b bc
       -0.1466566 -0.1772738 -0.11366184 -0.017069427
0001f0 21 85 71 bc 85 74 56 be 70 07 44 3c 2e e1 dd bd
       -0.014741213 -0.20942886 0.011964664 -0.10833965
000200 dc db bf bd 2b e0 10 be 4f 1d 82 bc f1 07 83 ba
       -0.09368107 -0.14148013 -0.015883116 -0.0009996874
000210 88 41 31 3d 4b 6a 19 be 21 ff 1a 3d c1 fa ae bc
       0.043275386 -0.14981954 0.037840966 -0.021359803
000220 8c 81 23 be 78 5a 75 3b 35 d7 d7 3d f8 b1 d4 3d
       -0.15967387 0.0037437957 0.10539094 0.10385507
000230 8f 03 7a be ba ea d5 3d 2d ab 32 bd e4 73 37 bc
       -0.2441542 0.10445161 -0.043620277 -0.011197064
000240 79 83 1e 3d 63 25 0b bd 41 fb 14 3d d6 67 84 bd
       0.0386996 -0.0339712 0.036372427 -0.06465118
000250 17 ad 27 be 5e a9 76 3d 13 ac c7 bd 77 0f 7d 3c
       -0.16374622 0.060220115 -0.097496174 0.015445582
000260 fc 83 a2 bd 7a 4a 35 be 7c d6 36 be d2 06 12 bd
       -0.0793533 -0.17704192 -0.17855257 -0.035651036
000270 58 e8 42 3c 3e 4b 10 be a4 65 b8 3d 1a 00 57 bc
       0.011896215 -0.14091203 0.090037614 -0.013122583
000280 e7 07 e5 bc 79 50 ad bd 9c 23 d5 bd d4 4e 00 bd
       -0.02795787 -0.084626146 -0.104071826 -0.031325176
000290 65 09 0d be e0 0a b9 bd 28 08 55 be 1f 9d 56 bd
       -0.13773115 -0.09035277 -0.20803893 -0.052395936
0002a0 07 5e 01 be 82 39 fc 3c 9f b1 27 be 88 d7 20 be
       -0.12633525 0.03078914 -0.16376351 -0.15707219
0002b0 f4 36 f8 bc c8 76 98 bb 55 24 af bd 78 c7 55 be
       -0.030299641 -0.0046528317 -0.08551852 -0.20876873
0002c0 66 b0 25 be 48 e1 e7 bd 25 06 0e be b2 b7 7d be
       -0.16180572 -0.11322266 -0.13869531 -0.24777105
0002d0 a5 0f 05 be 92 35 06 bd b7 e2 9f 3d 03 33 38 be
       -0.12994249 -0.032765932 0.07806914 -0.1798821
0002e0 b7 25 95 bd b9 cd 4a 3d 06 d3 0d be ef cd 9f bd
       -0.07282584 0.0495126 -0.1385003 -0.078029506
0002f0 43 95 58 3c 2b 47 b4 bc e6 b8 0a bd fb 51 b7 bd
       0.0132191805 -0.022006592 -0.03386774 -0.089511834
000300 f8 e3 84 3d 30 9c 8b 3c de 4d 22 be 84 12 70 bd
       0.06488794 0.01704225 -0.15850016 -0.058611408
000310 41 35 bf bd 6a 97 63 3d 4f e1 16 39 c7 3a 69 bd
       -0.09336329 0.05556432 0.00014389049 -0.05694082
000320 7f a6 da bb 48 e7 be 3d 4b 0b b9 3d 1b 80 63 bd
       -0.00667268 0.09321457 0.09035357 -0.055542093
000330 62 cf e1 bd 14 3a 33 be 19 5c 3d be 68 37 72 3d
       -0.11025883 -0.17502624 -0.18492164 0.05913487
000340 d3 dd 58 bd 0a 98 35 be 19 67 bb 3d 10 6a 56 bd
       -0.052945923 -0.1773378 0.09150524 -0.052347243
000350 0d 4d 84 bd f6 4a 81 bd 68 64 45 be d4 92 25 bc
       -0.06460009 -0.06313126 -0.19276583 -0.010105807
000360 c1 0e df bd 1a 18 10 be ee 13 c1 bd 1f be b2 bd
       -0.10891486 -0.14071694 -0.094276294 -0.08727669
000370 9d 0d b3 3d 70 45 61 3d 19 5a 26 bd 8d 39 f2 bd
       0.08742831 0.05499786 -0.040613268 -0.11827383
000380 62 e6 1e 3d a9 b0 01 be 59 29 ad bc 2f b2 b8 3d
       0.03879393 -0.12665047 -0.02113788 0.09018361
000390 2f 15 16 be 53 c8 81 be 25 85 04 3c ee 06 4a bd
       -0.14656518 -0.25348148 0.008088385 -0.049323015
0003a0 ad d6 1c be 6a 14 17 be 71 95 0f be 10 1d 97 3d
       -0.15316267 -0.14753881 -0.14021851 0.0737859
0003b0 f9 00 1d 3e 37 af 3b be 59 d6 28 bd dd 6a 17 3e
       0.15332402 -0.18328558 -0.041220043 0.14786859
0003c0 b5 29 26 3c fd 88 b7 bd dc f8 29 be 37 12 94 bc
       0.01014178 -0.08961675 -0.16598839 -0.018075092
0003d0 2b 45 fe bd 33 02 d8 bc d9 f1 82 bd 51 2a a7 3c
       -0.124155365 -0.026368236 -0.06393785 0.02040592
0003e0 bd 1b 35 be 3f 51 f5 bc f5 89 bd 3c b7 4b e4 ba
       -0.17686363 -0.029945968 0.023137072 -0.0017417584
0003f0 57 c8 66 bd 4b 05 d9 bc 7a cb 57 3d 57 ef 58 3d
       -0.056343403 -0.026491782 0.052684285 0.052962627

weight f4 [256, 512]
000000 e4 68 a5 3d 5e 25 e4 3d ec 8f d1 3b f5 03 1d 3e
       0.08076647 0.1113994 0.0063953307 0.1533354
000010 81 2c ce 3d 98 8d a9 3d 27 60 6e bc 5a c1 86 3a
       0.10067082 0.0827896 -0.014549292 0.0010281012
000020 88 25 f4 bc 77 24 58 bc 68 0f cf bd 39 9e c5 3d
       -0.029803053 -0.013192288 -0.101103604 0.09649319
000030 d0 85 af 3d 45 c8 01 3e 66 f3 8b bd 91 2e 77 3c
       0.085704446 0.12674053 -0.06833534 0.015086786
000040 d1 4e c8 3d bc 4e d2 bd 24 33 e1 bb 71 f1 f7 3b
       0.09780658 -0.10268924 -0.0068725515 0.007566624
000050 76 83 83 bd 2c ea 0f 3e 6b ad e7 bc d7 0b 2a 3d
       -0.064215586 0.14054173 -0.028280934 0.041515198
000060 04 bf e6 bd e7 74 be 3d fe 33 25 be 02 ed 6c 3e
       -0.11266902 0.09299641 -0.16133115 0.23137286
000070 77 ad c9 3d 3f 73 51 3e 99 05 28 3e d8 f7 2e 3d
       0.09847539 0.20454119 0.16408385 0.04271683
000080 fd 3f 4f bb c4 00 9f 3d 4c 27 94 3d 84 08 30 bd
       -0.0031623833 0.07763818 0.07234058 -0.04297687
000090 15 b7 b3 3c 0d 15 08 bd 5b 80 fb 3c 02 46 d0 bc
       0.021937886 -0.0332232 0.030700853 -0.025424007
0000a0 4d 63 2e 3d db 21 4f be 47 dc 52 3d 05 70 9b 3c
       0.04257517 -0.20227759 0.051479604 0.018974314
0000b0 93 91 48 3e 15 1e c6 3d 73 79 dd 3a fd a7 31 3e
       0.19586782 0.096737064 0.0016897157 0.17349239
0000c0 ec 21 22 3e 21 6e 5d 3d 19 38 bf 3d df fc 0d be
       0.15833253 0.054060105 0.09336872 -0.13865994
0000d0 fd f2 e7 3d 51 c4 81 3c 56 2a 23 3d 6d 8b 7c bc
       0.11325643 0.015840681 0.039835297 -0.015414101
0000e0 1a 32 82 ba f1 4c 8f be 6d 50 1c 3e ff af 94 3c
       -0.0009933144 -0.2798839 0.15265055 0.018150328
0000f0 11 a3 02 be fe ba 2e 3d 9f cc b2 ba 11 ee 88 3c
       -0.12757517 0.0426588 -0.0013641304 0.016715081
000100 98 dd 0f be 62 87 02 3d 20 8f 20 3c 69 04 d5 3c
       -0.14049375 0.031867392 0.009799749 0.02600308
000110 78 5b 8f bd 69 ef 6d 3c 03 a0 b5 3d e5 7e be 3a
       -0.06999868 0.014522412 0.088684104 0.0014533667
000120 13 d9 a5 3d b2 89 fc 3d d4 45 28 3c 6b d7 d1 3d
       0.08098044 0.12330951 0.010270555 0.10246166
000130 36 8d 2b 3c 6b b3 05 3e ad 93 d7 ba 57 fb 1e 3e
       0.010470679 0.13056724 -0.0016447209 0.15525566
000140 e5 08 ca 3c bf 4c b2 3d b5 b4 86 3d f0 87 0b 3d
       0.024662444 0.087060444 0.06577436 0.034065187
000150 bb 74 3a 3e ac 0f 17 3e b8 8a 45 3e ad 33 a5 3d
       0.18208592 0.14752072 0.19291198 0.08066497
000160 ee 39 e8 3c 99 30 5f be c1 de c4 3d ab 4f 98 3d
       0.028347936 -0.21795882 0.096127994 0.074370705
000170 bd e5 06 3e 31 94 01 be f5 e1 6f 3e ff 27 4b bd
       0.13173576 -0.12654187 0.2342604 -0.04959869
000180 75 87 4b be 4f 44 b6 bd 2a 35 14 bd 06 24 b0 bd
       -0.19875892 -0.088997476 -0.036183514 -0.08600621
000190 21 ff 9f bd c3 18 42 bc 5e 78 14 be 42 2e e2 bc
       -0.07812334 -0.011846724 -0.14499041 -0.027609948
0001a0 7f 42 ef bc 06 b9 c2 bb 96 57 b1 3d 16 42 3c 3d
       -0.029206512 -0.0059424667 0.08659284 0.045961462
0001b0 dd 6a d8 bd 4b 1d 2e 3e db 57 9a 3d 19 3c 68 3c
       -0.105672576 0.17003362 0.07536288 0.014174485
0001c0 36 c5 a6 3d 23 99 41 bd a6 7f 80 bc b5 7f 22 3d
       0.08143084 -0.047265183 -0.015685868 0.039672572
0001d0 40 00 cc bd c6 02 81 3d 5a ca c6 3c 97 da ee 3d
       -0.09960985 0.06299357 0.02426641 0.116627865
0001e0 79 c1 d5 bd ce 0b 94 3d 3e b3 a3 3d 4c 9d 15 be
       -0.104372926 0.07228814 0.07993172 -0.14610785
0001f0 78 5a ba 3d 07 99 09 3e 45 b3 ac bd d4 4e 06 3d
       0.09099287 0.13437282 -0.084326304 0.03279002
000200 6d c5 d2 3d 9c 82 98 3d 3e 09 1d bc 1c 70 5e bd
       0.10291562 0.07446787 -0.009584723 -0.054306135
000210 b9 54 92 bd fe 72 0c bd b0 36 95 3d 89 c4 09 3d
       -0.07145066 -0.034289353 0.072858214 0.033634696
000220 9e 5e 7d bd 35 9a 6c bc ca 66 23 3d 9c 1d 4d 3e
       -0.061857812 -0.014441063 0.03989295 0.20030826
000230 7f 25 52 3e 24 21 19 3d 8c 29 9e 3d 4c c7 af 3c
       0.20522116 0.03738512 0.07722768 0.021457337
000240 f4 81 fd 3d 65 a1 1c 3e bc 1b ea bc 9c 1a 0e bd
       0.12378302 0.15295942 -0.028577678 -0.034693345
000250 64 f2 bc bd d4 fe 6c bd ed c6 9d bd 55 91 19 b9
       -0.0922592 -0.05786021 -0.07703958 -0.00014645357
000260 ea 24 1d 3e e8 a4 83 3d 5e 4b fa bd 54 f5 48 3d
       0.15346113 0.06427938 -0.122214064 0.049062088
000270 0f 8e d4 3c ff ec c4 bd 5f fd b2 3d b3 f1 df 3c
       0.025946645 -0.09615516 0.08739733 0.02733693
000280 2e eb a7 3d a2 fb c1 bd 28 80 7d 3d 0e 69 d9 bd
       0.08199154 -0.09471823 0.061889797 -0.10615741
000290 15 1d 57 bd 39 09 9e 3d d4 28 fd 3c 47 71 9d 3c
       -0.05251797 0.07716603 0.030903257 0.019219054
0002a0 1c 33 ac 3d a7 86 16 bd 6b dc 08 be e7 de f4 3d
       0.08408186 -0.03674951 -0.13365333 0.11956578
0002b0 1c 4c 3b be ef 7d b3 3d 42 55 fb 3d 83 09 e0 bc
       -0.18290752 0.08764254 0.12272121 -0.027348286
0002c0 05 83 71 ba 38 67 aa bd 09 f6 92 be 30 15 3e 3c
       -0.0009212944 -0.08320469 -0.28703335 0.011601731
0002d0 75 b8 97 bc ac bd 3e 3d 7f f8 8a bc 93 ae 06 3e
       -0.018520573 0.046567604 -0.016964195 0.13152532
0002e0 db f0 1f 3d 90 ae ff 3d 90 64 20 be 18 8b 18 3d
       0.039048057 0.12484467 -0.15663362 0.037242025
0002f0 f2 c4 d7 bd 6f 99 cf 3b 0d a3 20 bd 68 00 06 3e
       -0.10535611 0.0063354294 -0.039217997 0.13086092
000300 d0 02 08 be 5d 6e 0c 3e 66 a7 db 3c fc 15 35 3d
       -0.13282323 0.13713975 0.02681322 0.04421042
000310 44 70 bd bd ac 44 86 3c bc ec 8b 3e 94 85 bc 3c
       -0.092499286 0.016390167 0.27329051 0.023012914
000320 f2 b5 59 bc 63 5c 8b bd bd 19 fb 3d dc d7 62 3e
       -0.013288008 -0.06804731 0.122607686 0.22152656
000330 66 ed 48 3d 0f 8a af 3c 5c 08 63 3e 7f 02 30 bd
       0.049054526 0.021428136 0.22171158 -0.04297113
000340 b5 6e 16 be 9a b1 c4 bd d8 d2 4c be 97 bd f9 bb
       -0.14690669 -0.09604187 -0.20002306 -0.007621478
000350 0e 12 cc bc 1a 01 aa bc 75 ee 2a bd 8d 47 a3 bd
       -0.024910953 -0.020752478 -0.041731317 -0.079726316
000360 cd 94 f9 3d 5c 14 ae bd 07 5f 49 3e e9 d4 21 3c
       0.121865846 -0.08499977 0.19665156 0.009877422
000370 cf 15 6f ba 4b 56 8b 3d 4f 17 1f bc 37 e8 ac 3d
       -0.0009120376 0.068035685 -0.009710147 0.08442729
000380 d3 5a d5 ba e3 f8 9c 3a 45 0a 1b 3e 00 84 95 3d
       -0.0016277678 0.001197603 0.15140636 0.073005676
000390 97 40 be 3d 22 85 e5 bc 11 c1 1d 3c f5 ff f9 3d
       0.09289663 -0.028017584 0.00962855 0.12207023
0003a0 72 38 3d 3d d8 d3 65 3d 10 52 06 be e3 8b d3 bd
       0.04619641 0.056110233 -0.13117242 -0.10329416
0003b0 ec 1c 82 3d 7c e8 34 bb c1 a5 9b 3c 9f 9b f4 3b
       0.06353173 -0.0027604392 0.018999936 0.0074648405
0003c0 83 ba ce 3c 35 d2 d8 3c 50 91 e7 3d 78 d8 2d 3b
       0.02523542 0.026467422 0.11307013 0.002652673
0003d0 b0 22 be 3b 45 2b c6 bc 72 ec 90 3d 43 52 af 3c
       0.005802475 -0.024190554 0.07076348 0.02140153
0003e0 1d 64 1c bd c0 cc 38 bd da 69 1b 3e 69 a6 5a 3d
       -0.038181413 -0.04511714 0.15177098 0.053381357
0003f0 24 88 34 3e f6 6f 33 3e 7e 5f 23 3e a1 78 64 bd
       0.17630059 0.17523178 0.15954396 -0.055779103

bias f4 [256]
000000 f9 77 9f bd 20 86 88 bd d0 da 54 bd b8 fd 13 be
       -0.07786555 -0.06666207 -0.05196649 -0.14452255
000010 1c ac 2a bd 26 be d1 bd ba 36 0b be c5 4c df bd
       -0.041668043 -0.10241346 -0.13595095 -0.109033145
000020 e1 96 6b bd fc 28 10 be 54 7f 75 bd 1b ec b8 bb
       -0.057516936 -0.14078134 -0.059935883 -0.0056433803
000030 83 13 54 bd 63 57 83 bc 9c b0 ec bc 57 78 02 bd
       -0.05177642 -0.01603288 -0.028892808 -0.031853046
000040 a0 9e 83 bd cb 7c 25 3d 25 30 06 bd 76 e0 4f bd
       -0.0642674 0.040402215 -0.032760758 -0.050751172
000050 ca 96 88 bd 8a ff f3 bc 9c 93 c4 bd ae e9 a7 bd
       -0.06669386 -0.029784936 -0.09598467 -0.08198868
000060 86 5d 75 bd 83 87 33 bd b9 70 07 be 67 ed c6 bc
       -0.059903644 -0.043830406 -0.13226594 -0.024283124
000070 d8 95 a6 bc a4 61 93 bd 6a a9 90 bd c7 d3 95 bd
       -0.020335123 -0.07196358 -0.07063563 -0.07315784
000080 c2 f6 ad bc 32 73 97 bc 06 0e 24 be 7a e3 a7 3c
       -0.021235827 -0.018487547 -0.16020975 0.020494211
000090 94 eb 8f bd df ea 4f be a6 c8 ec bd f2 4e 3b bd
       -0.07027355 -0.2030444 -0.11561708 -0.045729585
0000a0 64 7d 3b bd 14 cd fc bd fd ac ff bd 10 a0 e6 bd
       -0.04577388 -0.12343803 -0.12484167 -0.11260998
0000b0 bc 20 4e bc 89 1f cd bd 62 27 d8 bd 2a 23 fa bd
       -0.012581047 -0.100157805 -0.10554387 -0.12213738
0000c0 da 63 0e bd 81 47 f6 bd e0 60 e8 bd de e7 b3 bd
       -0.034763195 -0.12025357 -0.113466024 -0.087844595
0000d0 59 55 6f bc 6a 7b de bc 4e 07 84 3c 04 08 10 bd
       -0.014607751 -0.027158458 0.016116764 -0.035163894
0000e0 f3 b2 80 bd 9a 23 1d be eb a4 0b be 06 a7 9d bd
       -0.06284132 -0.15345612 -0.1363713 -0.07697873
0000f0 1c be 11 3d 1a d9 25 bd e1 70 f3 bc 4b 21 cd bd
       0.035581693 -0.040490247 -0.02971691 -0.10016116
000100 2f ef e6 bd 47 a6 14 be 71 c9 dd bd 59 5f e6 bd
       -0.112760894 -0.14516555 -0.108294375 -0.11248655
000110 d8 8f 95 3b 2f c7 58 bd 95 24 3d bc f6 04 d5 bd
       0.0045642667 -0.05292433 -0.011544366 -0.10401337
000120 52 c1 cf bd b0 12 45 bd f1 a9 0c bc d1 44 e1 bd
       -0.10144295 -0.048113525 -0.008585439 -0.10999454
000130 26 b4 93 bd 5c 23 35 bd 89 9c 0b be 2c bb b1 bd
       -0.07212095 -0.044223174 -0.13633932 -0.08678278
000140 28 be 5c be 69 84 b5 3c 69 02 35 bd d7 a6 9e bd
       -0.21556914 0.022157865 -0.04419175 -0.07746666
000150 04 dd 04 be 05 5f 06 be 17 a5 d6 bc 68 9c 22 be
       -0.12974936 -0.13122185 -0.026201768 -0.15879977
000160 34 79 e0 bd b1 fa a1 3c 42 ef 4d bd 8e f4 3b be
       -0.10960618 0.01977286 -0.050277002 -0.18355009
000170 aa b2 35 bd c3 3e 84 bd cb 5c a8 bd 47 af 20 be
       -0.04435984 -0.06457283 -0.08220824 -0.15691863
000180 4d a6 80 bd de eb 9b 3c fe 05 af bd 47 c3 d5 bd
       -0.06281719 0.019033369 -0.08546065 -0.10437637
000190 c7 b8 00 be a4 99 78 bd c7 af 44 be fc 0a 6f bd
       -0.12570487 -0.060693398 -0.19207679 -0.058360085
0001a0 5d ae 58 3c 2c 99 a5 bd 2c 08 25 bd 75 60 88 bd
       0.013225165 -0.08085856 -0.040290996 -0.06659023
0001b0 fa 9d 26 3b 9e 8a a5 bd 4c ee 7a bd a7 c8 8b bd
       0.0025423751 -0.0808308 -0.061262414 -0.06825381
0001c0 78 f2 b5 3a fc f5 aa bd c6 c9 25 bc 89 43 16 be
       0.0013881465 -0.08347699 -0.010118907 -0.146742
0001d0 de 20 bd bd ad d6 83 bd 00 34 0b 3d 6f 3f 0f 3c
       -0.092347845 -0.064374305 0.033985138 0.008743151
0001e0 41 de 52 bd 3c d3 b3 bb 41 64 a9 bd d3 f0 0a be
       -0.05148149 -0.0054878276 -0.08271075 -0.1356843
0001f0 82 1a d7 3c 14 1f 16 be 3d 8e bf bb 87 cc 96 bd
       0.026257757 -0.14660293 -0.0058458135 -0.07363229
000200 ef ad 56 bd 5f 1c 3b bd a7 38 f0 bd de b7 9d bd
       -0.05241197 -0.045681354 -0.117295556 -0.077010855
000210 9c b8 f6 bc aa 5c 60 bd 32 16 d8 bd 77 4f de bd
       -0.030117325 -0.05477587 -0.105511084 -0.108550005
000220 7a 56 47 be 12 49 e7 bd b1 29 f1 bd 6a e5 13 be
       -0.19466582 -0.11293234 -0.1177553 -0.14442983
000230 22 03 a5 bd f4 07 8a be fc 99 56 3c 49 1d e5 bd
       -0.08057238 -0.26959193 0.013098236 -0.11187226
000240 46 1b 8a bd 28 1c fe bd 34 2e b7 bd 06 13 1a be
       -0.06743483 -0.12407714 -0.089443594 -0.1504632
000250 f4 55 9e bd 04 f8 86 bd 14 5b de bd b9 2c 93 bd
       -0.07731238 -0.06590274 -0.108572155 -0.071862645
000260 f9 c6 96 bd bf 54 a7 bd d1 cc 97 bd 28 84 72 3c
       -0.0736217 -0.08170461 -0.074121125 0.014802016
000270 5a b5 a3 bc 65 9f 2b be 29 d5 8a bd 77 06 ab bc
       -0.019983936 -0.16760023 -0.06778938 -0.020877106
000280 57 0d 09 be d4 f1 f3 bd 8a 26 83 bc d9 bf 7a be
       -0.13383995 -0.119113594 -0.016009588 -0.24487247
000290 91 b0 93 bd 68 2f b2 bd 5e fe 78 bd 67 35 12 3d
       -0.07211412 -0.08700448 -0.06078946 0.03569546
0002a0 5c ea 74 3d 91 ca 9f bd 86 a1 53 bd 28 52 14 bd
       0.059793815 -0.07802308 -0.051667713 -0.036211163
0002b0 e7 40 49 bd 40 19 dc bb 10 ca de bd 4a 5f 62 bd
       -0.04913416 -0.006716877 -0.10878384 -0.055266656
0002c0 06 eb dc bd 20 45 96 bd e3 fe df bd ef 9f 10 be
       -0.10787015 -0.07337403 -0.10937288 -0.1412351
0002d0 a5 01 a4 bd 08 57 30 bd 21 c1 64 be 24 7d 0d bd
       -0.08008126 -0.04305175 -0.22339298 -0.03454317
0002e0 2e 13 f1 bd cf c7 21 bd e2 bb 03 be 85 71 b0 bd
       -0.11771236 -0.039497193 -0.1286464 -0.08615402
0002f0 0a 74 05 be be cc e6 bd e7 39 37 3c 8f d3 18 be
       -0.13032547 -0.1126952 0.011183239 -0.14924453
000300 4d 18 8f bd b4 fc f6 bd e8 f8 87 bd 06 a6 81 be
       -0.06987057 -0.12059918 -0.06639272 -0.25321978
000310 30 d5 f7 bd 10 d8 be bd 4f b7 95 be 8d ba b6 bd
       -0.12101209 -0.093185544 -0.29241416 -0.089223005
000320 c4 39 5e bd 82 63 a3 3c 0d 89 76 bd d7 bc 6c bd
       -0.05425431 0.01994491 -0.060189296 -0.05779728
000330 ba 74 bd bd b6 3d 80 bd df f3 9b bc 29 54 89 bc
       -0.092507794 -0.062617704 -0.019037185 -0.016763764
000340 62 61 79 bd c2 ad a9 bd 92 64 43 bd ac 34 df 3d
       -0.060883887 -0.08285095 -0.047703333 0.10898718
000350 2b b1 f6 bc b3 7a 58 bc 39 b4 28 be fa 95 ed bd
       -0.030113777 -0.0132128475 -0.16475 -0.116008714
000360 e4 4e 93 bd ae 30 80 bd 9a f3 a1 3c 07 0a 0a be
       -0.071927816 -0.06259285 0.019769479 -0.13480388
000370 ab 84 0d be 20 42 8f bd e4 e4 de bd 98 29 d2 bc
       -0.1382014 -0.06995034 -0.10883501 -0.0256546
000380 64 ad a3 3c b5 62 bb bd 8a f4 78 bd 9e af 9c 3c
       0.01998014 -0.09149686 -0.060780086 0.01912671
000390 e8 6a 19 3d 29 4f c0 bb d1 ea ad bd 16 fa 9e 3c
       0.03745547 -0.0058688116 -0.08492053 0.01940636
0003a0 dc 78 01 be cc a1 43 bd 42 bd c9 bd 5e e8 2c be
       -0.1264376 -0.047761723 -0.09850551 -0.16885516
0003b0 59 8e 70 bd 2d b3 5b bd 0b de d3 bc 01 fe c0 bd
       -0.058729503 -0.053637672 -0.025862714 -0.094234474
0003c0 7a 2a 5b bd 19 43 c4 bc af 22 91 bd 4b b6 c9 bd
       -0.053507306 -0.023957776 -0.070866935 -0.09849223
0003d0 f2 00 dd bd da a3 08 3d e5 fc 78 bd 3d 10 d0 bd
       -0.10791196 0.033359386 -0.060788054 -0.10159347
0003e0 87 ed 8b bd b4 1a 70 bd e1 b0 9e bd de 38 dc bd
       -0.06832414 -0.058619216 -0.07748581 -0.10753034
0003f0 98 3e e9 bc 8e 57 8a bc fb a3 e6 bd 46 b0 27 bd
       -0.02847223 -0.016887452 -0.112617455 -0.04093959

weight f4 [128, 256]
000000 fc 1b 56 bd 6b a0 5e bc 0d 06 f5 3c 5c 29 81 bd
       -0.05227278 -0.013588051 0.029910112 -0.06306717
000010 2c 74 88 bc 8f 0d 88 3d 43 82 da 3b 8a fd 3a 3d
       -0.016656958 0.06643211 0.0066683604 0.04565195
000020 2e dc 82 3d 5d 3a f5 bc 2b a8 29 bd b0 60 27 bd
       0.06389652 -0.029935056 -0.041420143 -0.040863693
000030 e1 5d 54 3b 7f 6d b8 bc 54 33 ad 3c 83 69 ab 3c
       0.003240459 -0.02251315 0.02114264 0.020924335
000040 4c c0 8f bc f5 d8 a9 bd 1a 2c 52 3d 09 a4 f9 3d
       -0.017547749 -0.082933344 0.05131159 0.1218949
000050 e5 5d 9a bd f7 64 48 3d 26 c5 a0 bd 5c 14 98 bb
       -0.0753744 0.048924413 -0.07850103 -0.004641099
000060 30 43 08 3e 79 ae 5c be 8d 1d c9 3c 64 2d 62 bb
       0.1330688 -0.21550931 0.024550224 -0.0034511918
000070 4f 54 1d bd 72 3c d3 bd db 32 7c 3d 2f 96 5b 3d
       -0.03841048 -0.103142634 0.061571937 0.053610023
000080 af f8 0d 3d ab 4d 80 3d ea 79 2a 3c a1 4f c7 bc
       0.03466099 0.06264814 0.010405043 -0.024329962
000090 72 2e 7b 3d 9f 6c f8 3d 22 61 31 ba 34 a0 d7 3d
       0.06132359 0.12130093 -0.0006766488 0.10528603
0000a0 ff ab 3c 3d 6b 08 16 3d bc 77 ca 3b b6 2a 8a 3d
       0.046062466 0.03662912 0.006178824 0.06746428
0000b0 2e 1b cf 3c e1 07 0d 3d c6 e3 89 3d 0e a6 e9 bd
       0.025281515 0.034431342 0.067328975 -0.114086255
0000c0 17 5d ad 3d b9 eb e7 3d f1 e9 e5 bb 7c bf 9a 3c
       0.08465021 0.113242574 -0.0070164134 0.018890135
0000d0 50 ef f8 bc a7 e9 b8 3d 99 85 1d 3d bc 59 a2 bb
       -0.03038755 0.09028941 0.038457487 -0.004954545
0000e0 4c ca de 3a 56 52 79 bd b8 36 fc 3d d0 60 d6 3d
       0.0016997545 -0.060869537 0.12315124 0.10467684
0000f0 b2 f5 b2 bc 67 20 82 bd df 88 25 bd 23 e7 11 3d
       -0.021845672 -0.063538365 -0.040413734 0.03562082
000100 f6 dd 91 bc e3 b5 ee bc 43 95 7a bd 89 1f 66 3d
       -0.017806035 -0.029139465 -0.061177503 0.056182418
000110 2e a6 5e bd 88 b6 00 3c 05 ed 48 3d d4 e6 3a bd
       -0.0543577 0.007856019 0.049054164 -0.04563029
000120 82 35 b2 3d ea 30 e4 3d 23 5a 1e bd 57 09 2f 3d
       0.08701612 0.11142142 -0.03866018 0.042733517
000130 55 fe a8 bd 98 f9 03 bd 3b d4 d6 3c ff 5b c5 bd
       -0.08251635 -0.032220453 0.026224246 -0.096366875
000140 c1 bf d3 bd 3c df c2 3d 8b c5 7d 3c 28 61 ca 3d
       -0.103393085 0.09515235 0.015488992 0.09881812
000150 0e ff 25 bd 8d d8 27 3c 97 de c5 bb a8 9e 1f bd
       -0.040526442 0.010244501 -0.0060384977 -0.038969666
000160 09 1a 0a bd 87 65 37 bd a2 63 34 bc 9f 1e 45 3d
       -0.033716235 -0.04477456 -0.011010082 0.048124906
000170 88 2e 41 bc 84 7d b0 3d 82 1f 62 3d c8 d3 b5 bd
       -0.011790879 0.0861769 0.05520583 -0.08878285
000180 5a 29 34 be 8f b3 bc bd 47 62 24 3d 12 60 95 3d
       -0.175939 -0.092139356 0.040132787 0.072937146
000190 2c 3d 3e 3d 83 02 35 3c f3 7f 13 3d c3 17 c3 3d
       0.046445057 0.011047962 0.036010694 0.095260166
0001a0 7a fa 43 bd bc 22 bc 3d c3 a3 74 3d 80 b0 84 3d
       -0.047846295 0.091863126 0.059726488 0.06478977
0001b0 ca df a1 bc 5d ea 48 3d 8e 7f ec bc 3c f2 d0 3d
       -0.019760031 0.04905163 -0.028869417 0.102024525
0001c0 02 b4 ab 3d e8 6c 84 3c a6 d8 1e 3c d2 24 18 3e
       0.08383943 0.016165212 0.009695208 0.14857796
0001d0 b8 46 50 bd cc 5f 77 bd 91 5f 7b bc fb 89 8b 3c
       -0.050848693 -0.060394093 -0.015342609 0.017033568
0001e0 1f b8 e3 bc dd 1e 8d 3c 4c a3 2e 3d e2 cc ef bd
       -0.027797757 0.01722663 0.0426362 -0.11709
0001f0 3f 32 04 3e 8c 0a 7f bd ef df 77 bd 41 2c 19 bd
       0.12909792 -0.062265918 -0.060516294 -0.03739572
000200 2d f3 9b 3d 77 9d ef bc 25 de 13 bd 1b d2 97 3d
       0.076147415 -0.02924989 -0.036100525 0.07413121
000210 94 ca cd bd a7 d5 ec bd 14 0a dd bd 42 7a 80 bd
       -0.10048404 -0.115641885 -0.10792938 -0.06273319
000220 b0 e6 94 3c 6f 61 44 3d 73 4d d6 bd db 51 c0 3c
       0.018176407 0.047944482 -0.10463991 0.023476532
000230 cf 37 44 3b 6b 6b 19 bd 5e 7e ab bd 26 82 aa 3d
       0.002994049 -0.037455957 -0.08373712 0.08325605
000240 24 ca a4 bd 54 83 be bd e8 fb cf bd 01 6d 82 3d
       -0.08046368 -0.093023926 -0.10155469 0.06368447
000250 e3 86 b0 3d 60 8f 43 3d e3 a1 c6 bc 9b a1 ae 3c
       0.086194776 0.047744155 -0.024247115 0.021317294
000260 61 d1 5d 3d bf 5e f0 bc ea 1f c5 3c 24 79 26 be
       0.054154757 -0.029342053 0.02406307 -0.16257149
000270 33 0a 99 3d bb 7a 83 3b 84 af 9c bc 5a 2a 04 3d
       0.074726485 0.0040124333 -0.019126661 0.032266952
000280 a8 c9 23 3d 3d b8 01 3e 55 09 0d bd 30 f2 2b bd
       0.039987236 0.12667938 -0.034432728 -0.041979015
000290 1e e6 95 3d 26 3a 46 bd 6c ff c3 bc 25 39 9e 3d
       0.07319282 -0.0483953 -0.023925506 0.07725743
0002a0 e7 13 7c bd a3 d8 a0 3d 95 70 2c 3d 43 0b 9e 3d
       -0.061542418 0.0785382 0.042099554 0.07716992
0002b0 88 e3 45 3d 61 c7 d4 bc 9b 44 e9 3d ce d1 36 bd
       0.048312694 -0.025973978 0.113900386 -0.04463368
0002c0 36 d5 f4 3a 72 ea 23 3d 98 82 a0 bd 5e 99 8a 3d
       0.0018679264 0.040018506 -0.07837409 0.06767534
0002d0 c7 6e c6 3d 0b b6 2c bd 12 87 89 bb 04 67 9c bd
       0.09689098 -0.042165797 -0.00419701 -0.07636836
0002e0 b6 0b 5e bd e5 3f b6 3d ef 02 26 3d 4e b1 0a bb
       -0.054210387 0.08898906 0.04053014 -0.002116281
0002f0 eb 1e 37 3c 29 0e b2 3d 8d fe e3 bc f1 d5 6a 3d
       0.011176805 0.08694107 -0.02783134 0.057332937
000300 0f b5 8f 3d 1a 6b c9 bd 5b f8 98 bd 16 e4 e2 3d
       0.07016956 -0.09834881 -0.07469245 0.1107866
000310 18 36 bf 3d 11 60 2d 3d 49 47 a9 3d 73 5c c6 bd
       0.093364894 0.042327944 0.0826555 -0.09685602
000320 19 17 ad ba ba b6 82 3d 7d ce 73 3d c5 c3 58 bc
       -0.0013205736 0.063825086 0.059523094 -0.013230269
000330 04 0c c4 bd fe d5 ab 3b 27 74 b0 3d 9b 2a 0e be
       -0.09572604 0.0052440157 0.08615904 -0.1388344
000340 0a 64 84 bd 80 43 96 3d 16 58 e2 bb 9c fc f2 bc
       -0.064643934 0.07337093 -0.0069074733 -0.02966147
000350 40 5f b3 3d 27 fd d0 3c 4f 5f 01 bd 95 0b 80 3d
       0.08758402 0.025511337 -0.031585034 0.06252209
000360 c0 d6 67 bc c9 cb fc bd 94 a9 7b 3c 13 49 2d 3d
       -0.0141503215 -0.123435564 0.015360255 0.042306017
000370 43 e9 56 3d 1d 1f c8 bb eb e7 c5 3d 18 9a 48 3c
       0.05246855 -0.0061072246 0.096633755 0.01224377
000380 8c b9 57 3c 09 98 29 be 2e b7 38 bc ad 03 97 3d
       0.013166796 -0.16561903 -0.011274142 0.07373748
000390 01 3b db 3c 68 7e 09 3e 6a 18 08 bc 5d 0d 71 3d
       0.026761534 0.13427126 -0.008306602 0.058850635
0003a0 16 98 77 3c 09 c6 bf 3d 2e 3d 4a 3d 51 aa 9c 3d
       0.015111944 0.09363944 0.04937475 0.07649673
0003b0 d9 70 1e bd 82 86 1f bd 1b 2e c3 bd 2a 37 42 3d
       -0.03868184 -0.038946636 -0.09530278 0.04741589
0003c0 7d cd ca 3d cd 92 7d 3b 41 db 23 3d 98 75 67 bc
       0.09902475 0.0038692236 0.04000402 -0.014127158
0003d0 88 8c 83 bc cb 6f d2 3d cb 43 3f bb ed b0 29 3e
       -0.016058221 0.10275229 -0.0029184695 0.16571398
0003e0 da ed 3e 3d 97 d4 16 3e 3e 9f aa 3a 0a cc ad 3d
       0.04661355 0.14729534 0.0013017429 0.08486183
0003f0 dc 17 b3 bc ce 18 4c 3d cf 7a 6e 3d b7 52 b6 bd
       -0.021861963 0.049828343 0.05822259 -0.08902495

bias f4 [128]
000000 01 78 e3 bb fc 6a a4 bd 5c d9 c4 bd 19 55 cb bd
       -0.006941796 -0.08028218 -0.096117705 -0.099283405
000010 9a 23 60 bd 1b f5 0b be ce 6b 30 bd fb e2 55 3c
       -0.054721452 -0.13667719 -0.04307156 0.013054605
000020 00 9a 49 3c d9 9b ff bc a1 dd 5a bd f2 32 59 bc
       0.012304783 -0.031202244 -0.053434018 -0.013256775
000030 e4 7d a6 bd 79 eb 0b be 6d f3 82 bc 41 70 36 3b
       -0.081294805 -0.13664044 -0.015985215 0.0027837905
000040 d4 4b 32 bd af 96 06 3d f3 4a 27 be 75 6c 94 bc
       -0.043529347 0.032858547 -0.16337185 -0.018118123
000050 86 38 90 bc a5 f1 a1 bd 9f c3 72 3c 9e e9 cb bd
       -0.017605077 -0.07907418 0.0148171475 -0.09956668
000060 ad 14 ca 3c b2 f0 6a bd e5 b4 d7 bc 02 51 e9 bc
       0.024668062 -0.05735845 -0.026331374 -0.02848101
000070 70 5c 8d bd 0b fe b2 bd bc 3f 5f bc f2 8c dd bd
       -0.06902397 -0.08739861 -0.013626035 -0.10817899
000080 cd f3 13 3c 12 e9 90 bd 21 d5 63 bd 0c 23 d5 bd
       0.009030295 -0.07075705 -0.055623177 -0.10407075
000090 e9 3b ab bd b9 18 8e bd 67 b1 94 bd 2b d4 9d bd
       -0.08361036 -0.06938309 -0.07260399 -0.077064835
0000a0 ff 76 6b bc 1f fa d6 bd 9d f9 9c 3c 64 d0 35 bd
       -0.014371633 -0.104969256 0.019161994 -0.04438819
0000b0 00 c0 c8 bd 53 07 2d be b0 ff 1b be 86 15 3d be
       -0.09802246 -0.16897325 -0.15234256 -0.18465242
0000c0 f7 a5 30 be a4 76 96 bd c2 be aa bd e3 c6 61 bd
       -0.1725081 -0.07346848 -0.083371654 -0.055121314
0000d0 46 10 68 bd 2a d8 db bc f2 e8 01 be 6c fa 1d be
       -0.056656145 -0.026836473 -0.12686518 -0.1542756
0000e0 40 5f b1 bc 73 45 a1 bd 73 5c e4 bd 9a 0f 9c bd
       -0.021651864 -0.078745745 -0.11150446 -0.07620163
0000f0 87 e5 1c bd dc 5d bd bc aa 32 a7 bd f0 5a ae bd
       -0.03830483 -0.023116045 -0.0816396 -0.08513439
000100 c3 f7 71 bd 86 b4 18 be 58 9f 59 3c 6c 5a 2d be
       -0.059074175 -0.14912614 0.013282619 -0.16929024
000110 6a 38 05 bd 85 b0 c1 bd 56 c5 e2 bc af e8 8a bd
       -0.032524504 -0.094574966 -0.027681988 -0.06782662
000120 a0 45 ae bd 18 0e 16 bd 16 2d cc 3c 9d da 01 bd
       -0.08509374 -0.036634535 0.024923842 -0.031702626
000130 e3 fc 9a bd 80 99 6c bd 92 80 9d bd ff b8 bb bd
       -0.075677656 -0.057763577 -0.076905385 -0.091661446
000140 97 a3 d3 bd 66 9b a0 bc 69 9b 02 bc 6e 4d 35 bd
       -0.10333937 -0.01960535 -0.007971623 -0.044263296
000150 da 4b 46 bd 1c e1 06 be 51 e0 f5 bd f0 9d 87 bc
       -0.04841218 -0.1317181 -0.120056756 -0.016554803
000160 c8 5f 7d 3b f8 89 f6 3c 51 0f f4 bc 41 75 81 bd
       0.0038661826 0.030095086 -0.02979246 -0.063211925
000170 c1 b0 6e bd 34 40 2c bd e2 51 43 be 04 b5 b6 bc
       -0.058274034 -0.042053416 -0.19074205 -0.022303112
000180 b3 49 56 bd 85 b7 01 bd 48 53 03 bc 16 c7 f0 bc
       -0.05231638 -0.03166916 -0.008015461 -0.029391807
000190 04 67 e5 3b c9 4e 8c 3c 7c 9f 64 3c c8 1d ed bc
       0.007000806 0.017127411 0.01395404 -0.028944865
0001a0 2c e4 bc bd 5e 2f dc bd 4a 53 d3 bd ce 5b e2 3b
       -0.09223208 -0.10751222 -0.103186205 0.0069079166
0001b0 74 b1 91 bc 9d 8f b3 3a e8 b4 cf bc 2a 62 23 bc
       -0.017784812 0.0013699416 -0.025354818 -0.009972135
0001c0 41 ec 53 bd c2 6f a2 bd 05 d6 00 bd b5 08 56 bd
       -0.05173898 -0.07931472 -0.031454105 -0.052254397
0001d0 5e 3e 19 be 45 76 bf 3b 79 9b c7 bd e3 ae 2c bd
       -0.14965197 0.0058429562 -0.09746451 -0.042158972
0001e0 dc 49 8a bd fc 6d fb bd c5 86 81 bd 0b 54 db bc
       -0.06752369 -0.12276837 -0.063245334 -0.026773473
0001f0 59 74 31 be f4 95 72 bd b4 2a 5b bd f2 e4 0b bd
       -0.1732954 -0.059225038 -0.05350752 -0.034153886

weight f4 [12, 128]
000000 74 9e 0d bd e0 c4 eb bb a3 27 c0 3c 6b a2 64 3d
       -0.03457494 -0.0071951 0.0234564 0.055818956
000010 54 46 19 3d 92 b2 69 bd 3f 63 04 3d e5 d0 1c bc
       0.037420586 -0.057055064 0.03232121 -0.009571289
000020 e2 57 8a bb 61 87 9c bc 94 73 49 3c 72 f7 9f 3c
       -0.004221902 -0.019107522 0.012295622 0.01952717
000030 5e 63 c5 3c 07 2f cf bb d3 04 a3 bc db dc d8 bc
       0.024095234 -0.006322745 -0.019899761 -0.0264725
000040 e8 e1 3b 3b c4 52 d9 bc 43 9c 9a 3c 33 67 24 bb
       0.0028668586 -0.026528724 0.01887334 -0.0025085926
000050 3b bf 77 3c 19 74 80 bd 6d e4 c9 bc f2 34 ff bb
       0.0151212765 -0.06272144 -0.024645055 -0.007788294
000060 75 35 f2 3b 1c 05 a9 3c cb c1 2d ba 0f 72 48 bd
       0.0073916265 0.02063232 -0.00066283037 -0.0489369
000070 3d b2 5c 3c dc 49 97 3d c6 97 04 bd 32 35 1a 3d
       0.01347023 0.073871344 -0.032371305 0.037648387
000080 27 02 51 3c bd d5 0a bc 04 0d d7 bc b7 97 fb 3b
       0.012756861 -0.008473811 -0.026251324 0.007677998
000090 84 d6 64 3d 72 3a 90 bb 94 42 29 bd a4 d7 ea 3b
       0.05586864 -0.0044014985 -0.04132326 0.0071668196
0000a0 56 7b 85 3d 53 d3 3c bc 15 23 1a bd 9c 25 6b 3d
       0.06517665 -0.011524993 -0.037631113 0.057408914
0000b0 21 14 b5 3c 4e e9 af 3c 23 b0 52 3c 08 00 36 bc
       0.022104325 0.021473553 0.012859377 -0.011108406
0000c0 2a c8 fb 3c 1a 7c 09 bd a8 83 ca bc 8a 38 a8 bc
       0.030735094 -0.033565618 -0.024720982 -0.020534772
0000d0 e2 5a 34 bc de 22 cf bc df 64 0e bd ab 44 c9 3d
       -0.011007996 -0.02528518 -0.034764167 0.098275505
0000e0 66 90 18 3a f1 15 a9 3d 6e ec 82 bd 0e 5a 54 bd
       0.0005819857 0.08256138 -0.06392752 -0.051843695
0000f0 0a 89 7f 3c 27 f8 cb bd 48 2d df 3d 81 4c 86 3d
       0.0155966375 -0.09959441 0.108973086 0.06557561
000100 3e f5 1d bd 77 67 40 3d 42 ce 4f 3c 52 80 ba 3b
       -0.03856396 0.04697367 0.012683453 0.0056915665
000110 0f 1b 90 3c 20 90 39 3d 52 58 31 bd 0a 33 23 bd
       0.017591028 0.045303464 -0.04329712 -0.039843597
000120 17 a3 e8 3b 47 08 69 bb 35 bf 62 3b 46 a8 9b 3b
       0.00709952 -0.0035557912 0.0034598832 0.0047502844
000130 4c a4 df bc ea f6 88 bc a5 9c 4b 3d 04 75 f0 bc
       -0.027300023 -0.0167193 0.049709935 -0.029352672
000140 ed 9e ab bb b1 6e 61 bc 27 92 64 bc 59 fd 77 3b
       -0.0052374513 -0.013759301 -0.013950861 0.0037840216
000150 ff f6 03 be a5 9e 47 bd 6f 29 17 3d 9f e7 f8 3c
       -0.1288719 -0.04873528 0.03690475 0.030383883
000160 ca 4a 01 bd b2 2d 03 bd d6 d4 bc 3c de 1b 0a 3d
       -0.031565465 -0.032026 0.023050707 0.033717982
000170 a7 05 21 3d f2 39 d1 bc ec 38 dc 3d 9e e4 5f 3d
       0.03931203 -0.025540326 0.107530445 0.054661386
000180 21 3b 1d bd 20 c8 44 3b b5 6b cf bc 01 75 7f bc
       -0.038386468 0.003002651 -0.025319913 -0.015591861
000190 02 6e df 3c 72 97 db 3c 30 c4 c6 3d 75 e3 cf bc
       0.027274136 0.026805613 0.097053885 -0.025377015
0001a0 8c 11 03 bc 0c 70 61 3b ab 05 80 3b 60 70 8c bd
       -0.007999789 0.003439906 0.0039069257 -0.06857371
0001b0 8c 5f e9 bb bb 2d c8 3c 83 10 02 bd 77 e8 98 3d
       -0.007121986 0.024435868 -0.031754028 0.07466214
0001c0 24 5d d8 bc 79 65 8c bd ed 66 30 bd 08 53 00 bb
       -0.0264116 -0.06855292 -0.043066908 -0.001958074
0001d0 34 bf 1e 3d 3d 4d 31 bd 50 de 0f bd ed d5 28 3d
       0.038756564 -0.04328655 -0.035124123 0.04121964
0001e0 02 d5 1e bc 7a 33 be 3d f4 2b 86 bd 91 b6 28 3d
       -0.00969434 0.09287162 -0.06551352 0.041189734
0001f0 0c 5a 17 3c a1 a5 bb bc 90 3a 8d bd 5d 75 58 3c
       0.009237777 -0.022906126 -0.068959355 0.013211575
000200 4d 14 00 3d 05 28 a0 bd bb 05 7c 3d 01 2d f9 bc
       0.03126936 -0.07820133 0.061528903 -0.030416967
000210 78 47 83 3d a3 89 b8 bd 84 ee 17 3b d4 b7 cf 3c
       0.06410116 -0.09010627 0.0023182938 0.02535621
000220 2f 2c 8c bd b2 63 75 bd 51 da a2 bc 5a 2d 83 3d
       -0.06844365 -0.05990953 -0.019879492 0.064051345
000230 23 e7 fe 3c 27 84 17 3d b3 25 82 bd da 3c 0d bd
       0.031116074 0.036991265 -0.06354847 -0.03448186
000240 03 63 74 3d 23 9b 87 3c 8f f1 3e 3d 09 d4 46 3d
       0.059664737 0.016553467 0.046617087 0.048542056
000250 5e f4 96 3d bc 73 e3 bd 31 a9 b7 3c 8a e1 6b bd
       0.07370828 -0.11106059 0.022419544 -0.057588138
000260 56 24 d7 3c ff 92 28 bd 2f 88 23 3d db df 2f 3d
       0.026262444 -0.04115581 0.039924797 0.042938095
000270 5f a8 2b bd 52 d8 0b 3d f1 b3 84 bc 32 f1 bd bc
       -0.041908618 0.034141846 -0.016199084 -0.0231863
000280 73 dc ff 3b 52 2c c8 bb 7f ef ca 3a d0 af 66 3c
       0.007808262 -0.006108799 0.0015482752 0.014080003
000290 06 b7 73 bc b5 d2 03 be 15 fc b6 bd c5 5d 54 bd
       -0.014875179 -0.12873347 -0.089347996 -0.051847238
0002a0 ac 2a cc bd fa b4 7d 3d dc 40 fe 3d 59 8d 06 be
       -0.099690765 0.06194017 0.12414715 -0.13139857
0002b0 06 3b b3 3d c6 d6 ea bb a2 5f 87 bc 2d 47 a3 3c
       0.08751492 -0.0071667163 -0.016525093 0.0199314
0002c0 f7 ad bb bc e4 52 d5 3c ce 52 93 3c 7a 04 39 bd
       -0.022910101 0.026040502 0.01798382 -0.045170285
0002d0 da 67 3b bd 70 22 73 3b 52 06 14 3d f7 0d d4 bc
       -0.045753337 0.0037099384 0.03613884 -0.025885565
0002e0 67 71 40 bb 05 95 16 3d 39 05 0f 3d 2a 9e 97 bd
       -0.0029364468 0.03676321 0.03491709 -0.07403214
0002f0 b1 c3 75 3d 96 04 de 3d 20 47 ce 3d 10 b4 43 3e
       0.06000108 0.108407184 0.1007216 0.19111657
000300 13 2a f1 bc 5e 3d 5c bd bb 1a b7 3d 1c 4c 50 3d
       -0.029439008 -0.05376946 0.08940645 0.050853834
000310 05 78 0b bd 74 7f 2f bc 5d 74 d4 bd 32 53 a9 3d
       -0.034050006 -0.01071154 -0.10373757 0.08267821
000320 7b 32 b2 bc 99 25 da bc ee 30 c6 bc b7 86 a1 3d
       -0.021752587 -0.026629256 -0.024193253 0.07887023
000330 5d 3c 16 3d 96 15 d1 3c 9d 8f ab 3c 17 f7 bf 3d
       0.03667866 0.025522988 0.020942504 0.093733005
000340 2d 13 ca bd d1 2c 9b 3d 7e 99 18 bd 05 c7 2f bc
       -0.09866939 0.075769074 -0.037255757 -0.010728602
000350 36 1b 31 bd f8 76 05 bc b0 ef 34 3e a2 db ed 3c
       -0.04323884 -0.00814604 0.17669559 0.029035393
000360 3e b7 9a bc 87 4f e9 bb e0 f5 70 3d 5c 8c 69 bd
       -0.018886205 -0.007120076 0.058828235 -0.057018623
000370 42 0c 98 3d 1d 3a 2a 3d 71 e2 77 3d 8c 8b dc 3c
       0.07424213 0.041559327 0.060518686 0.02692201
000380 9e 4c e7 3c 96 45 1b bc 62 fd 1f 3c e1 75 00 bd
       0.028234776 -0.00947704 0.009765001 -0.031362418
000390 56 9c a8 bc a2 a7 6d 3c 87 de 6c 3d d3 57 ba bc
       -0.02058236 0.014505299 0.057829406 -0.022746956
0003a0 51 6c 60 3d 07 c0 33 3d 81 42 8d 3c 7f fd e3 bc
       0.0547908 0.043884303 0.017243626 -0.027830837
0003b0 58 0c 7a 3d 32 ac e7 bc eb 99 8e bd ad 77 aa 3d
       0.06104693 -0.028280351 -0.06962951 0.083236076
0003c0 ca f5 45 3d 58 7f af 3d 65 7b 5b bd 7d f3 68 bb
       0.048330106 0.08569211 -0.053584475 -0.003554552
0003d0 30 8d 59 3d 88 d9 7d 3d 0b d6 f5 3d 92 d4 c3 3c
       0.053113163 0.061975032 0.12003716 0.023905072
0003e0 b5 52 4c 3d e7 e1 65 3c f0 22 a4 3d 50 05 d4 bd
       0.049883563 0.01403091 0.08014476 -0.10352576
0003f0 20 5b 1d bd eb a6 27 3b b0 81 80 bd f8 44 6c bd
       -0.03841698 0.0025581669 -0.06274736 -0.05768296

bias f4 [12]
000000 e2 08 c1 bb bb 95 9c 3d d5 32 e8 3c 9e 44 f0 3d
       -0.0058909515 0.07645746 0.028344551 0.11731838
000010 c0 26 1e be 74 cd fb bc 2f 7d a7 bd eb 7e 15 3e
       -0.1544447 -0.030737616 -0.08178174 0.14599197
000020 ea 7e 51 ba ee dd 28 3e c9 af 62 3e cb 0f 34 bd
       -0.0007991629 0.1649091 0.22137369 -0.043960374
