unitree_rl_gym/logs/go2_rma/exported/policies/policy_1.pt (torch, 774728 bytes, 8 tensors)

weight f4 [512, 48]
00000000: 9206 7dbd 8169 fb3a 7025 53bd aff5 423e
00000010: 73ce 193e 36af ddbe dbe0 12be 8ca6 bbbe
00000020: 8108 8f3d 7d8c 493d dc48 babc 9589 5f3f
00000030: 879c 103f b6b2 d83e 72ee 64bd 7084 5f3e
00000040: 506f 75bd b54b 96be fcb9 46bd 8745 f93d
00000050: d0da 2a3e d8a2 483e f8ee a93d 32bc 443e
00000060: 9439 943e 272c 813e e965 b5bd 608e 693d
00000070: dd47 a0be 86b3 223b 4b95 943e 9f6e 4cbe
00000080: 400c 3e3e 814a 4dbe 4724 b53d 685d 4d3e
00000090: fd0c a9bd a452 afbc 5211 63bb 0b14 ee3c
000000a0: 6ab6 2abc b0fd 183c 5bd7 70bd f20f 8dbc
000000b0: 6974 7cbc d869 10bd 9bae a8bb 3ce4 25bc
000000c0: 6d12 a3bd 642b 8a3c d376 a9bd cf17 acbe
000000d0: 26b3 923e 3ed2 e6be 89a2 a93e 09f1 883e
000000e0: 6e6b f33c 2f98 4c3d be90 9b3c cc9b 00bf
000000f0: b797 3fbd d175 8fbd ea15 d4be 46e2 8cbe
00000100: 088d 06be 0815 913d f5cd 83be 6ad5 bdbc
00000110: c52b de3c dfcd cfbd 595a 663d e9b9 01be
00000120: 621f 3ebe 3c29 2f3e 3fe1 12bc 203a 17bd
00000130: bc60 6dbe 3bed 1a3d d9ef 46be e62b 1c3e
00000140: b64c ae3d 359c 6fbe f837 ae3c ff03 663e
00000150: 5905 8a3d 74d7 4dbd abf2 d03c f471 d3bd
00000160: a0d8 553d 9ee7 9e3d 1a4a 7f3c 22e9 db3b
00000170: 31e4 8e3d df17 52bc 0d9f cd3c 4df9 523c
00000180: 842b f6bd 1d51 f2bd 541a c2bc cf9e 813e
00000190: 6536 27be c332 ef3e d6b4 d53c f13d 1ebf
000001a0: 3a8f d83c 6c08 7a3b 8d36 dd3d 4a36 04bf
000001b0: 8e31 073f 2c57 ee3d 6112 973e 519a 003f
000001c0: 23b8 aabd f05a 99be 527f 023c 39cf edbd
000001d0: 770f 083e 969b 4ebe eea4 46be 7b6f a43d
000001e0: f81b 363e c349 683d edd5 1e3e 64f9 093d
000001f0: e103 27be 27c2 793d 5f87 ff3d 218c a33b
00000200: 1b85 a7bd 9eb4 67bc 2b5e 53bd 1f3b 873d
00000210: bed3 823c 1923 69bd 25ed 10bd 1504 2ebc
00000220: 7fa6 973d 49d9 e83d 9cf7 3abc 804e 183d
00000230: 9ab6 b93b 0d90 3abd 7158 aa3c 98ac 5bbc
00000240: 2fb3 2ebe 53e8 883c 79ad 7bbe c77e c8bc
00000250: 064d bb3d 1fed 963e e515 8f3e 80d2 1ebe
00000260: a0c4 6d3d 79cf 0b3e d6c0 79bd e439 8ebe
00000270: 48d9 c83e a423 c6be 2fd2 6e3e 4500 86bc
00000280: 2caa 453d 9ccc 36be 5130 e1be 67ab 1dbd
00000290: 6677 8d3e 75e8 943e b8a2 a7be 45b6 2a3e
000002a0: 3869 0b3d 7ef9 10bf 34e4 afbc 91e2 273d
000002b0: 39a2 0bbe e21b 9abe 90b8 b2bd d69d 813d
000002c0: 256f 36bd 80cf e4bd 645e d8bd 3782 663d
000002d0: d19e 273d 987f d8bd 731f f8bd 1c8c 193d
000002e0: be54 20bd 7602 3fba 63ba a13a 2de9 4abd
000002f0: 3830 d7bd ea7c 453d 8d30 67bd 58b0 20be
00000300: 330b c33d 2501 c73d f0a3 453e 33ea 823c
00000310: af94 97be 74ad 903e 5247 2ebd 21cf 1a3e
00000320: aeb9 ce3d 875d 74bd 03f7 18be 38f2 6ebf
00000330: 3d7f 8b3c 64f1 9a3d 0b6a 933d b190 77bc
00000340: 6b7d a0bd 0f09 c73e f925 833c aa60 e2be
00000350: 1b60 043f 34ca 06bd be64 3abe 207a 963e
00000360: e74d 933e e657 213e 723f a1be 38f9 bbbe
00000370: de6b 0bbd 5ddb d4bb a76b 45be 3a2d e0ba
00000380: 48d5 be3e 78d1 173e da01 15be 1fa7 8b3d
00000390: 3633 18bd 92ab 43bd d386 4a3d 773e c4bc
000003a0: 0f02 a23b 6648 b3bd 4d04 85bd 16e1 3e3c
000003b0: c6f4 15be eb28 a1bc ea01 eb3c 04fb 60bd
000003c0: 6943 073e 3cca 303d 76d9 633d f49d ea3d
000003d0: 9d2b a23d 83c4 d2be bceb 6dbe 7cb1 ae3d
000003e0: b9bf 623d cd7c d1bd 937e 09be 5e63 abbe
000003f0: ca0b ca3e ab88 163d a4b5 d63d d675 bd3e
-0.061773844 0.0019181223 -0.051549375 0.19039033 0.1502016 -0.43297738 -0.14343588 -0.36650503
0.06984044 0.049206246 -0.02273982 0.8731931 0.5648884 0.42323846 -0.05589146 0.21827865
-0.05992061 -0.29354635 -0.048517212 0.121714644 0.16685033 0.1959337 0.08297533 0.19212416
0.2895018 0.25228998 -0.088573284 0.057020545 -0.31304827 0.0024826243 0.29020151 -0.19964074
0.1855936 -0.20047952 0.0884481 0.20055163 -0.082544304 -0.02140171 -0.0034647775 0.029062292
-0.010419467 0.009337828 -0.05879913 -0.017219517 -0.015408614 -0.03525719 -0.0051477677 -0.010125216
-0.07962499 0.016866393 -0.08274617 -0.33611915 0.28652304 -0.45082277 0.33131817 0.26746395
0.029714312 0.04994982 0.018989917 -0.5023773 -0.046775546 -0.070048936 -0.4142297 -0.27516383
-0.13139737 0.070840895 -0.2574307 -0.023173053 0.02712048 -0.10146689 0.056238506 -0.12668575
-0.18566659 0.17105573 -0.008964836 -0.036920667 -0.23181432 0.037823897 -0.19427432 0.15251121
0.08510725 -0.23399432 0.021266922 0.22462462 0.06739301 -0.0502543 0.025506338 -0.10324469
0.052208543 0.07759021 0.015581632 0.006711141 0.06977118 -0.012823074 0.025100255 0.012876821
-0.12020019 -0.118318774 -0.023694195 0.25316474 -0.16329344 0.46718416 0.026087206 -0.61813265
0.026435483 0.0038151992 0.1080142 -0.5164534 0.5280999 0.116377205 0.2950621 0.5023547
-0.083359025 -0.29952192 0.007964926 -0.1161179 0.1328715 -0.20176539 -0.19398853 0.08029076
0.17784107 0.05671097 0.15511294 0.033685103 -0.16310073 0.060976174 0.12476992 0.00499107
-0.08179685 -0.014142184 -0.051603477 0.06603073 0.015970107 -0.056918237 -0.03538241 -0.01062109
0.074048035 0.11369569 -0.011411574 0.03718424 0.0056675198 -0.045547534 0.020794125 -0.013407849
-0.1706054 0.016712343 -0.24577893 -0.024474515 0.091455504 0.29477784 0.27946392 -0.15509987
0.058048844 0.13653363 -0.06097492 -0.27778542 0.39228272 -0.38699067 0.23322366 -0.01635755
0.04825799 -0.1785149 -0.43982175 -0.03849354 0.27630156 0.290836 -0.32741332 0.16671093
0.03403589 -0.56630695 -0.02147112 0.040987555 -0.13636102 -0.30099398 -0.08726609 0.06328933
-0.04453959 -0.1117239 -0.105648786 0.056276526 0.040922944 -0.105712116 -0.121153735 0.037487134
-0.039143316 -0.00072864385 0.0012338873 -0.04953878 -0.10507244 0.04821483 -0.056442786 -0.1569227
0.095236205 0.09717015 0.19300818 0.015980816 -0.29605624 0.28257334 -0.042548485 0.15118076
0.10094009 -0.059659507 -0.14937977 -0.93338346 0.017028445 0.07565573 0.071979605 -0.015110181
-0.078364216 0.388741 0.016009318 -0.44214374 0.51709145 -0.03290768 -0.18202493 0.2939005
0.28770372 0.15756187 -0.31493717 -0.36713576 -0.034038417 -0.0064958767 -0.19279347 -0.0017103322
0.37272096 0.14826 -0.14551488 0.06818985 -0.037158214 -0.047771044 0.049444985 -0.023955567
0.004944093 -0.08754043 -0.06494961 0.011650344 -0.14644155 -0.019672832 0.028687436 -0.054926887
0.13209309 0.043161616 0.05562731 0.114559084 0.07918475 -0.41165552 -0.23234457 0.08529946
0.055358622 -0.10228882 -0.1342719 -0.3347425 0.3946212 0.03675143 0.10483864 0.37003964

bias f4 [512]
00000000: 08d3 9abd 877d f1bd 3093 133e 8172 34bd
00000010: 1bef a93b 9b56 30be ad87 8bbd 4d74 4ebe
00000020: 3701 433d f935 9cbc 4fe1 96bd f99a 7c3d
00000030: e3d7 f13d 96da d63c a413 96bc 93ee c2bd
00000040: 4105 62bd 21de fd3c 6c0d 71bd e4a1 19bc
00000050: e3fc e4bd 4f5c e3bd f2b9 04be 845e 283d
00000060: fc89 00be 8ecc ac3d d86f 09be 2920 833c
00000070: cfdd 74bb aa9b 133e 2903 463c 667e 28be
00000080: 9ec5 12be 674f 08bd b9ed 2bbe b02c d03d
00000090: 06e3 2e3e 7eec df3d 27cd c63d 9854 433d
000000a0: a945 3b3d 4313 0bbe c194 0bbe 4358 ab3c
000000b0: ecae 41bd f0c5 763d cde5 77be b305 34be
000000c0: 9fb5 9ebd 9b02 803c 0b08 4bbe 8838 db3c
000000d0: c97e 623d 212e 6fbe d38a 87bb 09b0 a83d
000000e0: 18e6 16bd d5e6 66be a0d3 283d 4e87 abbb
000000f0: bfb6 843b 9be3 3bba f8b1 373c 578a 003e
00000100: be22 40be 1582 2f3d 59bb 533d 9df4 95bd
00000110: 3259 9c3d dd24 393c 88e6 18be a299 bbbd
00000120: 8c06 fabd 032b 703d 4865 60be a525 3c3e
00000130: 26be 07bd 9d8d a4bb 9928 053e 1294 07be
00000140: 831b 6e3d 2d06 8d3d 248d d3bc e07c ebbd
00000150: ad8b 00be 62b7 bdbd 71f3 9fbd e09e a0bc
00000160: aac6 2ebe d6f7 5f3c c731 80bd 01a8 f93d
00000170: cd8d a33c cc73 ccbd 8d20 b9bc 1319 20be
00000180: 0d0f b4bd 8d94 163e 474d 94bd cc62 e9bd
00000190: 2f68 0dbb 3846 e0bd ad6b 0c3d 3c1c f4bd
000001a0: aa79 383c 0ece 8c3b eb04 4dbe 2e7a 3bbd
000001b0: 095d 373c 6800 51bd 748a f53b 063b 79be
000001c0: dca0 04be 1437 90bd b404 d03d dba3 f2bd
000001d0: 114e 7dbd 20d4 f9bc 9346 ab3d 7915 47bd
000001e0: 7ac4 31be 9a92 31be 2421 e7bd 5730 473d
000001f0: fa29 99bd a885 61be ee75 e13d 4890 01be
00000200: 42fb 2ebd 7648 34be ad8e 87bc 47aa a93d
00000210: 98bd 9b3d 7744 dabd 280b 35bd 5a3e f0bc
00000220: c284 35be 3798 203d ddc6 2e3d 0ecd 313d
00000230: b709 7ebe 2579 8d3d 81a0 20bd 732c 743b
00000240: 6839 97bd 12e4 9cbd 05da c93d fad4 963b
00000250: dcc4 8abd aeaf f4bb fc87 ecbd ace5 1c3d
00000260: 0ad6 f93d e9e0 69be c121 f8bd 6012 33bd
00000270: b652 fe3d 16a2 1fbe b5eb f03d 59d1 abbd
00000280: 91f4 b4bd 9482 97bd c381 17be 421b 5e3c
00000290: c4ef 65bd d562 2bbe bdad e5bd 3857 e5bd
000002a0: 40eb 3dbd 94cd 49bc 5f41 4dbe 6f74 18bd
000002b0: 0c22 b3bd 3097 4c3d 241a 84bd 8850 acbd
000002c0: 293a 0dbe c8d5 1fbe 7061 f8bd 5039 5fbe
000002d0: 1241 adbd 7a41 86bd 3c90 c73d 4b91 46be
000002e0: 6c66 09bd eb1e 283e 9746 72bd 5219 02bd
000002f0: 2e6b 553d fac7 343d d704 61bd 5930 09be
00000300: f15b 883c 4f14 37bc 9afc 5ebd f4e1 9cbc
00000310: b26b ccbd ce25 9a3d 1e41 6a3d f1e6 00be
00000320: cb7f 9abc 8009 a43d df6f 8b3d b438 1abe
00000330: 09ba 61be 3cce 8abe fc7b c6bd 5102 9e3d
00000340: 1daf c6bd 40e9 1cbe d7d5 013d fd36 d5bc
00000350: 961b b5bd da55 23bc 96e8 29bd 2813 8fbd
00000360: c98d a7bd f616 bbbd 920c 16be 1e87 1f3d
00000370: 4993 bc3c 07fb 32bc 0a50 3ebd 1679 44bd
00000380: 6183 813b 0757 20be 36d4 633c ebe2 983c
00000390: dc9d c1bd 43b9 30be 9bbe b23c 2c41 20bd
000003a0: ca55 a2bd 104b f2bd 0e78 4cbc de71 9e3d
000003b0: d9fb 873d 5f9f 1bbd ea7f 20be 05d4 f63d
000003c0: 8bab d73c 1a28 b2bc 8fb5 26be 1eae d13d
000003d0: 641c dabd 9510 28bd 34d0 9fbd db07 13bd
000003e0: bbc1 28be 9143 98bd b18a 233c be0d cb3d
000003f0: 0184 a1bd 6f3e 2e3d 8d87 923c 1907 9a3a
-0.07559782 -0.117915206 0.14411616 -0.044054512 0.0051859743 -0.17220537 -0.068129875 -0.20161553
0.04760858 -0.019068705 -0.07367193 0.06167123 0.11808755 0.026227277 -0.018319912 -0.09518161
-0.05518079 0.030989708 -0.05885069 -0.009376977 -0.11181047 -0.11101591 -0.12961558 0.041105762
-0.12552637 0.08437453 -0.13421571 0.016006546 -0.0037363654 0.1441485 0.012085714 -0.16454467
-0.14333197 -0.03327885 -0.16789903 0.101647735 0.1707879 0.10933779 0.097070985 0.047688097
0.04572073 -0.13581567 -0.13630964 0.02091611 -0.04728596 0.06024736 -0.24208756 -0.17580299
-0.07749485 0.015626242 -0.19827287 0.026760355 0.055296693 -0.2335744 -0.004136422 0.08236701
-0.03684053 -0.22548993 0.041217446 -0.0052346354 0.0040501053 -0.00071674 0.011211865 0.12552772
-0.18763253 0.042848665 0.05169234 -0.07322047 0.076342 0.011300293 -0.1493169 -0.091601625
-0.1220828 0.05863477 -0.21913636 0.18373735 -0.033140324 -0.0050217644 0.13003768 -0.13240078
0.058131706 0.068859436 -0.025824137 -0.114984274 -0.12553282 -0.09263493 -0.07810105 -0.019607008
-0.17067972 0.013669929 -0.06259494 0.12190247 0.019965077 -0.09983024 -0.02259853 -0.15634565
-0.08791933 0.14705105 -0.07241302 -0.11395797 -0.002157699 -0.10950893 0.034282375 -0.11919448
0.011259476 0.0042970246 -0.20021407 -0.045770817 0.011191615 -0.051025778 0.0074933115 -0.24338922
-0.12951988 -0.07041755 0.10157147 -0.11847659 -0.061842028 -0.030496657 0.0836307 -0.048604462
-0.17360106 -0.1734108 -0.11285618 0.048630085 -0.074787095 -0.22023642 0.110088214 -0.12652695
-0.042720087 -0.17605767 -0.016547525 0.08284431 0.076045215 -0.1065759 -0.044200093 -0.029326607
-0.17726424 0.039207663 0.04267012 0.043408446 -0.24808393 0.06907872 -0.03921557 0.003725794
-0.07383996 -0.076606885 0.09856037 0.0046030255 -0.06775829 -0.0074672317 -0.115493745 0.03830497
0.12199028 -0.22839703 -0.12115813 -0.043718696 0.124181196 -0.15589175 0.117637075 -0.08389539
-0.0883571 -0.07397953 -0.14795594 0.013556303 -0.05613686 -0.1673692 -0.112147786 -0.11198276
-0.04636693 -0.01231708 -0.20044468 -0.037220415 -0.08746728 0.04994887 -0.064502984 -0.084137976
-0.13791718 -0.15608895 -0.1212796 -0.21799207 -0.08459677 -0.065554574 0.097443074 -0.19391362
-0.033544943 0.16418044 -0.05914935 -0.03176243 0.052104168 0.044136025 -0.054936256 -0.1339735
0.016645404 -0.011174276 -0.05444012 -0.019150712 -0.09981479 0.07526742 0.057191007 -0.12588097
-0.018859765 0.080096245 0.06808447 -0.15060693 -0.22043623 -0.2711047 -0.09691617 0.077152856
-0.09701369 -0.15323353 0.031698074 -0.026027197 -0.08843152 -0.009969199 -0.041481577 -0.06986076
-0.0818134 -0.09135239 -0.14653233 0.038947217 0.02301945 -0.010924107 -0.04646305 -0.04796704
0.003952429 -0.15658198 0.0139055755 0.01866289 -0.094539374 -0.17258172 0.021819403 -0.039124653
-0.07926519 -0.11830723 -0.012479795 0.07736562 0.06639833 -0.037993785 -0.15673795 0.12052158
0.026326915 -0.021747638 -0.16280197 0.10238288 -0.10649946 -0.04103144 -0.078033835 -0.035896163
-0.16480152 -0.07434762 0.009981797 0.099147305 -0.07886506 0.04254001 0.017886901 0.0011751383

weight f4 [256, 512]
00000000: 25e9 753e 8b02 243c 1518 4c3e c81f 713d
00000010: 86b8 df3d 7b45 3f3e dfbb a1bb 238c dfbc
00000020: f229 66bd 22c0 a83d a76a 00bd 5ad6 dcbd
00000030: 1fe3 5a3d dbec a3bd 0fbb b3bd 7592 4b3e
00000040: 8f20 b2bc 50fa 5a3d 381b 29bc d5ce 4b3e
00000050: 1072 c0bc 7816 883d 5109 ac3c 6228 fabc
00000060: aa7f e53d b503 51be 8b3d f1bb 10aa 603e
00000070: acc2 1fbd 25c5 ff3d 0781 2b3e deed 173d
00000080: 9bcf 3dbd 9bb4 103e 1388 9fbc d322 9c3d
00000090: 7da4 663d 7333 1b3d 4833 a53e 2910 cdbd
000000a0: 4145 b1bd a3a3 14bc be5f 5d3e 41ad 8b3d
000000b0: f9b9 b5bc 56c9 f5bb 33cd e43d 97e4 b93d
000000c0: 2858 873d deb0 92bd 8de0 373e 03b1 b73d
000000d0: 193a 493e 3cd1 543e 2002 fcbc 079a 0e3e
000000e0: 2e58 333d 6f01 b43d 623a 6a3d 9f76 183e
000000f0: aa63 ebbd f2d7 65bc 1c3f d93c 5d3a 58bd
00000100: f9df 91bd c5cf 233e 83d2 2fbc 9ad7 fb3d
00000110: 7bfd d93d 8586 4e3b b14d c6bb 5d64 c43b
00000120: 451f ee3c b5a2 413b a27b 0e3e b0de 20be
00000130: ee8a 1ebd 1e6a 113d 7583 11be 9b16 cb3d
00000140: 73c3 8dbe 5864 01be 2ff5 653d 341c 253d
00000150: 7979 833e d677 a23d 9779 463e 9285 843d
00000160: 4149 76bc 5cdd b03d 2d7d aabd b472 dcbd
00000170: f8a0 c53d 5de0 73bd 39d8 c73d 8585 183e
00000180: fa60 8c3d 8b60 9ebd 20c2 1cbb f149 ea3d
00000190: 7c44 c0bd becc 28bd 9305 d5bd 4b5d adbc
000001a0: 1e8a 553c ffe4 a83d 378f eb3d eed3 6f3e
000001b0: 5070 63bc b248 25be c1a4 473c 50e4 c73d
000001c0: b9e9 853e d8b5 ce3c c170 1e3d 6d4f e73d
000001d0: 14f3 893e 7906 01bd c323 e4bd 2ae8 423d
000001e0: 983a 053d 3124 08be cfd1 e03d 3f43 9abc
000001f0: c34f 593e bf6d 0a3c 5948 003e 7379 303d
00000200: 0d05 193e cdfb 6d3d 117d bbbd c19c aabd
00000210: 5ac9 04bd e759 113e e91b 1f3c 568e 803c
00000220: de96 103d d027 6fbd 2d0e f23d c823 eabd
00000230: 9ad6 973d cf76 bb3b ff74 68bd 3144 9d3d
00000240: 931d a13d 0bb1 1b3e d316 053d b600 003e
00000250: 3616 acbd a9e5 e03b 2cb1 5c3d 5574 80bd
00000260: 471a 09bd 9a41 313e 7aed d5bd 9712 773e
00000270: 11d7 d63d 7937 5cbc 9154 ac3d 141a 59bc
00000280: ea0d f9bd ca6f 4b3e 7f82 b03c f5ff 1b3e
00000290: 420a 37bd abde 163e e293 173e 6678 853e
000002a0: 0463 91bd 3922 bb3d df2d 1bbe 0a67 013e
000002b0: f4f2 a23d ca07 2b3c e965 4bbe 0613 80bd
000002c0: 404f f43d 4381 33bd f2a8 f5bd 7467 243e
000002d0: 7236 c6bc 2daf 19bd dccf e3bd 987f 083e
000002e0: 514f 8b3e 693d b7bc 2287 35be c027 c23d
000002f0: 5710 52bd 54e8 dcbd 2480 df3c 0ae1 d2bc
00000300: 90e1 143e 8b35 0b3e 54b4 013e 6220 12bd
00000310: 3c6b 79bb 52bf 2fbd 869f 723d 1353 3d3e
00000320: 7d29 94bd 47cb ed3d 22c0 9a3d b6ae 4b3e
00000330: 007d 033e 2756 cb3d 53dc 473e 8f7b 333c
00000340: 580a a43e dfcc 5a3d f38a 343d 22f3 5e3d
00000350: 320b 093e 8325 5f3d e27a 9fbc e3b9 0d3e
00000360: 8a4a 873c bdcf 9fbd 0db4 b63c 58d1 4a3c
00000370: f8bf a7bb 7036 733e 711c f5bd 1a00 d6bb
00000380: 0fd1 bcbc f36e 953d 38ad 193e 5c75 053d
00000390: e304 2c3e d89c f83d 5642 da3c c5eb 933c
000003a0: 652d 673d c3f8 483d d2b5 aebd c533 55be
000003b0: eabd 633d 259b c7bd ac85 a93d e5eb b3bd
000003c0: 9948 18be c68f 813d 6f7d 063d f044 4dbb
000003d0: 0c5e a9bd 50e6 233c 1f36 7dbc b25f fdbd
000003e0: bc14 0c3d 6f22 65bd 42ad 28bd 486e e33c
000003f0: 118d 7e3c 877a 643d f033 50bd 6b67 58bd
0.24014719 0.010010372 0.19931062 0.0588682 0.10923867 0.18678848 -0.004935726 -0.027288502
-0.056192346 0.082397714 -0.03135171 -0.10783072 0.053439256 -0.08004161 -0.08775913 0.19880088
-0.02174404 0.053461373 -0.010321431 0.19903119 -0.02349189 0.066449106 0.021000536 -0.030536834
0.112059906 -0.2041157 -0.007362073 0.21939874 -0.039004013 0.12488774 0.16748439 0.037092082
-0.046340566 0.14131396 -0.019474065 0.0762383 0.056309212 0.037890863 0.32265687 -0.10012848
-0.08655787 -0.009072217 0.21618554 0.06820155 -0.022183405 -0.0075008078 0.11171951 0.09076803
0.06608611 -0.07162641 0.17956753 0.08969309 0.19651069 0.20782942 -0.030762732 0.13925944
0.043785267 0.08789336 0.057184584 0.14889 -0.11493619 -0.014028536 0.02651935 -0.052790035
-0.071227975 0.15997227 -0.010731342 0.12296982 0.10644051 0.0031513285 -0.006051742 0.0059934095
0.029067645 0.0029546444 0.1391435 -0.15709949 -0.038706712 0.03550159 -0.14210303 0.09916421
-0.27688178 -0.12635934 0.05614203 0.0403101 0.25678614 0.07933013 0.1938232 0.06470789
-0.0150321135 0.08635971 -0.08324657 -0.107640654 0.09649843 -0.05954014 0.09758038 0.14894684
0.06854434 -0.07733258 -0.0023919418 0.114398845 -0.09388062 -0.041210882 -0.10401454 -0.02116265
0.013033418 0.082468025 0.115019254 0.23420689 -0.013881758 -0.16141012 0.0121852765 0.09760344
0.2615488 0.025233194 0.03868175 0.11294446 0.26943266 -0.031500313 -0.111396335 0.04758469
0.032526582 -0.13295056 0.10977518 -0.018830894 0.21221833 0.008449017 0.12527598 0.043084573
0.14943333 0.058101464 -0.09154714 -0.0833068 -0.032418586 0.14194451 0.009711244 0.015692871
0.03530013 -0.058387578 0.1181911 -0.11432606 0.07413979 0.00572095 -0.0567522 0.07679022
0.07866969 0.15204255 0.03249247 0.12500271 -0.08402674 0.006863315 0.0538799 -0.062721886
-0.033472326 0.17310181 -0.10445686 0.24128185 0.104902394 -0.01344096 0.08414567 -0.013250846
-0.12160857 0.19866863 0.0215466 0.15234359 -0.044687517 0.14733379 0.14802507 0.2606842
-0.07098964 0.09137387 -0.15154217 0.12636963 0.07956496 0.010438869 -0.19863094 -0.062536284
0.11929178 -0.043824445 -0.119951144 0.16055089 -0.024195883 -0.037520576 -0.111236304 0.13329923
0.2720895 -0.02236815 -0.1772733 0.09480238 -0.051285114 -0.107865006 0.027282782 -0.025742073
0.1453917 0.13594644 0.12666446 -0.035675414 -0.0038058301 -0.042907067 0.059234165 0.18488722
-0.07234476 0.11611038 0.07556178 0.19890866 0.12840652 0.09928542 0.19517641 0.010954752
0.32039142 0.053418037 0.044077825 0.05443109 0.13383177 0.054479133 -0.019467775 0.13840441
0.016515035 -0.07803295 0.022302652 0.012379013 -0.00511932 0.23751235 -0.119683154 -0.006530774
-0.023048906 0.072965525 0.15007484 0.032582626 0.16798739 0.121392906 0.02664296 0.01805676
0.056439776 0.049065363 -0.08530773 -0.2082053 0.055601038 -0.09746388 0.08277449 -0.08785228
-0.14871444 0.06326251 0.032834467 -0.0031321608 -0.08269891 0.010003641 -0.015454798 -0.12371768
0.03419946 -0.05594104 -0.041180857 0.027762547 0.015536563 0.055780914 -0.05083078 -0.052833002

bias f4 [256]
00000000: d0da fdbd 750b e6bc b424 28bd 8417 d9bd
00000010: 1b39 98bd 9c8d bfbc 6ddb 13bd 5194 d3bd
00000020: a58e 71bd 77c2 1abe 7376 b5bd c1c9 7b3d
00000030: a1b2 c7bb 0902 f63b 3bff f8bd b000 21be
00000040: 899f c0bd c8cd bf3d 7f52 1abe 358b e9bc
00000050: 7962 27bd a8ad 51be 069b f6bd 8ce8 8fbd
00000060: 6943 ddbd b1de 63bd 7518 63be 93b8 d6bc
00000070: 1b70 37bd 78ae 92bd 4014 0dbe c47f 29be
00000080: 94fa 11bd 8507 c2bc d57b 24be e7e5 013c
00000090: a2b8 efbc c388 5bbe 4a5d 9c3d 46f6 29bd
000000a0: 03b1 65be ba60 b9bd 69bd cebd a285 0fbe
000000b0: 3b3c c7bd bc00 54be a830 be3c 3665 febc
000000c0: 32ba ebbc 27ea 80bd b022 32be cd5c c0bd
000000d0: 246e cabc de5c b5bd 81a9 2ebd 692b 5cbc
000000e0: f706 33bd 333d 4bbe 4788 16be 0b5c adbc
000000f0: f9e6 90bd 5bae 9bbd e880 a5bd 6b19 37be
00000100: 5be7 dcbd e089 19be 8710 8fbc 68d9 b3bd
00000110: 4190 4f3d c2c5 86bc ed25 58bd 11f5 6dbc
00000120: 21a5 f6bc d10d 7fbd 5a31 83bd 377c f4bb
00000130: a0d9 cdbd aeab 38be 440e 95bd e1d8 1dbe
00000140: 3c34 18be 4a2b 07be 0b2f 55bd 3532 02be
00000150: b85b 4cbe 2d36 49be 8616 1dbe b23d 3dbd
00000160: b042 6dbc 8041 32bd f511 95bd 40a2 03bd
00000170: 69f4 a4bd 313e 36bd 5e9e 06be e99a c1bd
00000180: 58f9 04be f71d c43c 98b2 e8bc 2e00 43be
00000190: 714e 0abe 7c9e 52bc 34aa 21be 1ec7 51bd
000001a0: 132e fdbc 1dc6 f9bd 68b6 99bd fb9e d6bd
000001b0: 40f3 86bd 7957 38be f989 803d f58d 9ebd
000001c0: b32c a4bb 5262 f4bd 3963 36bd 06b4 4bbc
000001d0: 7a34 04be ca60 9ebd 79ba 8b3b 7c9c 83bc
000001e0: 1c0e 10be c1a5 debc cc44 1dbe 1581 63bd
000001f0: abe7 043d 2ee3 cabd ba6e 51be 3f3d 71be
00000200: 40cd 4abd 346f 2fbe c8b4 eebd d490 b7bb
00000210: cc8b cebb 9c2e 10be 5113 08be b5a5 afbd
00000220: 7ca1 98be ca47 f5bd 1c44 5dbd c038 78bd
00000230: 8374 3dbc 3bb0 47be ffcc c1bc 96fd d3bd
00000240: a973 cebd a700 71bd b40d c2bd a99b 0dbe
00000250: 675d 44be 63a7 0cbe 9475 b7bd 8197 53be
00000260: b856 1ebe 9f25 adbd e7ed b6bd 4ca1 b93b
00000270: bdd9 78bd 15e8 e9bd 214f ef3a 1f8d 923a
00000280: 92ac 1fbe 33eb 89bd 8182 6a3c e287 20be
00000290: 0805 f9bc 021a 34be cf60 adbd 1ee1 5dbd
000002a0: cbfc 88bd 4723 87bd 372e d9bd 2294 e5bc
000002b0: 73cd 0a3d 22e5 33bd c954 26be c8c9 0fbe
000002c0: fb86 b4bd 268e 11bd 4731 85bd 64d1 92bd
000002d0: 98ea 9dbd da44 7f3c 8e46 00be 6d24 55bd
000002e0: 4b6c e0bd 34b9 22be 5283 bbbd 6d82 a5bd
000002f0: 6acc 06be dbf1 a5bb 3e13 93bc 731a cdbd
00000300: 37ef 91bd bf2f 0abe 6175 4bbd eeb7 cebd
00000310: 9061 06be 9a83 bbbd 3f9f 203c 2aea 6bbe
00000320: aac0 46bd 9198 133d 4e50 ebbd 0594 e0bd
00000330: 714d 8abd dc49 1cbc 1c57 ebbb 9c24 c03c
00000340: 3deb c9bd 103d ccbd 38d8 27be 8368 ccbd
00000350: 265e fabc ce1d d1bc 0c7d e6bd e44a ebbd
00000360: cc3b b7bd 44ee 77bd 6583 80bd a60f fbbd
00000370: fc3c 15be f253 30be add2 37be 7a33 95bd
00000380: ec74 64bd fc14 24bd 596c 4ebe 0460 33bd
00000390: e0be d33c bae6 1a3c 8b72 7ebb 86fa 68bd
000003a0: c057 8cbd e8e5 97bd 808b cdbd 368c 9dbd
000003b0: b6fd 26bd 39e8 d6bc 1262 febc 4223 18be
000003c0: fe16 01bd c128 73bd 9568 29be 1dc1 eebc
000003d0: 845f f9bd 8900 76bd 64cb 8abd 1587 97be
000003e0: aece c0bd 7817 8fbd 078a c7bc 2334 c9bd
000003f0: 9580 0dbe 4ccb 5fbd 7359 e4bd 38a9 1cbd
-0.12395251 -0.028081635 -0.041050628 -0.106001884 -0.07432767 -0.023382954 -0.036097933 -0.103310235
-0.058973927 -0.15113245 -0.08860483 0.061471704 -0.0060942923 0.007507567 -0.12158056 -0.15722919
-0.09405429 0.093654215 -0.15070532 -0.028508762 -0.040865395 -0.20476401 -0.12041287 -0.07026777
-0.10803873 -0.055632297 -0.22177298 -0.026211059 -0.044784646 -0.071621835 -0.13777256 -0.16552645
-0.03563936 -0.023685226 -0.16062863 0.007928348 -0.029262844 -0.21438889 0.07634981 -0.04149463
-0.22430806 -0.09051652 -0.10094721 -0.1401582 -0.09728285 -0.20703405 0.02321656 -0.03105412
-0.028775308 -0.06294661 -0.17396045 -0.093927 -0.024710722 -0.08855604 -0.04264212 -0.013438084
-0.043707814 -0.19847564 -0.14700423 -0.021162054 -0.070753045 -0.07601615 -0.080812275 -0.1788079
-0.10786315 -0.14994001 -0.017463936 -0.08781701 0.05067468 -0.01645172 -0.052770544 -0.01452376
-0.030108036 -0.062269036 -0.064058974 -0.0074610966 -0.10051274 -0.1803424 -0.072781116 -0.15414764
-0.14863676 -0.13200107 -0.052046817 -0.12714465 -0.19956863 -0.19649573 -0.15340623 -0.046201415
-0.014481232 -0.043519497 -0.07278816 -0.032137156 -0.0805443 -0.044492904 -0.1314635 -0.09453375
-0.12985742 0.02394007 -0.028405473 -0.19043037 -0.13506486 -0.012855168 -0.15787584 -0.051215284
-0.030905759 -0.1219599 -0.07505494 -0.10479542 -0.06589365 -0.18002118 0.06276316 -0.0774192
-0.0050102114 -0.119328156 -0.04452822 -0.012433058 -0.12910643 -0.07733305 0.0042641726 -0.016065829
-0.14067882 -0.027178647 -0.15358275 -0.055543024 0.0324475 -0.09906612 -0.20452395 -0.2355852
-0.049512148 -0.17132264 -0.11655575 -0.0056019817 -0.006303286 -0.1408028 -0.13288619 -0.08576528
-0.29810703 -0.11976583 -0.054020032 -0.060600996 -0.011563423 -0.1950082 -0.02365732 -0.10351102
-0.10080654 -0.058838513 -0.0947527 -0.13828911 -0.19176255 -0.13735728 -0.08957973 -0.20663263
-0.15462768 -0.08454441 -0.08932095 0.00566498 -0.060754526 -0.11421219 0.0018257835 0.0011180973
-0.15593174 -0.06734314 0.014313341 -0.15676835 -0.030397907 -0.17588046 -0.084657304 -0.054169767
-0.066888414 -0.065985255 -0.10604518 -0.028024737 0.033887338 -0.04391969 -0.1624328 -0.14041817
-0.08814808 -0.035535954 -0.065035395 -0.07168844 -0.07710761 0.01558038 -0.12526914 -0.05203669
-0.10958155 -0.15890962 -0.09155907 -0.08081517 -0.13163915 -0.005064232 -0.017953511 -0.100148104
-0.07125705 -0.13494776 -0.049672488 -0.100936756 -0.13123155 -0.091559604 0.009803592 -0.23038545
-0.048523583 0.03603417 -0.11489926 -0.109657325 -0.06753052 -0.009539094 -0.007182015 0.023454957
-0.09859321 -0.09972584 -0.16391075 -0.099808715 -0.030562472 -0.025526907 -0.112543195 -0.11488894
-0.08946952 -0.060529962 -0.062750615 -0.12258844 -0.14574045 -0.17219523 -0.1795146 -0.07285209
-0.055775568 -0.040059075 -0.20158519 -0.04379274 0.025847852 0.009454424 -0.0038825597 -0.056879543
-0.068526745 -0.07416898 -0.10036373 -0.07692759 -0.0407693 -0.02623378 -0.031052623 -0.148572
-0.031516068 -0.059365038 -0.16543801 -0.029144818 -0.12176421 -0.060059104 -0.06777075 -0.29595247
-0.09414421 -0.06986898 -0.024357809 -0.098243974 -0.13818581 -0.05463724 -0.111498736 -0.038247317

weight f4 [128, 256]
00000000: 97dc e33c 16e3 1dbd 2fa8 613c 81de 04bd
00000010: ab1c 383c 2d07 35be 1507 2dbc 2cdd 80bd
00000020: c7c7 5fbd b607 b53d b124 d33d 8aa7 37bd
00000030: a7f9 c13c 5c1a 6bbb 92f3 243d 7ad4 d63c
00000040: f31b 703c cda5 243b 294a 83bd 294a 873d
00000050: 298b dabd 9077 873d f13c 5b3c 60a1 11bd
00000060: dca8 473d 7cf9 093d 5e6d 6d3b 88a3 7cbd
00000070: 6b23 93bd 7c07 913c 97b6 333c b5fb 4abd
00000080: b074 c6bd 854c c8bd 725d f43d 2457 6dbd
00000090: b5bc 88bb fc29 b3ba b954 5dbd e4f9 633d
000000a0: 7180 7d3d 76e3 d83d 3041 3e3c d289 c43d
000000b0: 7672 3e3c 92f9 b53b c39b 97bd e623 a93c
000000c0: 8324 78bb 23e7 2fbe 79e0 b0bc 26ad e13d
000000d0: 2519 a13c fb37 c33d 4698 54bc eb2c ca3b
000000e0: 62e7 653c 088b 83bc 42ab aa3d 0e88 2f3d
000000f0: 8441 2ebc f715 42bd 8854 263d d9c7 723d
00000100: c9f4 5d3c 559f bf3d 277f 3abd 5305 0e3b
00000110: 1bf5 493d 38e8 a33d 56fa b9bc 0148 843d
00000120: a4c9 2b3d 0e17 bd3c 57e9 303e ad18 af3d
00000130: fd31 07be 6c31 adbc c0a7 86bd fa21 c93d
00000140: bd1e 97bc 7cdb 30bd 4363 2cbc 7eb7 053e
00000150: 0e36 fbbc 454b 803d 43a3 a13d 0568 bdbc
00000160: a1c7 b93c d642 fd3d 347f a33d e813 2ebd
00000170: 3e7f e13c 368e a4bd 088e 7a3d f774 96bc
00000180: f6ef 2cbe efb0 a9bd a5b0 81bc 6575 023d
00000190: 959b 483c d2e4 85bd 40b1 393d ffa3 fa3c
000001a0: a555 4f3d 6c42 813d ca84 2ebe d62f 353e
000001b0: 2433 6a3d 46d5 8bba d422 acbd ea74 a8bb
000001c0: 14a1 a33d 23f3 ac3d a1b8 2fbe cdd4 bf3a
000001d0: 7fb4 2e3c 5d69 08be aec0 f9bd a397 99bd
000001e0: 0275 d33c 0b34 f83d d6ed ea3c 77bd 1cbe
000001f0: 5dd6 16bd 74c2 733b e60d 983c 158d 8e3a
00000200: 1dc8 9abc fbff c1bd a799 dfbd efff 893c
00000210: 283e e63c 0711 d63d a0a9 9b3c 63f0 61bb
00000220: f454 9fbc f876 8a3d f4c6 7c3d 963a abbb
00000230: 3989 f6bd 1722 d23c 682a 323d cad8 b83d
00000240: 1a32 6cba 5c06 093d 292b 87bb 6a56 0dbc
00000250: b921 d2bd 5509 213c 6da1 3abe 5f56 04bd
00000260: 5338 293d 686e e2bd 2fa0 52bd fcff 20be
00000270: 5c12 4bbd 3e4d bd3b 0e31 87bd 2bd5 0cbe
00000280: 5ed3 403d 506a dbbb c0c4 8fbd 1ca9 f13d
00000290: badc 773d 2b9c c93c 4270 c93c 8faa a33d
000002a0: 88ff af3b 905b babc 5a50 7bbd 8583 ee3b
000002b0: 810d 06be 0343 013d dc65 acbd 02d5 cfbd
000002c0: 7dc6 34bd 9d8f 4fbd 995f e53d e148 6e3d
000002d0: 2d42 c0bd b75f 043d a0c2 0cbc dba6 97bd
000002e0: 3828 f9bc a076 8fbc 983c 173d f01a 013e
000002f0: dc9e 163d f8f8 223b 30e3 9bbd a387 263c
00000300: 0359 2e3d 71c8 dfbc e734 043d f2e2 093c
00000310: e48f b5bc 8ce3 363c aadf 10bd c6a9 05be
00000320: 94cb 913d 732b dcbc cb0f babd 4820 d2bc
00000330: 0284 fabc 443d f93c d5f4 1ebd 6773 1e3d
00000340: 0375 bd3c 23c3 f33d 7a1c 303e f48f 37bd
00000350: f57f 76bd 9394 b03d 5f90 f93d 89c5 c8bc
00000360: 4e26 853d c5af 643d db02 4e3e ce95 a7bc
00000370: c493 cf3c b919 0f3e e6ea 94bd ba4f e73d
00000380: 0473 e93d 9a68 97bd 25bb 62bd 1bd4 943d
00000390: 735f 02be 3de5 9fbc 0788 87bc 91d6 af3d
000003a0: b6f3 06be a1a4 e63c 69d0 643d cdde 47bd
000003b0: b7d2 b83d d659 9bbd 05bd 9e3c 0560 8b3d
000003c0: aa22 c73c af64 30bc fc83 f33d 3b57 9f38
000003d0: dace 7ebd 003c cf3a 120a 193c cd5d 343d
000003e0: 497c c63d d699 ba3d 7f41 083c bb2a 2d3c
000003f0: e410 8ebc 6ccc 873b 13b3 9dbd 1ea3 513c
0.027815146 -0.038546644 0.013773008 -0.03243876 0.011237304 -0.17678519 -0.0105607705 -0.06292185
-0.054633882 0.08839361 0.10309733 -0.044837512 0.023678614 -0.0035873866 0.04027135 0.026224364
0.014655101 0.002512324 -0.06410629 0.06605942 -0.10671074 0.066146016 0.013381229 -0.03555429
0.04874502 0.033685192 0.0036228518 -0.061679393 -0.0718449 0.017703764 0.010968826 -0.049556453
-0.09690225 -0.0978022 0.11931886 -0.057944432 -0.0041728863 -0.0013669129 -0.054035876 0.055658236
0.06189007 0.1059026 0.011612222 0.095966 0.011623969 0.0055534327 -0.07402756 0.020647
-0.003786356 -0.17178015 -0.021591412 0.110193536 0.01966531 0.09532162 -0.012975758 0.0061699054
0.014032217 -0.016057506 0.08333446 0.04285436 -0.010635737 -0.04738423 0.04060796 0.05927262
0.013547131 0.09356562 -0.04553142 0.0021670654 0.049306016 0.080032766 -0.022702377 0.06459046
0.041940346 0.023082282 0.17276512 0.085496284 -0.13202663 -0.02114173 -0.065749645 0.09820934
-0.018447274 -0.043178067 -0.010521713 0.13058278 -0.030665424 0.062643565 0.07892468 -0.02312089
0.022678198 0.123662636 0.079832464 -0.042499453 0.027526494 -0.08034937 0.061170608 -0.01836632
-0.16888413 -0.082857005 -0.015831301 0.031850237 0.012244125 -0.06537785 0.045335054 0.030595778
0.050618786 0.06311497 -0.17042843 0.17694029 0.057177678 -0.0010668419 -0.084050804 -0.0051408904
0.079897076 0.08444812 -0.17160274 0.0014635563 0.010663151 -0.13321443 -0.12194954 -0.074996255
0.02581263 0.121193014 0.028677862 -0.1530665 -0.036825527 0.003719476 0.018561315 0.0010875786
-0.01889425 -0.094726525 -0.10917979 0.016845671 0.02810581 0.104524665 0.019001782 -0.0034475557
-0.019449688 0.06760973 0.061713174 -0.00522549 -0.12037892 0.02565102 0.043497473 0.09025724
-0.0009010151 0.03345333 -0.004125018 -0.00862656 -0.10260338 0.009828885 -0.18225642 -0.032308932
0.04131348 -0.110562146 -0.051422294 -0.1572265 -0.049578056 0.0057770303 -0.06601153 -0.13753192
0.047076575 -0.006696023 -0.07019949 0.11799833 0.060513236 0.0246106 0.024589662 0.07991516
0.005371038 -0.022748739 -0.061355926 0.007278862 -0.13091089 0.031558048 -0.08417866 -0.1014805
-0.044134606 -0.05067407 0.111998744 0.05817497 -0.09387622 0.032317843 -0.008591324 -0.07404872
-0.030414686 -0.01751262 0.03692302 0.12607932 0.036772594 0.0024867635 -0.07611692 0.010164174
0.042565357 -0.027317258 0.032277014 0.008415924 -0.022163339 0.01116265 -0.035369553 -0.13053045
0.071189076 -0.026876187 -0.090850435 -0.025650159 -0.030580524 0.030424722 -0.03880771 0.038684275
0.023127085 0.11902454 0.17198363 -0.04481502 -0.060180623 0.08622088 0.1218574 -0.024508255
0.06501447 0.05583169 0.20118277 -0.020457175 0.025339015 0.13974656 -0.07271366 0.112945035
0.113988906 -0.07392998 -0.055354256 0.072670184 -0.12731723 -0.019518489 -0.016544355 0.08585847
-0.13178906 0.028154673 0.055862818 -0.048796464 0.09024566 -0.07585494 0.01937724 0.06805424
0.024308521 -0.010766192 0.118904084 7.597959e-05 -0.062208988 0.0015810728 0.00934078 0.044034768
0.09691674 0.09111373 0.008316397 0.01056927 -0.017342038 0.004144242 -0.07700171 0.012795238

bias f4 [128]
00000000: 6281 7dbd 38c3 afbd 88c3 96bd 7d6d 87bd
00000010: 74ab 3bbd 79fe a1bd d554 ca3b 8947 6ebc
00000020: 9bda d2bc 9f6d 80bd f326 89bd 2c3f 23bd
00000030: ff23 ccbd acbc f4bd 616f 95bc 4e28 abbd
00000040: 04b6 fdbd 6154 563d 2d0a 8abe ccfe b83b
00000050: d737 9dbd 42c4 29be b469 6a3d 4fa3 18be
00000060: 0b11 42bd d522 c2bd 79cc 303c 910f 8e3c
00000070: 0505 a8bd 6f4b 2cbd d1b0 92bb 47e6 aebd
00000080: 56e6 00bd 018a e5bd 511c d9bc 8224 c7bd
00000090: ffd8 0dbe b66a a6bd ec73 6bbe 4231 3dbd
000000a0: da08 f13b 227c 18be a911 abbc f71c 45bd
000000b0: df9d 92bd 3465 9ebd 8a5e edbd 5050 64be
000000c0: 3e66 dbbd 9003 c2bd 9a26 173b 881a a8bd
000000d0: aac6 46bd 16bf 0bbd 3318 21be c2dc 6bbd
000000e0: f9a0 ef3c db6b 8ebd 564d a6bd 180e e2bd
000000f0: e9e6 523c d2df e2bd 41fc 11be 5e95 56bc
00000100: 5f2f 26be d5f2 e0bd d0c3 5dbd 1702 7bbd
00000110: 4e26 96bd 2386 aabd df1e 7bbe 8fff c1bc
00000120: 3b80 11bd d8e3 35bd a365 11be f15c 2dbe
00000130: 1f6b e5bc 859b 09bc 1f63 08be fc30 4ebe
00000140: bed8 3fbe e1a4 983c a6ab 233d 898f 1dbd
00000150: 9f07 e1bd 32ea 25be c4d3 23bd 6de8 12bd
00000160: af11 0abd 47ec 4c3c 5ccd d7bd 71a5 e93c
00000170: a8cd 7fbd fa0c 7ebc c88c 0abe 3049 57bc
00000180: e887 9d3b 3e16 84bd 8244 bfbb 2cd9 5dbd
00000190: d076 9dbd 545f 2abd 10c5 383d b31e 613c
000001a0: 910b 83bd e887 29be 71cc 1fbd cc69 29bd
000001b0: 4961 49bd 3688 853d 7014 bcbd 1447 6b3c
000001c0: 956e 8ebc 26a9 f63c e01e fcbd 342b 91bc
000001d0: 958f 38be d7e0 13bd 6100 cbbd 7c51 53bd
000001e0: 6d3c 0cbe 6528 bcbd a23a 72bd 5549 92bd
000001f0: 1118 20be 9614 88bd 1ad1 9bbd d9f1 17bd
-0.061890967 -0.08582157 -0.073615134 -0.0661268 -0.045817807 -0.07909865 0.0061746635 -0.0145434225
-0.025739005 -0.062709086 -0.06696882 -0.039855167 -0.09967803 -0.11950049 -0.018241586 -0.08357297
-0.12388232 0.052326564 -0.26960889 0.0056456085 -0.07676666 -0.16578773 0.057229713 -0.14906047
-0.047379535 -0.094793 0.010790938 0.017341407 -0.082040824 -0.042064127 -0.0044766446 -0.08540016
-0.031469665 -0.11207963 -0.02650276 -0.0972376 -0.13852309 -0.08125822 -0.2299344 -0.046189554
0.0073557915 -0.14891103 -0.020882444 -0.048123326 -0.07159018 -0.07734147 -0.115902975 -0.22296262
-0.107128605 -0.09473336 0.002306378 -0.082081854 -0.048529305 -0.03411778 -0.15731888 -0.057583578
0.029251562 -0.069541655 -0.081202194 -0.110378444 0.012872436 -0.110778466 -0.14256383 -0.013097135
-0.16229008 -0.109838165 -0.05414182 -0.06128129 -0.07331525 -0.08326366 -0.24523495 -0.02368143
-0.03552268 -0.04440674 -0.14198928 -0.16929986 -0.02800518 -0.008398895 -0.13319062 -0.20135874
-0.18735024 0.018633308 0.03995862 -0.038466964 -0.10987782 -0.1620262 -0.039996877 -0.03586619
-0.03370827 0.012507505 -0.10537216 0.028521271 -0.06245199 -0.015506024 -0.13530266 -0.013140008
0.004807461 -0.06449555 -0.005837024 -0.05416219 -0.07688677 -0.04159482 0.04510981 0.013740229
-0.063986905 -0.1655575 -0.03901333 -0.04136066 -0.049165044 0.06520121 -0.09183586 0.014360208
-0.017386714 0.030109953 -0.123105764 -0.017720796 -0.18023522 -0.036103096 -0.09912182 -0.05159138
-0.13694926 -0.09187392 -0.059137948 -0.07142893 -0.1563418 -0.066445515 -0.07608242 -0.03709588

weight f4 [12, 128]
00000000: a460 313c 7f15 443c 6bd3 8abb 0a06 48bc
00000010: 56e4 413c 86cf babc 482f 8fbc 07dc dbbd
00000020: 1e8f e43c 7233 943a 2260 13bd ae9e eb3d
00000030: a15d 003d d50b f9bc 5cd2 bbbc a5d2 b0bb
00000040: 6f85 adbc f46f c13c aafb 8c3d cc37 9bbd
00000050: a922 913b 1b87 17bc 3146 febd 2c09 a3bd
00000060: 19ce 813c 9d17 683c cd14 5abd 2563 cdbc
00000070: a979 35bd 03b2 5e3b ec3c c8bc bdeb e03c
00000080: 932c 26bc 5c64 8ebc 05e7 923c 45c0 04bb
00000090: 6720 9abd 608c 183d de83 b33d 7756 35bd
000000a0: b04b 34bd 82e0 4cbc 868e bbbb f114 72bd
000000b0: 5bc7 00bd 56c9 0f3d 8057 8abd 0a11 1b3a
000000c0: 5897 6abd d910 113d adec e1bc 4e96 e53b
000000d0: b260 153c ceeb 76bc d65c 773d d233 a43d
000000e0: c854 07bc 66cb 5f3c caa4 1ebd 7873 fdbc
000000f0: c4f4 15bd a87f 4e3d 0ed4 9a3d 95ce a2bc
00000100: 8c69 a13d bd3b 3bbd 83f6 a73d a3f2 96bc
00000110: 8faf a83c f286 b8bd af59 b83d 5b15 efbc
00000120: 89d2 c4bb 583c 713c f705 d13d a0bf 973a
00000130: d2ea 12bd 30bb afbc 169a d8bb 10d7 a83d
00000140: 7e9e e2bc 5ac6 62bc 6c1f 683d cbdf 1dbd
00000150: 6c73 313d 1a34 a83d 49a4 8a3c 1ff7 cabc
00000160: 067b 88bc 7e68 7d3c 0391 9ebc b97e 7d3c
00000170: f6c4 e73a ae81 033d 1429 0dbc 6074 7f3b
00000180: d364 80bd 7712 29bd ec12 d13b d731 0d3d
00000190: 8dfa 5a3c b0d1 123d 89a2 8d3d 7793 debc
000001a0: 20fb b7ba 1d75 913c 439d 21bd b65d e73c
000001b0: b138 893c b214 33bd bba1 263c 36b9 523c
000001c0: ac61 0d3d c713 76bb 4eb0 3f3d d629 90bc
000001d0: c78f ac3c 3acc 833b 8603 153d d327 f6bc
000001e0: c11d 0d3d ae0c 3bbd 6b94 5f3a f820 1cbd
000001f0: dbe4 94bd f584 91bc fed0 3bbd 0b53 043d
00000200: 72ed ac3c 7c71 8ebc 7c8a bdbd 4b64 db3d
00000210: e8c1 e23d 6cd4 8a3d b0c2 02bd f687 193e
00000220: b930 68bd 72e6 3fbd 9839 143d 7bf7 0d3e
00000230: 1148 103c a39a 233b c94c 433d f912 78bd
00000240: 4acb 623c 1f54 80bc e94d 03be 85f2 ac3d
00000250: 2a07 51bc 4412 e9bd 399d 1e3a 33c8 6b3d
00000260: a2f2 3a3d 6c79 453c 2cc3 00bd e20c 8abd
00000270: 4c8a 203d 1d99 433c 7a94 dabc c61d 2bbc
00000280: 0c9c 3ebd 00bf 26bd 0ba6 783c d27b 32bd
00000290: 2575 db3b 84c7 d33d a3b3 7abd d0b2 6dbd
000002a0: ca2c 353d 2fb7 0abc 2972 223d c030 d1ba
000002b0: 9d3d b53c 646e 38be c3a3 f8bc 2ed4 213d
000002c0: 5d8c e53c 7b31 3d3c 8950 95bd c446 f63b
000002d0: f528 adbc 97e2 263d 59ff 1f3d 48c3 35bd
000002e0: 295d dcbc a699 553d 8ca5 de3c 190b 6d3d
000002f0: 89df 0abe d80e 7fbc 4944 9fbd 44fd 023d
00000300: 854b 813b c700 bebc 1d21 873d dfa0 4fbb
00000310: 9146 e4bb 57f3 cbbd 61a0 473d 4548 9abb
00000320: 32bc c73c 356f 213d a2e8 203c b6e4 073d
00000330: b1ed 27bb 01a3 a9bd a52b ab3c 207a 9b3d
00000340: 4bf4 37bd 3124 aa3c 16cb 3ebd 6c75 5fbd
00000350: 5879 053d dfcb 273d 931b 5ebb a991 bebc
00000360: 6ddf aa3c fede 99bd 8c3c 95bd afbb ba3c
00000370: 8c95 a03b 9890 8d3c 26d1 283d 9911 8f3d
00000380: e673 a5bd 2097 8f3d fe13 fabd 8a1f 5ebd
00000390: e331 d53c 0fdb da3d b3f7 c33d 1328 a7bd
000003a0: dce1 e6bc ff5a 24bc 8807 583d 73cf eebc
000003b0: 536f 973c 5a5a 12bd 3e3f ac3c 2b66 863b
000003c0: fe67 e3bc 9129 433d 4126 563a 5baf 573c
000003d0: 0f1a 47bc 4ff7 4c3c 5dc7 383d 2c0a 3fbc
000003e0: 4bfb e8bb 2d01 01bd c31e edbc 1d12 80bd
000003f0: e83e 2d3d c109 a8bd 4346 d1bc 4fa6 833c
0.010826264 0.011968016 -0.0042366288 -0.012208471 0.011834225 -0.022804033 -0.0174786 -0.10735326
0.027900275 0.0011306836 -0.03598035 0.11504875 0.03133929 -0.03040115 -0.022927456 -0.0053962045
-0.02118179 0.023612954 0.068839386 -0.07579002 0.0044291806 -0.00924852 -0.12415732 -0.07960734
0.015845345 0.014165786 -0.053242493 -0.02507169 -0.044305477 0.0033980615 -0.024443112 0.027456159
-0.010142463 -0.01738184 0.017932424 -0.0020256203 -0.075257115 0.037243247 0.08765386 -0.044271912
-0.044017494 -0.012504699 -0.005723777 -0.059102003 -0.03144012 0.03510412 -0.067549706 0.000591532
-0.05727324 0.035416458 -0.027578676 0.007006443 0.009117292 -0.015070869 0.06039127 0.080176964
-0.0082599595 0.013659334 -0.038731374 -0.030938849 -0.03661038 0.05041471 0.075599775 -0.019873897
0.078814596 -0.045711268 0.08201315 -0.018426245 0.020591525 -0.09010114 0.09001481 -0.029184988
-0.006006543 0.01472386 0.10206216 0.0011577494 -0.035868473 -0.021451563 -0.0066101654 0.08244145
-0.027663466 -0.013841236 0.05667059 -0.038543504 0.043322966 0.082130626 0.01692404 -0.02477604
-0.016660225 0.015466807 -0.019356256 0.015472108 0.00176826 0.032106094 -0.008615751 0.0038979277
-0.06269231 -0.041277375 0.0063804295 0.03447136 0.0133654 0.035844505 0.06915767 -0.027169926
-0.0014036633 0.01775604 -0.039456617 0.028242927 0.016750665 -0.04372091 0.0101703955 0.012861541
0.034516975 -0.003754841 0.046798997 -0.017598074 0.021064652 0.0040221484 0.036380313 -0.030048287
0.034452204 -0.04566639 0.0008528891 -0.03811738 -0.07270213 -0.017763594 -0.045853607 0.03230576
0.021109316 -0.017388098 -0.092549294 0.10712489 0.11072141 0.067787975 -0.03192395 0.14993271
-0.05668709 -0.04685063 0.03618774 0.13863938 0.0088062445 0.0024963997 0.04768065 -0.06056497
0.013842413 -0.015665112 -0.12822689 0.084446944 -0.012758056 -0.11380437 0.00060506497 0.05756397
0.04564155 0.012052875 -0.03143613 -0.067407385 0.03919439 0.0119383605 -0.026682127 -0.01044411
-0.046535537 -0.040709496 0.0151763065 -0.043575116 0.0066973143 0.10340789 -0.06120647 -0.058031857
0.044232167 -0.008466526 0.039659653 -0.0015959963 0.022124106 -0.1801086 -0.030351525 0.03950899
0.028021032 0.011547442 -0.072907515 0.00751576 -0.021137694 0.040743437 0.039061878 -0.044375688
-0.026899891 0.052148484 0.027178548 0.05787191 -0.13561834 -0.015567504 -0.07776696 0.031979814
0.00394577 -0.02319373 0.06598113 -0.003168158 -0.00696642 -0.09958523 0.048736934 -0.004708322
0.02438173 0.039412696 0.009821089 0.0331771 -0.0025623853 -0.08283044 0.020894835 0.07591653
-0.04491071 0.02076921 -0.046580397 -0.05455534 0.032586426 0.04096591 -0.0033890947 -0.023262816
0.02085849 -0.075132355 -0.07286939 0.022794573 0.00490064 0.017280862 0.041215084 0.06985778
-0.080787465 0.07011247 -0.122108445 -0.054229297 0.026024764 0.10686313 0.09568729 -0.081619404
-0.02818387 -0.010031461 0.052741557 -0.029151654 0.0184857 -0.035730697 0.02102625 0.004101535
-0.027759548 0.047647063 0.00081691524 0.013164367 -0.012152209 0.012510135 0.045112003 -0.01166014
-0.0071100346 -0.031495262 -0.028945332 -0.06253455 0.04229632 -0.082049854 -0.025546199 0.016070513

bias f4 [12]
00000000: 5d77 adbd cd72 5b3d e710 96bc 3d8c 533c
00000010: 0d4c 93bd fe10 493d 2b53 10be 8684 ed3d
00000020: f043 003a 3a82 463e 62cd cc3d 8221 64bc
-0.08470032 0.05357628 -0.018318607 0.012911853 -0.0719224 0.04908847 -0.14094226 0.115975425
0.0004892936 0.19385615 0.10000111 -0.0139240045
