unitree_rl_gym/logs/actuator_net_v3.pth (torch, 138024 bytes, 9 tensors)

weight f4 [100, 6]
0	0xbf529474	-0.8225777
1	0x3f155770	0.58336544
2	0xbebeaca5	-0.37241092
3	0x3da99ba4	0.08281639
4	0xbe00ba97	-0.12571178
5	0x3e276ce1	0.16350128
6	0xbfe83d2d	-1.8143669
7	0x3fc46b05	1.534516
8	0xbfab605f	-1.3388785
9	0x3d9cbe1d	0.07653449
10	0x3da2c34b	0.079474054
11	0xbc6fcb1b	-0.014635826
12	0xbfe66119	-1.7998382
13	0xbe728dbf	-0.23686884
14	0xbf7e2dba	-0.99288523
15	0x3dc80eb4	0.097684294
16	0x3d1f6006	0.038909934
17	0xbd250b5d	-0.04029404
18	0x3fd8f817	1.6950711
19	0xbf3c39ec	-0.7352588
20	0xbe9b00ec	-0.3027414
21	0x3e00ab2a	0.12565294
22	0x3e91893d	0.28425017
23	0x3de039e5	0.109485425
24	0xc007fddf	-2.12487
25	0xbf172365	-0.5903838
26	0xbf49e6d1	-0.7886782
27	0x3d5162d7	0.05111965
28	0x3c52b5aa	0.012860695
29	0xbc4b89e4	-0.012423012
30	0xbfdb21af	-1.7119654
31	0xbf8e67ec	-1.1125464
32	0x3f1fced5	0.62424976
33	0x3d4781dc	0.048707828
34	0xbea53e2c	-0.32273996
35	0xbec0d83d	-0.37664977
36	0x3f0b7262	0.5447141
37	0x3f271917	0.6527266
38	0xbe5e121a	-0.21686593
39	0xbf08c77d	-0.53429395
40	0x3e925958	0.2858379
41	0xbf2bce9d	-0.6711214
42	0xbfa6e70e	-1.3039262
43	0xbe0c9464	-0.13728482
44	0x3e282427	0.16420041
45	0x3dbe017f	0.09277629
46	0x3d90b4a0	0.070657015
47	0x3d2cb605	0.042165775
48	0x3f25df65	0.64794
49	0x3c1a293c	0.009409245
50	0x3de85509	0.11344344
51	0x3d691cde	0.056912296
52	0xbdf91bf6	-0.12163536
53	0xb9cbf0ac	-0.00038898492
54	0xbeca789b	-0.3954514
55	0x3fb1cdb2	1.3890898
56	0xbfebe4a5	-1.8429152
57	0xbe9a104e	-0.30090564
58	0xbcb1146c	-0.021616183
59	0x3daaef23	0.08346393
60	0xbfb79caf	-1.4344691
61	0x3ff531f6	1.9155872
62	0xbfb2e5ea	-1.3976414
63	0x3d5c13c1	0.053729776
64	0x3e1ef934	0.15524751
65	0xbe32386e	-0.17404339
66	0x3f8a4edc	1.0805316
67	0xc02a8029	-2.6640723
68	0x3f971b49	1.1805202
69	0x3cdc1e33	0.026869869
70	0x3be8731a	0.0070937993
71	0xbb91ea72	-0.004452997
72	0xc0170e3d	-2.360244
73	0xbfd7e581	-1.6866914
74	0x3f8f419e	1.11919
75	0xbc299e05	-0.010352616
76	0x3d93afd3	0.0721127
77	0x3db299db	0.08720752
78	0xbf0b0670	-0.543067
79	0xbe93ee5a	-0.28892785
80	0xbf87274f	-1.0558871
81	0x3db7cf0f	0.0897504
82	0x3d0c40f0	0.034241617
83	0x3ce8b58c	0.02840688
84	0x3ee89d5d	0.4543256
85	0xbe80bc32	-0.25143582
86	0x3ec68b0d	0.38777962
87	0xbe2b58b2	-0.16733053
88	0x3da180b4	0.07885876
89	0xbe9d00c1	-0.30664638
90	0xbd31bb1a	-0.043391325
91	0xbf692b57	-0.91081756
92	0x3f04f6b9	0.5193897
93	0x3b9cf766	0.0047902344
94	0x3e19e950	0.15030408
95	0xbe286c39	-0.16447534
96	0x3f17e4bb	0.5933339
97	0x3fb46ea3	1.4096264
98	0x3f0f4f3b	0.5598027
99	0xbe9f67df	-0.31133935
100	0x3db4d8f6	0.088304445
101	0x3eb3f22b	0.35145697
102	0xbf841556	-1.0319011
103	0xbfa1319d	-1.2593266
104	0xbfa9b1f3	-1.3257431
105	0x3d86452b	0.065561615
106	0x3d31a23e	0.043367617
107	0x3d0f8c16	0.035045706
108	0xbf480c23	-0.7814352
109	0x3fa00555	1.2501627
110	0x40053802	2.0815434
111	0xbe75990c	-0.23984164
112	0x3e8269e8	0.25471425
113	0xbeaedfeb	-0.3415521
114	0x3f66fe7e	0.90232074
115	0xbf2a68d1	-0.6656619
116	0x3fe66e8c	1.8002486
117	0x3beeec5e	0.0072913608
118	0x3c486951	0.012232141
119	0xbda45c32	-0.08025397
120	0xbff125ad	-1.8839623
121	0xbfc2c233	-1.5215515
122	0x3e00cd17	0.12578236
123	0xbd40efff	-0.047103878
124	0x3e84762b	0.25871405
125	0x3e4fd814	0.20297271
126	0xbf19c395	-0.6006406
127	0x402ceb99	2.7018797
128	0x3f8f133d	1.1177746
129	0xbda871e6	-0.082248494
130	0xbe2e4e8c	-0.17022151
131	0xbdda05f0	-0.10645664
132	0xbf9b363e	-1.2125928
133	0xbfca49a2	-1.5803721
134	0x3f50bdfc	0.81539893
135	0x3db726d7	0.08942955
136	0x3eff70d6	0.49890774
137	0x3ecf6ec6	0.405142
138	0x3f485470	0.7825384
139	0xc0182a80	-2.377594
140	0x3ff968e6	1.9485137
141	0x3d7362d1	0.05942041
142	0x3d04d5a3	0.032430302
143	0xbd662568	-0.056188017
144	0xbf1f713e	-0.6228217
145	0x3ed7b594	0.4213072
146	0xbfd9c759	-1.7013961
147	0x3cf6c34e	0.030122425
148	0x3dbbe2f5	0.09174148
149	0xbe0db9f9	-0.13840474
150	0xbfc2299c	-1.5168948
151	0xbf43b523	-0.7644827
152	0xbef22622	-0.47294718
153	0x3dcf378e	0.10118018
154	0x3d874901	0.06605721
155	0xbda7f319	-0.08200664
156	0x3f19475d	0.59874517
157	0x3dcc637e	0.09979914
158	0x3edcc644	0.43120015
159	0xbd2dc702	-0.042426117
160	0x3b9f232e	0.0048564887
161	0xbdc84fc9	-0.09780843
162	0x3f475a49	0.7787214
163	0x402438d0	2.5659676
164	0xc071e474	-3.7795687
165	0xbe28e334	-0.16492921
166	0xbce75eb6	-0.028243404
167	0x3e100764	0.1406532
168	0x3f79511c	0.9738939
169	0x3e072b8b	0.13200204
170	0x3f2ab424	0.6668112
171	0xbd7f579f	-0.06233942
172	0x3abbbbc3	0.0014322925
173	0xbcac2da5	-0.021017859
174	0xbf37af67	-0.7175202
175	0xc0024146	-2.035234
176	0xbeff9f0e	-0.49926037
177	0x3fe0a631	1.7550718
178	0xbb6ac2e5	-0.0035821733
179	0xbb65bc49	-0.0035054854
180	0x3ff64b61	1.9241754
181	0x3f2d7cc6	0.67768514
182	0x3ebef88e	0.37299007
183	0xbd6bc049	-0.057556424
184	0xbd6505fc	-0.05591391
185	0xbc3a57d5	-0.01137348
186	0xbf89f8c4	-1.0779042
187	0xbeacdf8f	-0.33764312
188	0xbf669977	-0.9007792
189	0xbdd564c1	-0.10419608
190	0xbeff78ad	-0.49896756
191	0xbedc5b45	-0.43038383
192	0xbe9d1707	-0.3068163
193	0x3e77b105	0.24188621
194	0x3f9b793d	1.2146374
195	0x3b8d2c5e	0.0043082675
196	0x3d91e5c7	0.07123905
197	0x3defc93b	0.117083035
198	0x3d75ce6f	0.060011324
199	0xbe15f240	-0.14643192
200	0xbed469a4	-0.41486847
201	0x3f4cbca9	0.7997537
202	0xbe7c57a2	-0.24642804
203	0x3ea14606	0.31498736
204	0xbf79fd9e	-0.97652614
205	0x3e867562	0.2626143
206	0x3e868e4f	0.26280448
207	0x3d42869a	0.047491647
208	0xbe20f5b5	-0.1571873
209	0x3e7b3882	0.24533275
210	0x3fb2ba73	1.396315
211	0xc034d388	-2.8254108
212	0x4006bf59	2.105429
213	0x3cc7f8db	0.024410656
214	0xbc9f9ce6	-0.019483995
215	0xbbdeabe3	-0.006795393
216	0xbefc4ec3	-0.4927884
217	0xbf15b68b	-0.58481663
218	0xc0077f7a	-2.1171556
219	0xbeae3584	-0.34025204
220	0xbe4eeb59	-0.20206966
221	0xbe4d6e90	-0.20061707
222	0x3ea1ef10	0.31627703
223	0xbf38426e	-0.71976364
224	0xbfb4a7a0	-1.4113655
225	0xbcd31c66	-0.025770377
226	0x3e21bc02	0.15794376
227	0x3e0c2961	0.1368766
228	0xbe47c33b	-0.19508068
229	0x3ffb1659	1.9616195
230	0x3f5ddfe5	0.8666976
231	0xbe384eb9	-0.1799878
232	0x3da3a242	0.079899326
233	0x3e471730	0.19442439
234	0xbfd72058	-1.6806746
235	0x400642ee	2.097835
236	0xbfd772cc	-1.6831908
237	0xbd62e727	-0.055396225
238	0xbd8dd8e7	-0.069261365
239	0x3dd24f2a	0.102690056
240	0xbe88d4fc	-0.26724994
241	0x3e9c2d45	0.30503288
242	0xbfeec003	-1.8652347
243	0x3e7cca5b	0.24686567
244	0xbe592676	-0.21206078
245	0xbd51abeb	-0.051189344
246	0x3ea2a2ef	0.31764933
247	0xbebfad03	-0.37436685
248	0x3eb63f26	0.35595053
249	0x3eb6df29	0.35717133
250	0xbe1b0cfa	-0.15141669
251	0xbed229a6	-0.410474
252	0x3ec63680	0.38713455
253	0x3eebdc89	0.46066692
254	0xbf249935	-0.64296275
255	0x3ebaac8d	0.3645977

bias f4 [100]
0	0x3fbeb1d6	1.4898021
1	0x3e7132aa	0.23554483
2	0xbda4b826	-0.08042936
3	0x3ed4ad20	0.41538334
4	0xbf01ad3b	-0.50654954
5	0xbecc6245	-0.39918724
6	0xbc5458c8	-0.01296062
7	0xbf94fa83	-1.163895
8	0xbfa56a7c	-1.2923121
9	0xbca64ee2	-0.020301286
10	0x3d82c089	0.063843794
11	0xbcbd01b5	-0.023072103
12	0xbda46ceb	-0.08028587
13	0xbf87dc5a	-1.0614121
14	0xbf941b84	-1.1570897
15	0x3fb98b20	1.4495583
16	0x3f02df64	0.5112212
17	0xbec97307	-0.3934557
18	0x3d8a7261	0.06760097
19	0xbedb032e	-0.42775863
20	0xbe065667	-0.13118897
21	0xbe49701e	-0.19671676
22	0xbee4a2d6	-0.44655484
23	0xbe093a01	-0.13401033
24	0x3e64e620	0.2235341
25	0xbf59cdc6	-0.8507961
26	0xbfbd1081	-1.4770662
27	0x3c04967a	0.008092517
28	0xbfb1327a	-1.3843529
29	0x3eb22216	0.3479163
30	0x3f03130d	0.51200944
31	0xbf2d2d5c	-0.6764734
32	0xbf04a265	-0.51810294
33	0xbe92e263	-0.28688344
34	0x3f7132b1	0.94217974
35	0x3d1b35a1	0.03789294
36	0x3e95f2ce	0.29286808
37	0x3f95d98d	1.1707016
38	0xbf5dc1ae	-0.86623657
39	0x3d737600	0.059438705
40	0xbe00d1ac	-0.12579983
41	0x3fa962ee	1.3233316
42	0x3eb88117	0.36035988
43	0xbf85291f	-1.0403174
44	0x3f5280b8	0.8222766
45	0x3e2a303f	0.16619967
46	0xbf979cd7	-1.1844739
47	0x3e9df8a5	0.30853763
48	0x3ec7280d	0.38897744
49	0xbf99a37a	-1.2003014
50	0x3e7e9860	0.24862814
51	0xbef44372	-0.47707707
52	0xbf6554ef	-0.89582723
53	0x3efe7a7c	0.49702823
54	0x3f96337b	1.173446
55	0x3ec655bc	0.38737285
56	0xbeb3f3e1	-0.35147002
57	0xbf55c0b5	-0.8349717
58	0xbd5d1c0e	-0.053981833
59	0xbe22218b	-0.15833108
60	0x3f68bfc2	0.909176
61	0xbee048e6	-0.43805617
62	0x3c7fe3bb	0.01561826
63	0x3f5ac92f	0.8546323
64	0xbeeb26c7	-0.45928022
65	0xbd546999	-0.05185852
66	0x3f0abe9a	0.54197085
67	0xbf90f41c	-1.1324496
68	0x3ed5e381	0.41775134
69	0xbf17ebf0	-0.5934439
70	0x3ebfc09b	0.37451634
71	0x3fa57399	1.2925903
72	0xbfb67954	-1.4255776
73	0xbeb6dc8c	-0.3571514
74	0xbfa02ffa	-1.2514641
75	0x3f175707	0.5911717
76	0x3e561d76	0.20909676
77	0x3e17ac02	0.1481171
78	0x3d9cf3c1	0.0766368
79	0x3f7dd2af	0.991496
80	0xbb53d01f	-0.0032320095
81	0x3d626aff	0.05527782
82	0xbd85015d	-0.06494401
83	0xbe0d92c6	-0.13825521
84	0xbf86886f	-1.0510386
85	0xbf209559	-0.62727886
86	0x3e8e711c	0.2782067
87	0x3f99ba97	1.2010068
88	0xbf92b3a8	-1.1461077
89	0xbe966377	-0.2937276
90	0xbf393fb8	-0.7236285
91	0x3eaf780a	0.3427127
92	0x3f992f3f	1.1967543
93	0xbd08575e	-0.033286445
94	0x3e2737ef	0.1632993
95	0xbedfd758	-0.43718982
96	0x3f0bdcc9	0.54633766
97	0x3f4176d9	0.7557197
98	0x3f51d61f	0.8196735
99	0x3f4b450f	0.7940225

weight f4 [100, 100]
0	0xbe7f8c3d	-0.2495584
1	0x3f2ae07b	0.6674878
2	0x3e94a2ce	0.2903046
3	0x3ef29012	0.47375542
4	0x3e3c6bcc	0.18400496
5	0xbddd7ecb	-0.108151995
6	0x38b705b6	8.727184e-05
7	0xbea11a77	-0.31465504
8	0xbc4be2bb	-0.0124441935
9	0x3cd4c773	0.025974011
10	0xbc6be626	-0.014398133
11	0xbf10cc1e	-0.5656146
12	0xbf10ba06	-0.5653385
13	0x3ed2013b	0.41016564
14	0xbd496427	-0.04916778
15	0xbddb144c	-0.10697231
16	0x3eed5800	0.463562
17	0x3e5a3653	0.21309786
18	0x3e34b51b	0.17647211
19	0xbe14825b	-0.14502852
20	0xbe5fd667	-0.21859132
21	0xbdceec2c	-0.1010364
22	0x3f2e152c	0.68001056
23	0xbecc75f9	-0.39933756
24	0x3e31ed6e	0.17375728
25	0x3f0455e1	0.5169354
26	0x3ec47291	0.38368657
27	0x3f139da1	0.576624
28	0xbdd56ff7	-0.10421746
29	0xbd6828ee	-0.05667966
30	0x3f0e1680	0.5550308
31	0xbddeb8ab	-0.10875066
32	0xbe71e441	-0.23622228
33	0x3dba1d32	0.090876
34	0xbe2983c4	-0.16554171
35	0xbfc42430	-1.5323544
36	0xbd4fb8f5	-0.0507135
37	0x3e0fb995	0.14035638
38	0x3db1b6e6	0.08677463
39	0x3e280747	0.16409026
40	0x3c7913fc	0.015202519
41	0xbeaec1bd	-0.34132186
42	0x3e7673d0	0.24067616
43	0x3e3c6d98	0.18401182
44	0x3ecc5337	0.39907238
45	0x3f27028b	0.65238255
46	0xbf688dd0	-0.9084139
47	0x3e1648f8	0.14676273
48	0xbdd2cbed	-0.10292802
49	0xbecca38f	-0.39968535
50	0x3d8b2e61	0.067959554
51	0x3f52dcd4	0.82368207
52	0x3e9ef6c8	0.31047654
53	0x3dcd593e	0.10026787
54	0x3e791b42	0.24326804
55	0x3da9452e	0.08265148
56	0x3eb3421e	0.3501138
57	0x3f04346b	0.51642483
58	0xbe1c0889	-0.15237631
59	0xbeb19dd8	-0.34690738
60	0xbf13c92b	-0.5772883
61	0xbe5fd352	-0.21857956
62	0xbe87cdff	-0.2652435
63	0xbebd3aad	-0.3695883
64	0x3db9ad04	0.09066203
65	0xbe712ee3	-0.23553042
66	0xbe8e05c8	-0.27738786
67	0x3e4dd5d2	0.20101097
68	0xbe5ddd80	-0.21666527
69	0x3eab9233	0.3350998
70	0xbe162063	-0.14660792
71	0xbe2da4f7	-0.1695746
72	0xbeb2db20	-0.34932804
73	0x3f8428af	1.0324916
74	0x3d287388	0.041125804
75	0x3e909cb6	0.2824456
76	0x3f02cb3d	0.51091367
77	0xbf2f94a6	-0.68586195
78	0x3e5f0e95	0.21782906
79	0x3e487a25	0.19577844
80	0x3d918cba	0.071069196
81	0xbecb99f8	-0.39765906
82	0x3e8f82a8	0.2802937
83	0x3dbf76a9	0.093488045
84	0xbf0e8eb7	-0.55686516
85	0x3d1abfac	0.03778045
86	0xbe64ef22	-0.22356847
87	0x3dab1fdf	0.08355688
88	0x3e7eafa1	0.24871685
89	0xbe7a1789	-0.2442304
90	0x3e9933c4	0.29922307
91	0xbe902258	-0.28151202
92	0xbc95efb7	-0.018302782
93	0x3e0dd21b	0.1384968
94	0x3f3811f4	0.71902394
95	0x3cbe09b3	0.023197984
96	0xbed0b050	-0.40759516
97	0x3f3421ba	0.7036396
98	0xbd9ac0d0	-0.07556307
99	0x3e211395	0.15730126
100	0x3df22678	0.118237436
101	0x3d4e0a4e	0.050302796
102	0xbea0ad15	-0.3138205
103	0x3e60cbd3	0.21952753
104	0x3eb6893e	0.35651582
105	0xbe7e2046	-0.24816999
106	0xbe050f6a	-0.12994161
107	0x3bd6f58a	0.0065600323
108	0x3d320459	0.043461177
109	0x3d257430	0.04039401
110	0xbde47f9d	-0.11157153
111	0x3f0e11be	0.5549582
112	0xbd6cedbf	-0.05784392
113	0x3e6483cd	0.22315903
114	0xbe3d75ec	-0.18502015
115	0xbec8e398	-0.3923614
116	0xbd8d986c	-0.06913838
117	0x3ede6a9c	0.43440711
118	0xbdc018a4	-0.093797
119	0xbeda1603	-0.4259492
120	0xbe3ded76	-0.18547615
121	0x3d8f417d	0.06994913
122	0xbed6c77c	-0.4194907
123	0xbd80a7b1	-0.062819846
124	0xbe7877fc	-0.2426452
125	0x3ddf3f3b	0.10900732
126	0xbe03798d	-0.12839337
127	0x3e85efbe	0.2615947
128	0x3e116b3c	0.14201063
129	0x3b4a3c40	0.0030858666
130	0xbed8a576	-0.42313737
131	0x3dd621ff	0.10455703
132	0x3c0c06e2	0.008546563
133	0xbd823d7e	-0.06359385
134	0x3de376ac	0.11106619
135	0x3ef99181	0.48743823
136	0xbdcfcf17	-0.10146921
137	0xbd98b48d	-0.07456312
138	0x3e21d071	0.1580217
139	0x3eb29395	0.3487822
140	0xbdb1fca5	-0.08690766
141	0xbda3b84e	-0.07994138
142	0x3e54e77d	0.20791431
143	0xbda8c403	-0.08240511
144	0x3d1deb6c	0.038554594
145	0x3d4f9737	0.05068132
146	0x3dc2090d	0.094743825
147	0xbf083350	-0.53203297
148	0x3d569639	0.052389357
149	0x3ea2a16d	0.31763783
150	0x3f05b3e1	0.522276
151	0x3d8cf133	0.068819426
152	0xbdf28b7b	-0.1184301
153	0xbecdaf96	-0.40173024
154	0x3e0e94a0	0.13923883
155	0x3ce7baf4	0.028287388
156	0x3eff9c70	0.4992404
157	0x3d04b189	0.032395873
158	0x3e4ef18b	0.20209329
159	0x3ec8c11e	0.39209837
160	0x3d35289a	0.044228174
161	0x3e00a5c9	0.12563242
162	0xbe93c550	-0.28861475
163	0xbe406e26	-0.18792018
164	0x3e95672b	0.29180273
165	0xbb77e2fc	-0.0037824502
166	0xbd9e173d	-0.07719276
167	0xbc93d46d	-0.018045628
168	0x3eacdd66	0.33762664
169	0x3f26710c	0.65016246
170	0xbe6b47c8	-0.22976601
171	0xbedf4f17	-0.43615028
172	0x3e58314a	0.21112552
173	0x3f3ca55f	0.73689836
174	0x3e87d56a	0.2653001
175	0xbb901376	-0.004396851
176	0xbec5bec9	-0.3862212
177	0x3f13399e	0.5750979
178	0xbe6c9ad2	-0.23105934
179	0xbc684615	-0.014176865
180	0x3d0d3e01	0.03448296
181	0x3e74a12f	0.23889612
182	0x3e3c4d16	0.18388781
183	0x3b89a6db	0.004200799
184	0x3e4d745d	0.2006392
185	0x3ef94976	0.4868886
186	0xbe35e6a3	-0.17763762
187	0xbe747bb9	-0.23875321
188	0x3d999497	0.074990444
189	0xbdc00c3f	-0.09377336
190	0xbcb1d1a2	-0.021706406
191	0xbe2dfed6	-0.16991743
192	0xbe568cb3	-0.2095211
193	0xbef0d9ab	-0.47041067
194	0x3e5ae99b	0.21378176
195	0x3ca18d0a	0.019720573
196	0x3c8a630a	0.016892929
197	0xbf22044a	-0.63287795
198	0x3dcbacc8	0.09945065
199	0xbdfdf50a	-0.12400253
200	0xbdd1ff09	-0.10253722
201	0xbd218d74	-0.03944154
202	0xbe926a51	-0.28596738
203	0xbe000f8d	-0.12505932
204	0xbf9c4333	-1.2208008
205	0xbdaf579a	-0.085616305
206	0x3e5d59ae	0.21616241
207	0xbdb60af4	-0.08888808
208	0xbf0e9647	-0.55698055
209	0x3cb70ced	0.02234503
210	0xbdf50e66	-0.11965637
211	0xbe3fea1a	-0.18741646
212	0x3de479d1	0.11156047
213	0xbe3d11a1	-0.18463756
214	0x3df862c7	0.12128215
215	0x3e239e27	0.15978299
216	0x3e229c4f	0.1587994
217	0xbf2df9ab	-0.6795909
218	0x3d99cdbd	0.075099446
219	0xbd647e19	-0.05578432
220	0x3e46c6fc	0.19411844
221	0x3ddcd08d	0.107819654
222	0x3e059c91	0.13048007
223	0xbdbfbb2d	-0.09361873
224	0xbe0e32de	-0.13886592
225	0xbd8f84f0	-0.07007778
226	0x3d5033d7	0.05083069
227	0xbe2131ab	-0.15741603
228	0x3d73ba50	0.059503853
229	0x3e366be3	0.17814593
230	0x3ece4482	0.40286642
231	0xbd9b3e7f	-0.075802796
232	0x3e1e3d00	0.15452957
233	0xbd8cc18f	-0.06872856
234	0xbdc72bc2	-0.09725143
235	0xbe94683c	-0.28985775
236	0x3ee76133	0.45191345
237	0xbe1c515e	-0.15265414
238	0x3de36d1e	0.11104797
239	0xbd8e8df9	-0.06960673
240	0xbd520eb5	-0.051283557
241	0x3d9453ed	0.0724257
242	0xbcfce4ff	-0.030870913
243	0x3b93ee86	0.004514518
244	0x3d39cb0e	0.045359664
245	0x3e32da41	0.1746607
246	0xbe5a42a3	-0.21314482
247	0x3e351eef	0.17687581
248	0x3e0e0a3b	0.1387109
249	0xbe72ff0b	-0.23730104
250	0xbdbb6194	-0.09149471
251	0xbb0ac281	-0.0021173062
252	0xbddc5d8a	-0.10760029
253	0xbbf6f73c	-0.007536797
254	0xbe01558e	-0.12630293
255	0x3ce6c16d	0.028168404

bias f4 [100]
0	0x3a3d50c1	0.0007221811
1	0xbe9fc7d6	-0.3120715
2	0x3e4c1e78	0.19933498
3	0x3f14f1c7	0.5818142
4	0xbf3d14b2	-0.73859704
5	0x3e8f5929	0.2799771
6	0x3e0ad71d	0.13558622
7	0x3e1c8e4f	0.15288661
8	0xbdc30146	-0.09521727
9	0xbf57e5af	-0.84334844
10	0x3d5f1951	0.054467503
11	0x3eff4048	0.4985373
12	0x3dca7b2c	0.098867744
13	0xbf43aa07	-0.76431316
14	0x3f27c358	0.65532446
15	0xbf229298	-0.63504934
16	0xbea787be	-0.3272075
17	0x3b934433	0.004494214
18	0x3e6beb76	0.2303904
19	0xbf139191	-0.5764399
20	0x3e9cd65c	0.30632293
21	0x3e86e035	0.2634293
22	0x3c5b450b	0.01338316
23	0x3f1faf50	0.6237688
24	0x3e183193	0.14862661
25	0x3e508111	0.20361735
26	0x3df10be0	0.11769843
27	0xbf049eb8	-0.51804686
28	0x3ed29f08	0.41136956
29	0xbdaae27d	-0.083439805
30	0xbd2218f9	-0.039574597
31	0x3d04e966	0.03244915
32	0x3ed72436	0.42019814
33	0x3e00eeb3	0.12591057
34	0xbda274ce	-0.07932435
35	0x3d5f532d	0.054522682
36	0x3f1b0f67	0.6057038
37	0xbf250c75	-0.6447213
38	0x3eb2fbed	0.3495783
39	0xbe908840	-0.2822895
40	0xbf0062a3	-0.5015051
41	0xbc784ee2	-0.015155526
42	0x3f161052	0.5861865
43	0x3f4e94ed	0.8069599
44	0x3d8c61bf	0.06854581
45	0x3d930528	0.07178718
46	0x3ee3b5e5	0.44474712
47	0xbd471f9c	-0.04861413
48	0xbd983a85	-0.07433037
49	0xbf1fa8eb	-0.62367123
50	0xbe32311f	-0.1740155
51	0x3b79a94c	0.0038095294
52	0xbda31f31	-0.07964934
53	0x3f15c2d2	0.585004
54	0x3e2f377f	0.17111014
55	0x3eb4eae3	0.35335454
56	0x3f1b18ea	0.6058489
57	0x3e20330a	0.1564447
58	0x3e60d535	0.21956332
59	0xbef95862	-0.48700243
60	0xbe61aa33	-0.22037582
61	0xbec752c2	-0.38930327
62	0xbf3411bd	-0.70339566
63	0xbc963dd3	-0.018340027
64	0x3f0ffba8	0.5624337
65	0x3ea5ebf2	0.32406574
66	0x3e6f5576	0.23372445
67	0xbd64bf8a	-0.05584673
68	0x3e2dc10e	0.16968176
69	0x3ea296d7	0.31755707
70	0x3e7ae9b9	0.2450322
71	0xbede20f9	-0.4338453
72	0x3e5c4781	0.21511652
73	0xbeac6b39	-0.33675554
74	0xbd6f0e76	-0.0583634
75	0x3e400a87	0.18754016
76	0xbc9aa61d	-0.018878037
77	0x3c16b014	0.009197254
78	0xbf7356f2	-0.95054543
79	0xbe541e79	-0.2071475
80	0x3e3f5295	0.18683846
81	0xbf4df783	-0.804558
82	0x3e2957cd	0.165374
83	0xbf237ad4	-0.63859296
84	0x3f3b2a0f	0.7311105
85	0xbf22001f	-0.63281435
86	0x3e2ea416	0.17054781
87	0x3f394717	0.723741
88	0x3e15f069	0.1464249
89	0x3ead4108	0.33838677
90	0xbc0da85b	-0.008646096
91	0x3f40e5b2	0.7535049
92	0x3ddf87af	0.109145515
93	0xbe16e62d	-0.14736243
94	0xbe86d41a	-0.26333696
95	0xbea5331a	-0.3226555
96	0xbd171e87	-0.036894348
97	0xbda951fa	-0.08267589
98	0xbf050e1e	-0.51974666
99	0x3f04da91	0.51896006

weight f4 [100, 100]
0	0x3e8de0c6	0.2771055
1	0x3e6652c0	0.22492504
2	0xbe5c125f	-0.21491383
3	0xbe035ee3	-0.12829165
4	0xbb1afb7d	-0.0023648434
5	0x3e5750d2	0.21026924
6	0xbd094ca0	-0.03352034
7	0x3dff7962	0.12474324
8	0x3d8fcb28	0.07021171
9	0x3e1e0a18	0.15433538
10	0xbe95362b	-0.2914289
11	0xbc9de1f2	-0.019272778
12	0x3e98abb2	0.29818493
13	0x3e38810a	0.18017974
14	0xbe00f0e3	-0.12591891
15	0x399902c0	0.00029184483
16	0xbdb897e8	-0.09013349
17	0x3e3c880d	0.18411274
18	0xbd2f4a94	-0.042795733
19	0xbb5d4b88	-0.0033766944
20	0x3e51f5ef	0.20503972
21	0x3e8e3fe2	0.27783114
22	0x3d95b043	0.0730901
23	0xbdb87508	-0.09006697
24	0x3ecf6278	0.40504813
25	0xbe2b0fae	-0.167052
26	0x3e0b9884	0.13632399
27	0x3d6d3795	0.057914335
28	0x3e181afc	0.14854044
29	0xbe1a8a3b	-0.15091793
30	0xbd7a7097	-0.06114253
31	0x3e2e897f	0.17044638
32	0x3e202a66	0.15641174
33	0x3e40d823	0.1883245
34	0x3ebee628	0.3728497
35	0x3bd15b8e	0.006389088
36	0xbe327179	-0.17426099
37	0xbddb0619	-0.106945224
38	0xbddb7b87	-0.1071692
39	0x3eb5cdcf	0.35508582
40	0x3e0a0bfb	0.13481133
41	0xbe48dae3	-0.19614749
42	0xbd7e97b4	-0.062156394
43	0xbca6a3bf	-0.020341752
44	0x3e73d0de	0.23810145
45	0x3daa7252	0.08322586
46	0x3ed991f7	0.42494175
47	0x3cce9708	0.025218502
48	0x3e1dbd8a	0.15404335
49	0xbdedc5f2	-0.11610021
50	0xbccc37fe	-0.024929043
51	0xbe343102	-0.1759682
52	0x3e2ac5a1	0.16676952
53	0x3e478fc5	0.19488437
54	0x3edde7ee	0.4334101
55	0xbe31e93e	-0.17374131
56	0xbe5625d8	-0.20912874
57	0xbd747546	-0.059682153
58	0xbec59102	-0.38587195
59	0x3f36c6c3	0.71397036
60	0x3f632303	0.887253
61	0xbd33b40d	-0.04387288
62	0x3e60908a	0.21930137
63	0xbe98fabc	-0.29878795
64	0xbd5ddd65	-0.054166216
65	0xba149f5c	-0.00056694984
66	0xbeb49059	-0.3526638
67	0x3cbb9971	0.022900315
68	0x3e73e072	0.23816088
69	0x3da5e66d	0.08100591
70	0xbee06b67	-0.4383194
71	0x3dd5e4c4	0.10444024
72	0x3c0bc292	0.008530276
73	0x3d3b3b4a	0.04571084
74	0xbe176300	-0.14783859
75	0xbe9ec6bf	-0.31011006
76	0xbdddc05b	-0.108277045
77	0xbc08fc9f	-0.008361011
78	0xbd376e41	-0.04478288
79	0x3e8a46b5	0.2700707
80	0x3d0e88d8	0.034798473
81	0x3e6c666d	0.23085947
82	0x3e22b5e0	0.15889692
83	0x3e3f4f6f	0.18682645
84	0xbd092ab9	-0.03348801
85	0x3e64fa65	0.22361143
86	0xbec86a9e	-0.39143842
87	0x3d9468a7	0.07246523
88	0xbd090b1a	-0.033457853
89	0x3d9f5abb	0.07780977
90	0xbdb1b5ea	-0.086772755
91	0xbeabb927	-0.33539698
92	0x3ea3c759	0.31988028
93	0x3bea31cd	0.00714705
94	0xbe26f643	-0.16304879
95	0xbdfbb84b	-0.122910105
96	0xbe4c9a3c	-0.1998071
97	0x3eb7a4d7	0.3586795
98	0x3e85c527	0.26126978
99	0xbd1ea8aa	-0.03873507
100	0xbec60f4a	-0.3868354
101	0x3e319284	0.17341048
102	0xbe163563	-0.14668803
103	0xbdd45e2e	-0.10369526
104	0x3ef272a1	0.4735308
105	0x3d089c9a	0.033352472
106	0xbd93ec8f	-0.07222854
107	0x3bafce62	0.005365179
108	0x3dbeea8c	0.0932208
109	0x3e7b380f	0.24533103
110	0xbc65b80c	-0.014020931
111	0xbeb419dd	-0.35175982
112	0x3e0b8f1e	0.13628814
113	0x3ea59b11	0.3234487
114	0xbe5987ff	-0.21243285
115	0x3e08302e	0.13299629
116	0xbc44fd6e	-0.012023313
117	0x3e78ce16	0.24297366
118	0xbe02b5d7	-0.12764679
119	0x3e23a428	0.1598059
120	0x3c5a22d9	0.013313972
121	0xbd43f88c	-0.047844455
122	0x3e5b9d27	0.21446668
123	0xbde8ca54	-0.11366716
124	0x3c8bf1c7	0.017083062
125	0xbd04a50f	-0.032383975
126	0xbea89589	-0.32926586
127	0x3e652919	0.22378959
128	0xbe208731	-0.15676571
129	0xbdce95f4	-0.10087195
130	0x3e474ec7	0.19463645
131	0x3d722f2f	0.05912703
132	0xbe7fd84d	-0.24984856
133	0xbdd9c749	-0.10633714
134	0x3e538529	0.20656265
135	0x3dedcaa6	0.11610918
136	0xbdf21700	-0.11820793
137	0x3e879566	0.2648117
138	0xbe44b919	-0.19211234
139	0x3e4c70f5	0.19964965
140	0x3e8ecbf0	0.27889967
141	0xbdee9ff0	-0.116515994
142	0xbdc30808	-0.09523016
143	0xbe9b4dcd	-0.30332795
144	0xbe6cfc23	-0.23143058
145	0xbf56e51c	-0.83943343
146	0xbd350ee6	-0.04420366
147	0x3dc3fd20	0.09569764
148	0xbc486dda	-0.012233222
149	0x3deea155	0.116518654
150	0xbeb4ff26	-0.35350913
151	0x3d8a6540	0.06757593
152	0xbe02c8ea	-0.12771955
153	0xbdcd2337	-0.10016482
154	0xbd29b2d8	-0.041430324
155	0xbd9d0da5	-0.07668618
156	0xbe85a019	-0.26098707
157	0x3e99e06f	0.30054042
158	0x3d6ebf65	0.058287997
159	0x3e946950	0.28986597
160	0x3d9954cc	0.07486877
161	0x3e235e64	0.15953976
162	0x3f143d1d	0.5790575
163	0x3d8efedb	0.069822036
164	0xbe410e4b	-0.18853109
165	0x3d7eab65	0.062175173
166	0xbd83a774	-0.064284235
167	0x3e7b1bd7	0.24522339
168	0x3e119942	0.1421862
169	0xbe2d2754	-0.16909534
170	0x3e8ab914	0.27094328
171	0xbd603523	-0.054738175
172	0x3e686dcc	0.22698134
173	0x3e7c8347	0.24659453
174	0x3e19ffba	0.15038958
175	0xbe5d7c49	-0.21629442
176	0x3d130e37	0.03590223
177	0xbded09dd	-0.11574147
178	0x3eb5314a	0.35389167
179	0x3dd63e2c	0.10461077
180	0x3e1b5e07	0.15172587
181	0x3e8a8359	0.27053335
182	0xba37d5d7	-0.00070127606
183	0x3ed4cec5	0.41564003
184	0x3e03751a	0.1283764
185	0x3ee03f15	0.43798128
186	0xbdabfa29	-0.08397324
187	0xbcb9c7b0	-0.022678226
188	0xbe48e896	-0.19619974
189	0xbe5a85a4	-0.21340042
190	0x3e5135b3	0.20430641
191	0xbea7ccbb	-0.32773384
192	0xbdc41341	-0.09573985
193	0x3e7301b1	0.23731114
194	0x3dbeb37c	0.09311578
195	0x3d0970b7	0.03355476
196	0xbe066dfb	-0.13127892
197	0x3cfbe955	0.03075091
198	0xbe38456b	-0.17995231
199	0xbe1feed3	-0.15618448
200	0xbe282455	-0.1642011
201	0xbc165680	-0.009175897
202	0x3cabd36b	0.020974835
203	0x3af44700	0.0018636882
204	0xbd999e55	-0.075009026
205	0xbd786b79	-0.06064937
206	0x3c20529f	0.009785323
207	0xbe13b535	-0.14424594
208	0x3d6eeeb6	0.05833312
209	0xbd583ebd	-0.052794207
210	0x3da4c963	0.08046224
211	0x3d140304	0.03613569
212	0x3d8caa1d	0.06868384
213	0x3c2d717c	0.010586139
214	0x3df71454	0.12064424
215	0x3f054d30	0.52070904
216	0xbdfacdc5	-0.12246279
217	0xbd05f954	-0.03270848
218	0xbdea6e4f	-0.11446821
219	0x3eb2cbbd	0.34921065
220	0xbeaa2d2e	-0.33237594
221	0xbd960d7d	-0.073267914
222	0xbe5dea01	-0.21671297
223	0x3cb7b1e6	0.022423696
224	0xbf081f90	-0.5317316
225	0xbe59fdb8	-0.21288192
226	0xbc3629f4	-0.011118401
227	0x3dea3501	0.11435891
228	0xbdf78f83	-0.120879196
229	0x3dd377be	0.103255734
230	0xbd978ec2	-0.07400276
231	0x3da75867	0.08171158
232	0xbf1d8565	-0.6153167
233	0x3e182a2a	0.14859834
234	0xbe68d0d9	-0.22735919
235	0xbe1237db	-0.1427912
236	0xbe961b7f	-0.29317853
237	0x3e989291	0.2979932
238	0xbf05e480	-0.5230179
239	0xbc376b33	-0.011194992
240	0xbd87c6b5	-0.06629697
241	0xbe091306	-0.13386163
242	0xbd1829e0	-0.03714931
243	0xbe73b60b	-0.23799913
244	0x3df5437e	0.11975764
245	0xbe8e39d8	-0.27778506
246	0xbe6b966d	-0.23006602
247	0x3dad2020	0.08453393
248	0xbdde2fc6	-0.10848956
249	0x3e1aba16	0.15110049
250	0xbeb5f0fa	-0.35535413
251	0x3db008c6	0.085954234
252	0x3d852847	0.06501823
253	0xbe120b13	-0.14262037
254	0xbe39357e	-0.18086812
255	0xbf1058d5	-0.56385547

bias f4 [100]
0	0xbdca8e3f	-0.098904125
1	0xbeb5966f	-0.35466334
2	0xbdbf0132	-0.093264
3	0x3ef913fe	0.48648065
4	0x3f05276f	0.52013296
5	0x3f010ce5	0.504103
6	0xbebc46ca	-0.36772758
7	0xbe9adf3e	-0.30248445
8	0xbdac7fc3	-0.08422806
9	0xbf03ee3d	-0.515354
10	0xbedc02cb	-0.4297088
11	0xbeb03a2d	-0.34419385
12	0xbe9ffd62	-0.31248003
13	0x3d1241d8	0.035707325
14	0x3e0d2626	0.13784084
15	0x3ccb80b2	0.02484164
16	0x3efef8a4	0.49799073
17	0x3c1487ab	0.009065549
18	0x3e4eb48d	0.20186062
19	0x3ddd8ae4	0.10817507
20	0xbf0a65cb	-0.54061574
21	0xbe7387d2	-0.2378228
22	0xbdbe0881	-0.09278966
23	0xbf0dade3	-0.55343455
24	0x3e17fb0d	0.14841862
25	0x3e7ea932	0.2486923
26	0x3f06a0f9	0.52589375
27	0x3ec702ba	0.38869268
28	0x3ec64131	0.38721612
29	0x3e537915	0.20651658
30	0xbf0d1f35	-0.55125743
31	0x3e29ae38	0.16570365
32	0x3eef0032	0.46679837
33	0xbec977da	-0.39349252
34	0xbec6d013	-0.38830623
35	0xbec4242c	-0.38308847
36	0xbd0a2e8b	-0.033735793
37	0xbf205c7f	-0.6264114
38	0xbee0ced6	-0.43907803
39	0x3ecd62fa	0.40114576
40	0xbda0dfc7	-0.07855182
41	0xbefbf57b	-0.49210724
42	0xbe50a32d	-0.20374747
43	0xbf042d1c	-0.5163133
44	0x3ea8011e	0.32813352
45	0xbde6bc7d	-0.1126642
46	0x3e845735	0.25847784
47	0x3e42c647	0.1902095
48	0xbea94533	-0.33060607
49	0xbebfe650	-0.37480402
50	0x3e7a0737	0.24416815
51	0x3e6b77f9	0.22994985
52	0xbe5150e9	-0.20441021
53	0xbf1551a2	-0.58327687
54	0x3e0b6605	0.13613136
55	0xbd4a4340	-0.04938054
56	0x3f1ec5d6	0.62020624
57	0xbf127e1a	-0.57223666
58	0xbf0bd76d	-0.5462559
59	0xbf08eece	-0.5348939
60	0x3e09bbf1	0.134506
61	0xbe4db4b7	-0.20088468
62	0xbeaeb2c1	-0.34120753
63	0x3e8107c5	0.2520124
64	0x3ef37ad4	0.47554648
65	0xbed395c1	-0.4132519
66	0xbb6f9b44	-0.0036561051
67	0xbedb326c	-0.42811906
68	0x3eb8cd77	0.36094257
69	0x3eff73c6	0.49893016
70	0x3ed541de	0.41651815
71	0xbebde628	-0.37089658
72	0x3ef07349	0.46962956
73	0xbd420d24	-0.047375813
74	0x3d18ebe0	0.037334323
75	0xbe356ae1	-0.17716552
76	0x3deb69c2	0.11494781
77	0x3e4faafb	0.20280068
78	0xbedfe7c2	-0.43731505
79	0xbe696dae	-0.22795746
80	0x3daffd98	0.08593291
81	0x3eaa50c9	0.3326476
82	0xbec9b527	-0.3939602
83	0x3df34d1c	0.11879942
84	0xbde860af	-0.11346566
85	0x3ee487a5	0.4463474
86	0x3f11c339	0.5693851
87	0xbe16f976	-0.147436
88	0xbe570b61	-0.21000434
89	0x3e072f8b	0.1320173
90	0x3efec0fa	0.49756604
91	0xbd6bf50f	-0.057606753
92	0xbe877791	-0.2645841
93	0xbea148d6	-0.31500882
94	0x3d7c0f8b	0.06153826
95	0x3ea4e304	0.3220445
96	0xbe0c3444	-0.13691813
97	0x3ee8ce96	0.45470113
98	0x3f162baf	0.58660406
99	0x3edfc9e5	0.4370872

weight f4 [100, 100]
0	0x3d9b212b	0.07574686
1	0x3e91ba82	0.28462607
2	0x3c7d85e3	0.015473816
3	0xbe5bb489	-0.21455587
4	0xbe172f31	-0.14764096
5	0xbe9ea75e	-0.30987066
6	0x3e63da0b	0.22251146
7	0x3f056e22	0.52121174
8	0x3de906de	0.11378263
9	0x3e4a3b44	0.1974917
10	0x3e88c685	0.26713958
11	0x3e3ba3df	0.1832423
12	0x3e8fb703	0.28069314
13	0x3dab564e	0.08366071
14	0x3e564da3	0.20928054
15	0x3dcee49b	0.10102197
16	0xbeae9a7b	-0.34102234
17	0xbe05e66e	-0.13076183
18	0x3e2ad9ad	0.16684599
19	0xbdc61025	-0.09671048
20	0x3eb4738e	0.3524441
21	0x3e38e64c	0.18056601
22	0x3d35f9a5	0.044427533
23	0x3e51013a	0.20410624
24	0xbc816edf	-0.015799938
25	0xbd8b74b7	-0.06809371
26	0xbec78847	-0.3897116
27	0xbdf38d9b	-0.118922435
28	0xbedc390d	-0.43012276
29	0x3cbdfea2	0.023192707
30	0x3ebb309d	0.36560526
31	0xbda2e1f3	-0.07953253
32	0xbdaad0e1	-0.08340622
33	0x3e4400e1	0.1914096
34	0x3e9739df	0.2953634
35	0x3e8da91d	0.27668086
36	0xbd5703bf	-0.052493807
37	0x3eef5c91	0.4675031
38	0x3e804b14	0.2505728
39	0xbe0d39ab	-0.1379153
40	0x3dbc1ff7	0.09185784
41	0x3e8e0c24	0.27743638
42	0xbce73107	-0.02822162
43	0x3e861bb2	0.26193005
44	0x3d2317d8	0.03981766
45	0x3e585aa0	0.2112832
46	0xbdaab8c4	-0.083360225
47	0x3cb8ec82	0.022573713
48	0x3d7bd9e8	0.06148711
49	0x3e5702e1	0.20997192
50	0x3d79eda6	0.061017655
51	0xbd8ff282	-0.070286766
52	0x3e15ebbf	0.14640711
53	0x3f0c1606	0.54721105
54	0xbd98b5ae	-0.07456528
55	0x3e1452ea	0.14484754
56	0xbee3545c	-0.444003
57	0x3f0b2ebc	0.54368186
58	0x3dd9de5e	0.10638116
59	0x3ec9a308	0.39382195
60	0xbc003b89	-0.007826694
61	0xbb468fe1	-0.003029816
62	0x3e776059	0.24157847
63	0xbe5527c2	-0.20815948
64	0xbd99d022	-0.07510401
65	0x3e116075	0.14196952
66	0x3deab3df	0.11460089
67	0xbdbf1351	-0.09329856
68	0xbea1496d	-0.31501332
69	0xbed03942	-0.40668684
70	0xbe9b2070	-0.30298185
71	0x3dd5d3ec	0.104408115
72	0xbe904fd7	-0.28185913
73	0x3ddd9ab7	0.10820525
74	0x3e55fac0	0.20896435
75	0x3d6d7f6f	0.05798286
76	0xbc175c05	-0.009238248
77	0xbe09bd2d	-0.13451071
78	0x3e985e1f	0.2975931
79	0xbbdeb613	-0.0067966073
80	0xbd8c8d84	-0.068629295
81	0xbe3e5d48	-0.18590271
82	0x3e11b6bc	0.14229864
83	0x3d812985	0.06306747
84	0x3e6f3ba2	0.23362592
85	0xbe51c83f	-0.20486544
86	0xbe4b1f82	-0.19836238
87	0x3d1beac8	0.0380657
88	0x3e14c687	0.14528857
89	0xbead4bb6	-0.33846825
90	0xbec044fa	-0.37552625
91	0x3eb1ef61	0.34752944
92	0x3dff7cb6	0.124749586
93	0x3e06464c	0.13112754
94	0xbc161020	-0.009159118
95	0xbddf2f62	-0.108977094
96	0x3de7bd73	0.113154314
97	0xbe698544	-0.22804743
98	0xbeb9a92f	-0.3626189
99	0xbe674e4a	-0.22588459
100	0xbbf4f99d	-0.0074760453
101	0xbcad49a4	-0.021153279
102	0x3e3952b4	0.18097955
103	0xbee39821	-0.44452003
104	0xbf4f215d	-0.80910283
105	0xbd6da9ea	-0.05802337
106	0x3e88c7ff	0.26715085
107	0x3dcfd5d3	0.101482056
108	0xbbd7e7f9	-0.0065889326
109	0x3e0db60e	0.1383898
110	0x3f0436e9	0.51646286
111	0x3f0d3d31	0.55171496
112	0xbd485f3f	-0.04891896
113	0xbe1be1e6	-0.15222892
114	0xbe87f724	-0.2655574
115	0x3e31d5c4	0.17366701
116	0xbf1056e9	-0.56382614
117	0x3e99dcd1	0.30051282
118	0xbdb6ada2	-0.089198366
119	0x3d848658	0.064709365
120	0xbbfed883	-0.007777275
121	0x3cac81c4	0.02105797
122	0x3e565476	0.20930657
123	0x3f2f5010	0.6848154
124	0xbceaa9dd	-0.02864545
125	0xbedf92a8	-0.43666577
126	0xbf038411	-0.5137339
127	0xbeed2865	-0.4631988
128	0x3d16ff56	0.0368646
129	0xbdd2c8e6	-0.102922246
130	0x3f1c61d7	0.6108679
131	0xbe838d40	-0.25693703
132	0xbcf524c7	-0.029924763
133	0x3e18f4a2	0.1493707
134	0x3eddd34b	0.43325266
135	0x3ecf2ce3	0.40463933
136	0x3dd329ff	0.103107445
137	0x3e6e91e1	0.23297836
138	0x3ef0d906	0.47040576
139	0xbe020504	-0.12697226
140	0x3e4c3161	0.19940712
141	0x3e50997a	0.20371047
142	0x3e9d7df5	0.3076016
143	0x3ef75905	0.48310104
144	0xbe4cdead	-0.20006819
145	0x3e27ef82	0.16399959
146	0x3dcbf453	0.099587105
147	0xbdaae4a5	-0.08344392
148	0x3eb54a46	0.3540823
149	0x3e1064a6	0.14100894
150	0xbe69801b	-0.22802775
151	0xbc83971c	-0.016063266
152	0x3de3fab5	0.11131803
153	0x3e1d1332	0.15339354
154	0xbd647eca	-0.055784978
155	0xbf2a0ec3	-0.66428775
156	0xbe3183ea	-0.17335477
157	0x3e20bcae	0.15696976
158	0x3e1bc06b	0.1521012
159	0x3e7344fa	0.23756781
160	0xbd049995	-0.03237303
161	0x3e586fa7	0.21136342
162	0x3ddbf5cd	0.10740242
163	0xbe3bafe4	-0.18328816
164	0xbef984a2	-0.48734003
165	0x3dd0607c	0.10174653
166	0xbd6a8911	-0.057259623
167	0x3f3287de	0.69738567
168	0xbc10eed4	-0.008846004
169	0xbf1aa1ff	-0.60403436
170	0xbd686f5f	-0.056746837
171	0x3f288d32	0.65840447
172	0xbec817ee	-0.39080757
173	0xbe8ea98f	-0.27863738
174	0xbe25f18c	-0.16205424
175	0x3cfa7548	0.030573502
176	0xbe4929c0	-0.19644833
177	0xbddb7dd5	-0.1071736
178	0x3f215d21	0.6303273
179	0x3f068e57	0.52560943
180	0xbd987f29	-0.07446129
181	0x3d2f8926	0.042855404
182	0x3e60f824	0.21969658
183	0xbdf709cd	-0.12062416
184	0xbdf44102	-0.11926462
185	0xbe81558c	-0.2526058
186	0xbf09158e	-0.53548515
187	0x3c8dbb97	0.017301364
188	0x3ed37dea	0.41307002
189	0x3d11df87	0.035613563
190	0xbcfe575d	-0.031047517
191	0xbd43b1b0	-0.047776878
192	0xbd08afae	-0.033370666
193	0x3de23224	0.1104472
194	0x38a396d0	7.800537e-05
195	0xbe6377d0	-0.22213674
196	0xbd92364a	-0.07139261
197	0xbc8abb0c	-0.016934894
198	0xbddb61d4	-0.107120186
199	0xbe0aaf8e	-0.13543531
200	0xbd7ee4a2	-0.06222976
201	0x3e3b5547	0.1829425
202	0x3e219d01	0.15782548
203	0xbedf63de	-0.4363088
204	0xbf247800	-0.64245605
205	0xbe8486bf	-0.25884053
206	0x3e84333c	0.2582034
207	0x3c67a35a	0.014138067
208	0x3db7a544	0.08967069
209	0x3e071c5d	0.13194413
210	0x3ee3061f	0.44340608
211	0x3ea7b6a5	0.32756534
212	0x3dded028	0.108795464
213	0xbe21eca6	-0.1581293
214	0xbda64463	-0.081185125
215	0x3e04594e	0.12924692
216	0xbea334c5	-0.31876197
217	0x3e8d0fda	0.27551156
218	0xbe806bc9	-0.25082234
219	0x3df9a1f1	0.12189091
220	0x3e384d97	0.17998348
221	0x3dbb2887	0.09138589
222	0x3ceb5239	0.02872573
223	0x3f0d0e55	0.55099994
224	0x3a77dda7	0.0009455331
225	0xbe13651b	-0.14394037
226	0xbe767a9c	-0.2407021
227	0xbed5ef90	-0.41784334
228	0xbdd0049c	-0.10157129
229	0xbe2a6670	-0.1664064
230	0x3ef6308f	0.48083922
231	0xbe1bfab0	-0.15232348
232	0xbde6809a	-0.112549976
233	0x3e4423fb	0.1915435
234	0x3eb8b4c6	0.3607542
235	0x3debc123	0.11511447
236	0x3e22a838	0.15884483
237	0x3e4fdc6c	0.20298928
238	0x3ec07c3c	0.37594783
239	0xbdf669a9	-0.12031872
240	0xbba451dd	-0.0050146417
241	0x3d9aa64a	0.07551248
242	0x3e870066	0.2636749
243	0x3e880545	0.2656652
244	0xbe4a6074	-0.19763356
245	0x3db1da37	0.08684199
246	0x3cfe18ba	0.03101765
247	0x3cc28a5a	0.023747612
248	0x3e65142b	0.22370975
249	0x3d56b536	0.05241891
250	0xbea8765b	-0.32902798
251	0xbdb5878b	-0.088637434
252	0x3e4f9c9e	0.20274588
253	0x3e8fb52c	0.2806791
254	0x3c0a0d80	0.00842607
255	0xbf441a2d	-0.7660244

bias f4 [100]
0	0xbf051da8	-0.51998377
1	0xbea50d4c	-0.32236707
2	0xbec30617	-0.38090584
3	0xbbe2ab54	-0.0069173966
4	0xbeaf4cf2	-0.34238392
5	0xbc898ab9	-0.01678978
6	0x3c39f476	0.011349788
7	0xbf2e012e	-0.6797055
8	0x3efca74c	0.49346387
9	0xbcf657b8	-0.030071124
10	0xbeda7047	-0.42663786
11	0x3ee06672	0.4382816
12	0x3ec18ab9	0.3780115
13	0xbee9d394	-0.45669234
14	0xbefd4584	-0.494671
15	0xbf0bdeb0	-0.5463667
16	0x3e789b7a	0.2427806
17	0x3c5e70ee	0.013576729
18	0x3ec894bf	0.39175984
19	0x3dfaef7a	0.12252708
20	0x3e3e5ec9	0.18590845
21	0xbd0cc6dc	-0.034369335
22	0xbe8d6464	-0.27615654
23	0xbe0467d6	-0.12930235
24	0x3d9df5ba	0.07712884
25	0x3f0f06ba	0.5586964
26	0x3e8f9948	0.28046632
27	0x3b2d8a86	0.0026480271
28	0x3d3eb484	0.046558872
29	0xbe6ee141	-0.23328115
30	0x3ed4a4e1	0.41532043
31	0xbd93bc1d	-0.07213614
32	0x3f280aae	0.65641296
33	0xbd3df946	-0.046380304
34	0x3ed82ceb	0.4222177
35	0xbe830216	-0.2558753
36	0x3d73b16f	0.059495386
37	0x3d1753b7	0.03694507
38	0x3ec324f1	0.38114122
39	0xbed5b522	-0.41739756
40	0x3e6e9e04	0.23302466
41	0x3f1fc524	0.6241019
42	0xbc2c84f3	-0.010529744
43	0xbd901b53	-0.07036462
44	0x3eb14ce3	0.34628972
45	0xbd8d214e	-0.06891118
46	0xbf0c419e	-0.54787624
47	0xbf13b77c	-0.5770185
48	0xbc752f61	-0.014964909
49	0x3e84fc25	0.2597362
50	0x3c818b3c	0.015813462
51	0xbeb77126	-0.35828513
52	0x3ec10a20	0.37703037
53	0x3ec7ab35	0.38997808
54	0x3efa9d89	0.48948315
55	0x3e76154f	0.24031566
56	0x3d032d8d	0.032025862
57	0x3eabe97a	0.33576566
58	0xbd334c96	-0.04377421
59	0xbe155319	-0.1458248
60	0xbd9df7e2	-0.077132955
61	0x3ed8dc63	0.42355642
62	0xbea5aabb	-0.3235682
63	0x3e11465a	0.14186993
64	0x3e399ead	0.18126936
65	0xbe3a52c7	-0.1819564
66	0x3f094c29	0.53631836
67	0xbeaf38d8	-0.34223056
68	0xbe864b3a	-0.26229268
69	0xbd9270eb	-0.07150444
70	0x3e1a2524	0.1505323
71	0x3d362991	0.044473235
72	0x3ece6008	0.4030764
73	0x3ed2f93c	0.41205776
74	0xbdb7c309	-0.08972747
75	0x3d801e4b	0.06255778
76	0x3ecff100	0.40613556
77	0xbebe2c53	-0.37143192
78	0x3edccdec	0.43125856
79	0xbe9905c4	-0.2988721
80	0xbf01765d	-0.50571233
81	0x3ed4a922	0.41535288
82	0x3cf258b7	0.029583318
83	0x3e95cab6	0.2925622
84	0x3e9cae48	0.30601716
85	0xbedf99f5	-0.43672147
86	0xbec4a97c	-0.38410556
87	0x3e568acd	0.20951386
88	0x3d82c878	0.06385893
89	0x3ec8bc34	0.39206088
90	0x3d9d253e	0.07673119
91	0xbdfafefa	-0.12255664
92	0xbe558dfc	-0.20854944
93	0x3ea5e20c	0.32399023
94	0xbf0879ca	-0.53310835
95	0xbecad669	-0.39616707
96	0xbe464d1f	-0.19365357
97	0xbcd633f8	-0.026147828
98	0xbf19a9e4	-0.6002486
99	0x3cbe2dde	0.02321523

weight f4 [1, 100]
0	0xbebd8498	-0.37015224
1	0x3ea2252c	0.31668985
2	0x3e94d945	0.29072013
3	0xbe57e6da	-0.21084157
4	0xbea83676	-0.3285405
5	0xbe331506	-0.17488489
6	0x3e209201	0.15680696
7	0xbebc3875	-0.36761823
8	0x3e97531b	0.29555592
9	0xbe5b245c	-0.21400589
10	0x3ea1832f	0.31545398
11	0x3e992057	0.29907486
12	0xbe9e18e8	-0.30878377
13	0x3eb27465	0.34854427
14	0xbecd2522	-0.40067393
15	0x3ea9f174	0.33192027
16	0x3ebaa3a1	0.36452964
17	0xbe5e4cf0	-0.21709037
18	0x3ec0b901	0.37641147
19	0xbe5f7b67	-0.21824418
20	0xbeae7308	-0.34072137
21	0xbe3ab8ea	-0.18234602
22	0x3ed9629e	0.4245805
23	0x3ea8bc26	0.32956046
24	0xbe4f9dcf	-0.20275043
25	0x3ea8fb06	0.33004016
26	0xbeceb52a	-0.40372592
27	0x3e7d9ae5	0.24766119
28	0x3e9c2273	0.30495033
29	0xbec2e4ad	-0.3806509
30	0xbeaf4a0b	-0.34236178
31	0x3e355308	0.17707455
32	0x3ea28ef6	0.31749696
33	0x3e4a2797	0.19741665
34	0x3ea67a07	0.32514974
35	0x3eca23bf	0.39480397
36	0xbe177a62	-0.14792779
37	0x3e92ad43	0.28647813
38	0x3e9d3d6c	0.30710924
39	0x3ea5be8a	0.32371932
40	0xbeba2858	-0.36358905
41	0x3eaa0493	0.33206615
42	0xbe44e214	-0.19226867
43	0xbe8308b0	-0.25592566
44	0x3ec7ef76	0.39049882
45	0x3e24173b	0.16024487
46	0xbe9fb1e2	-0.311904
47	0xbebbbcf4	-0.36667597
48	0x3e19b9f1	0.15012337
49	0xbeb469f2	-0.3523708
50	0xbe4b72cc	-0.1986801
51	0x3ea81f92	0.32836586
52	0x3ebba439	0.3664873
53	0xbe8fad4c	-0.28061903
54	0x3e86369d	0.26213542
55	0xbeb89640	-0.36052132
56	0xbe885218	-0.26625133
57	0xbecffc9a	-0.40622407
58	0xbe2c84d7	-0.1684755
59	0x3e6bede2	0.23039964
60	0x3dd5eb41	0.10445262
61	0xbebe0c11	-0.3711858
62	0x3ebd1d13	0.36936244
63	0x3eabd1b8	0.3355844
64	0x3e95e7fe	0.29278558
65	0xbea76200	-0.32691956
66	0xbeb1d210	-0.34730577
67	0x3ecc0401	0.39846805
68	0x3e989a83	0.29805383
69	0xbe9ecea0	-0.31017017
70	0x3e97901a	0.29602128
71	0x3e784dc3	0.24248414
72	0xbea8ba60	-0.32954693
73	0xbe8e23c9	-0.27761677
74	0xbe92d568	-0.2867844
75	0x3e53eacf	0.20695041
76	0xbec95d6f	-0.39329097
77	0x3ea653fc	0.3248595
78	0xbe9b4abb	-0.30330452
79	0xbeb2baed	-0.34908238
80	0xbecc6810	-0.39923143
81	0xbe9d7ac0	-0.30757713
82	0xbe866cf7	-0.2625501
83	0xbeaa8ac0	-0.33308983
84	0x3eb1ebc4	0.34750187
85	0xbea6c5c5	-0.3257276
86	0x3ea54713	0.32280788
87	0xbe8af125	-0.27137104
88	0x3e40a961	0.18814613
89	0xbeaa421a	-0.33253556
90	0x3e89ee4d	0.26939622
91	0x3e713c2b	0.23558109
92	0x3e9bcd9c	0.30430305
93	0xbe873483	-0.2640725
94	0xbea8baca	-0.3295501
95	0xbeb1cb11	-0.3472524
96	0xbea28b0a	-0.31746703
97	0xbe517c55	-0.20457585
98	0xbeafe09e	-0.34351057
99	0xbe21705c	-0.15765518
