unitree_rl_gym/logs/actuator_net_v2.pt (torch, 58119 bytes, 7 tensors)

weight f4 [128, 3]
000000 3e 1b 57 be d2 92 98 bd 3a 58 e2 bd 60 bd 05 bf
       -0.21006486 -0.07449879 -0.11051984 -0.5224209
000010 52 93 29 bc e4 00 f5 bb 19 33 89 bd 19 fb 7c be
       -0.010350065 -0.007476913 -0.06699199 -0.24705161
000020 13 bd 1b 3d 46 e9 9d 3f de f3 f9 bc 6c 17 3f bd
       0.038022112 1.2336814 -0.030511793 -0.046653196
000030 72 7c d4 be 68 9e b4 bb 55 13 70 be 26 41 0f bf
       -0.41501194 -0.0055120476 -0.23444875 -0.55958784
000040 b8 c2 e6 3a 0a ae 99 bd 4c 8d 86 be f9 79 73 be
       0.0017605638 -0.075038984 -0.26279676 -0.23776998
000050 45 51 2b be 97 73 04 3f e3 6a 86 3c 34 e4 a8 3e
       -0.1673022 0.51738876 0.01640839 0.32986605
000060 19 37 d0 3b 81 32 b8 bd 73 25 1f bf 05 f9 56 bf
       0.0063542244 -0.08994008 -0.6216652 -0.83973724
000070 57 d5 83 3c e6 e3 4b be 79 65 44 3f a1 1c 01 bd
       0.01609294 -0.19911155 0.76717335 -0.031521443
000080 ed 47 0c bf 7f b6 04 bd 4d 1c 39 be 07 02 7b bc
       -0.5479725 -0.032400604 -0.18077202 -0.015320308
000090 9a d4 12 3f 10 4a 15 bd 79 e5 9f be 2a 79 0e bf
       0.57355654 -0.036447585 -0.3122976 -0.5565363
0000a0 63 5f 40 3a 8a 90 06 3e 45 d3 82 3f a4 68 09 bd
       0.00073384325 0.13141075 1.0220724 -0.03354706
0000b0 f5 10 08 bf 32 ff 87 3e c1 6e 82 3e 8c 9f 20 be
       -0.53150874 0.26561886 0.25475124 -0.15685862
0000c0 fd 7f d3 bd 46 dd f9 3e 11 ed 26 3e ab ee ab 3e
       -0.10327146 0.4880163 0.16301371 0.33580527
0000d0 41 d6 2a be b6 ea 97 bf ea 1e b7 bc 95 43 e7 3d
       -0.16683294 -1.1868503 -0.022353608 0.11292187
0000e0 aa c6 ea 3b 2d 54 4e 3e 70 53 4f be 72 31 ba 3d
       0.007164796 0.20149298 -0.20246673 0.09091462
0000f0 19 53 f8 be bd 6c 07 bc 13 1f 51 3e 84 35 09 be
       -0.48500898 -0.008265671 0.2042201 -0.13399321
000100 cd 06 c5 3e 20 0f a7 3d 51 eb 45 be 0b 84 cd 3e
       0.3848175 0.08157182 -0.19328047 0.40139803
000110 74 cd dd ba fa 6d 92 be fa 89 f1 bb df 4e 60 3e
       -0.0016922192 -0.2859953 -0.0073711844 0.21905087
000120 fb 74 a8 bd b3 0e 9d 3d aa 1c 80 bf 68 ab 9c be
       -0.08225437 0.07668819 -1.0008748 -0.30599523
000130 83 f2 87 3d 3d e8 92 bc bc 07 74 bf b6 7c b0 3c
       0.06638052 -0.017933005 -0.953243 0.021543842
000140 f7 f6 91 bd ba 9f 98 3e 69 14 94 be 53 36 fe be
       -0.07127183 0.29809362 -0.28921822 -0.4965082
000150 52 d2 94 be ef fa 28 3e ad bf 2e bf c9 8b d8 3e
       -0.29066712 0.16501974 -0.68261224 0.42294148
000160 3a cc 56 3e 0d 78 86 bd 3c 1b 44 3f af 24 a1 bc
       0.20976344 -0.065658666 0.76604056 -0.019670812
000170 1e 2b cb be fd 12 8b 3f f1 82 ba bc 0e 6e 45 bf
       -0.39681333 1.086517 -0.022767516 -0.77121055
000180 61 ef 8c be 50 51 ee bb 7a 6d 70 3e 1a 58 41 bd
       -0.27526382 -0.007272877 0.23479262 -0.04720316
000190 64 f4 bc bb 8a 3f 8c bf ef ef 10 bf eb 86 81 bb
       -0.0057664383 -1.095689 -0.5661611 -0.003952851
0001a0 1b 29 47 be 7f 13 4a 3e 9f 26 34 be 09 e2 0f 3c
       -0.19449274 0.19734 -0.17592858 0.008781918
0001b0 86 09 32 bf 2a be ef 3a df 55 81 3e aa 99 26 bf
       -0.6954578 0.0018290926 0.25260827 -0.6507822
0001c0 82 04 db 3d 3f cb d9 bd c3 ba 52 3f bf 4c 7a 3c
       0.10694219 -0.10634469 0.82316226 0.015277087
0001d0 50 d5 58 be 2c b2 36 bf 83 df 0a 3c 47 30 95 be
       -0.21175122 -0.7136562 0.008476141 -0.29138395
0001e0 69 49 13 3f 47 50 bf 3c 62 f9 c9 3e cf b8 30 3e
       0.5753389 0.023353709 0.39448076 0.17257999
0001f0 df 76 0a bd 0e 25 98 3e ca 1f e1 3e 71 3b cd bd
       -0.03380477 0.2971577 0.43969566 -0.10021103
000200 2f 4d 7b be 94 f1 8c 3f 8b b4 d9 bc 71 6e f0 3d
       -0.24541162 1.1011224 -0.026575347 0.11739815
000210 c7 b0 7a bd 98 53 94 3c 34 ad d6 3d a4 6e f6 3b
       -0.061203744 0.018106267 0.104822546 0.0075205136
000220 d9 17 df 3d 26 c4 29 3d ff 2f f7 be 61 e0 8f 3e
       0.108932205 0.041446827 -0.48278806 0.28100875
000230 f9 2a 58 3e a8 ac 6d 3e 25 2f 6e 3e 67 9c 1d be
       0.21110143 0.23210394 0.23260172 -0.15391694
000240 d3 25 69 bf 93 5b b6 3c 9e 13 7f be 99 57 c7 be
       -0.9107334 0.022260463 -0.24909827 -0.3893402
000250 89 8e 0b be f8 21 56 3e 54 22 69 3f b6 1a 0d bc
       -0.13628592 0.20911396 0.91068006 -0.008612325
000260 d8 e5 8e be a0 00 65 3e 50 30 ca 3b a0 42 a9 3e
       -0.27909732 0.2236352 0.00617031 0.33058643
000270 f1 34 2b be 3a 31 a1 be 68 11 01 be 01 90 26 be
       -0.16719414 -0.3148287 -0.12604296 -0.1626587
000280 98 61 d6 3e 93 17 71 3d 2e 87 6c bc 8a d0 33 bf
       0.41871333 0.058860373 -0.014436526 -0.7024008
000290 25 8c 3b bd 90 16 08 bf 31 38 ca bd b5 39 95 3e
       -0.04578795 -0.5315943 -0.09873999 0.2914559
0002a0 f7 71 fd 3e b8 e4 69 3c 47 3e 95 3d 74 0f 9e be
       0.4950101 0.014275722 0.07287269 -0.30871165
0002b0 38 24 69 3d 1f e4 0a bf 70 83 13 bf 69 1c 35 3c
       0.056919307 -0.54254335 -0.5762243 0.011054137
0002c0 01 5e 02 be 8a fe f4 3e 7e 31 94 3a b9 f4 32 bd
       -0.12731172 0.47850448 0.0011306254 -0.043690417
0002d0 4e 61 39 bf 44 9f 95 3b 8f 5e b3 be 00 4d 2a bf
       -0.724141 0.004566105 -0.3503308 -0.6652374
0002e0 61 a2 83 3c 79 c5 12 be f7 31 53 3f e2 0e a3 bc
       0.01606864 -0.14333142 0.82498115 -0.019904558
0002f0 1a d1 0c bf 64 f0 c5 3b a6 b8 95 be c3 c7 5c bf
       -0.55006564 0.0060406197 -0.29242438 -0.8624231
000300 31 14 46 bb d7 4e 73 3e a1 75 8f 3d 0a 88 75 3f
       -0.0030224437 0.23760544 0.07004858 0.95910704
000310 d0 b5 ed bc 87 3a b7 be ed f8 9c be d5 19 71 3d
       -0.029017359 -0.3578684 -0.30658665 0.058862526
000320 6b 24 e3 be 2d 20 f7 be dc c8 24 bc 8c 39 3e 3d
       -0.44363722 -0.48266736 -0.010057654 0.0464416
000330 29 a2 39 3f 63 bd fe 3b 33 3f 2b be 37 2e 45 3f
       0.7251306 0.0077740415 -0.16723327 0.77023643
000340 8b b8 24 bd ab d7 6d be 9d 14 bc be a4 70 8f 3e
       -0.040215056 -0.23226802 -0.36734477 0.28015625
000350 52 57 96 3d 67 21 18 bf 37 85 52 3c d3 8d 5f bd
       0.07340874 -0.5942597 0.012849144 -0.054578613
000360 c6 df 19 3f de 84 fc 3b 4e 4b 43 bd da 1a f8 bb
       0.60107076 0.0077062687 -0.047679238 -0.0075715603
000370 4f 8e 84 3e 7e f1 c7 3d 52 ec 9d bd a2 54 b9 bc
       0.25889823 0.09762858 -0.0771109 -0.022623364
000380 19 d1 c1 be 62 b8 1f bf 4c 2d 09 3c 26 e9 97 3e
       -0.3785484 -0.6239072 0.008372616 0.29670066
000390 36 8f 26 bf 93 3b e3 3a d2 41 51 be e4 65 56 3e
       -0.6506227 0.001733648 -0.20435265 0.20937306
0003a0 8f 63 c6 bd e8 db c1 3d 3c 5f 84 3f e4 dc 07 bd
       -0.09686958 0.09465772 1.0341563 -0.033169642
0003b0 27 16 83 be be c8 77 be 5e 55 02 3d 96 8b dc be
       -0.25602838 -0.24197671 0.031819694 -0.43075246
0003c0 52 7f 35 3e 10 30 f1 bd 91 f1 90 3e 85 44 16 bf
       0.1772435 -0.11776745 0.283093 -0.586983
0003d0 b1 d1 2f 3c df 4b 2a 3d ad 8d 28 bf d1 eb b1 3c
       0.010731147 0.041576263 -0.6584118 0.021718891
0003e0 1d 9b 94 be 8f 97 fa be ef 6b 42 3c 09 6d a5 be
       -0.29024592 -0.48943755 0.011866554 -0.3230975
0003f0 cf a5 0b bf ef 46 f7 3d 6f 73 de bd 45 d7 30 3e
       -0.5454988 0.120740764 -0.10861861 0.17269619

bias f4 [128]
000000 33 74 e8 3d c9 e3 0c bf c0 65 e6 3c 0a d7 d9 bc
       0.11350288 -0.5503507 0.02812469 -0.026591796
000010 ab c1 c7 bf db 0f a3 3d 77 b3 45 bc ba 78 0d 3e
       -1.5605978 0.079620086 -0.0120667135 0.13815585
000020 c6 cb d8 bb 8a bc 9b 3b 03 41 58 3d d9 04 a0 3d
       -0.0066160886 0.0047527 0.052796375 0.078134246
000030 6c 64 6a 3d ad 3d 37 3e f8 9b 1f 3d 44 03 26 bf
       0.057224676 0.17894621 0.038967103 -0.6484873
000040 3f dd 31 bf e1 39 c7 bd 5b f8 46 3d bd 0c 0a c0
       -0.6947822 -0.097278364 0.048576694 -2.1570275
000050 34 82 e0 3d 31 cc 23 c0 10 2d 2d c0 29 14 d8 3d
       0.10962334 -2.5593379 -2.7058754 0.1055072
000060 d4 b8 8b bc 68 bf 8f be d5 03 6e 3c 3f ce 49 bf
       -0.017055906 -0.2807572 0.014527281 -0.7883033
000070 e7 5e a5 bf 7a 9e 20 bf a3 66 7c 3d e1 fb e9 3b
       -1.2919587 -0.62741816 0.06162132 0.007140622
000080 7b 25 c8 3d 26 0f 4f bc 5e 1e 4b 3d dd d9 ce bf
       0.09772774 -0.012637889 0.049589507 -1.6160237
000090 26 0d 96 3d f7 f2 26 bf a0 8f 30 3d 8b 22 b6 3d
       0.073267266 -0.65214485 0.04310572 0.08893307
0000a0 6e 41 72 3d 39 51 8b be eb df 84 bf 15 3d 2d bd
       0.05914443 -0.27210405 -1.0380834 -0.04229458
0000b0 4f 53 ed 3c 67 1d 3c 3d 11 e1 e6 bf b8 e4 e4 bd
       0.028970389 0.045926478 -1.8037435 -0.11176437
0000c0 fd 35 9f bb e4 d4 df be 6d ce e1 3d 13 6a a0 3d
       -0.004858731 -0.4371711 0.11025701 0.07832732
0000d0 0d 80 31 c0 45 45 d0 bf ff 05 37 bf ad bb df be
       -2.7734406 -1.6271139 -0.71493524 -0.43697873
0000e0 b9 18 f6 3d 71 12 48 3d 6b f6 b1 3d d4 49 bb 3d
       0.12016434 0.048845712 0.086895786 0.09144941
0000f0 06 e9 99 3d 4f 93 44 3c d4 b6 a8 3c 23 fa f1 be
       0.07515149 0.011998012 0.020594992 -0.47261152
000100 06 b8 9e 3b d8 4b d1 3c 4f 56 07 3d 20 f0 bd 3d
       0.0048437146 0.02554886 0.033041295 0.09274316
000110 13 b2 d6 3d 35 54 a1 3d 99 67 cd bf 62 47 63 3d
       0.10483184 0.07877389 -1.604724 0.055487998
000120 7e 63 7b 3d aa 5f 51 bd 21 72 b2 3c b2 dc b1 3d
       0.06137418 -0.051116623 0.021782937 0.086846724
000130 9e 10 e3 3d bc e5 85 bf 4d 53 18 3c 6d 54 0a c0
       0.11087154 -1.0460734 0.009297204 -2.161403
000140 7d fb 66 bf 5b 46 1b 3e cb 8b 43 3d 33 e7 9c 3d
       -0.9022749 0.15163557 0.04774074 0.07661285
000150 06 b4 03 bf c8 1c e8 bf e5 55 bf 3d 2c b8 0c 3e
       -0.5144657 -1.8133783 0.09342555 0.13742131
000160 ac 61 bb bc c9 51 dd 3d 01 f9 0d c0 eb 33 7a bf
       -0.022873722 0.10806615 -2.218323 -0.9773547
000170 a2 53 43 bf d5 d0 e0 bf 3e 78 67 3d 83 c0 e4 3d
       -0.7629949 -1.756373 0.056511156 0.11169531
000180 cc 29 98 be b9 d6 11 3e 79 21 bc 3d fe 00 c4 bf
       -0.29719388 0.14242066 0.09186072 -1.5312803
000190 7d 77 3d bf 28 05 ac 3b cb d3 70 bf 6a 5f 32 bc
       -0.7401045 0.005249638 -0.9407317 -0.010887006
0001a0 3d 97 07 3e 66 5e 57 3d 28 71 26 3e c3 9e ee 3d
       0.13241287 0.05258026 0.16254103 0.11651375
0001b0 36 b7 c5 3d 0a be 07 3e df 4b 92 3d 0a fd d5 bf
       0.09654085 0.13256088 0.071433775 -1.6717846
0001c0 7a 56 41 3d 4b 03 d4 bf c3 f0 93 3d 5d 2f 1e 3d
       0.04720161 -1.6563505 0.07223656 0.038619388
0001d0 0f 8f cf be 76 55 12 c0 64 a9 6b bf ed ad 8f bf
       -0.40538833 -2.2864661 -0.92055345 -1.1224953
0001e0 be d9 de be 94 55 3a bf 75 d2 9d 3d 85 b3 4a 3d
       -0.435255 -0.7278683 0.07706157 0.04948761
0001f0 b6 02 b1 3d 53 19 16 3e 3d 65 46 3d ac 0e cf 3d
       0.08643095 0.14658098 0.048436392 0.1011022

weight f4 [64, 128]
000000 cf 7f 5b 3d da 2f 1e bc 13 1b 11 3d 46 fb db bf
       0.053588685 -0.009654963 0.03542621 -1.7186058
000010 94 b5 bc bd 4a 7a 4c 3c 2d 26 2e bc 09 a1 c1 bb
       -0.09214321 0.012480328 -0.010629219 -0.0059090895
000020 8a f0 8a 3d 74 49 33 3e a8 47 70 bd 7f 08 04 3d
       0.067841604 0.17508489 -0.058662087 0.032234665
000030 88 2a 27 bd da 83 0d bd 2e e9 13 be ec fe 6a 3e
       -0.040812045 -0.03454957 -0.1444442 0.22948807
000040 e5 0c dd bb c8 42 dd bd 5d 32 88 3c d1 37 4f 3d
       -0.006745922 -0.10803753 0.016625578 0.05059034
000050 b5 3e 6e 3d a7 a2 c9 be 34 a3 91 be d6 16 79 3d
       0.05816527 -0.39381906 -0.28444827 0.060812794
000060 9e 0f 59 3c f2 f8 24 3d fa 01 47 3d 6f 7d b0 bd
       0.013248352 0.040276475 0.04858587 -0.086176746
000070 17 8d 1c bd 3e 61 ab 3d e5 8c 60 bd 99 94 9a be
       -0.03822049 0.08368157 -0.054821867 -0.30191496
000080 bb b6 56 3d d5 65 aa 3d 93 e3 ea bd fc e3 7a 3c
       0.05242036 0.08320204 -0.114691876 0.015313145
000090 58 04 a8 3c fd 3f 6e bc 8e d2 98 bd b7 35 6e 3d
       0.020509884 -0.014541623 -0.07462035 0.058156695
0000a0 1f 42 09 bd b6 10 f8 3b 31 44 19 be 7c 3d 94 bf
       -0.033510324 0.0075703515 -0.14967419 -1.1581264
0000b0 a6 d5 07 3d b7 71 9c 3c 0e ef 5d bd a6 73 e1 bc
       0.033162735 0.019097192 -0.05418306 -0.027520966
0000c0 f2 8d d2 3d aa f7 b0 bd 3a 8d 65 bc 66 d8 a6 bc
       0.1028098 -0.08640988 -0.014010722 -0.020366859
0000d0 c0 09 0c bf 8f 27 b3 be cc f0 86 3c ba 18 87 bd
       -0.5470238 -0.34991118 0.016472243 -0.06596513
0000e0 4d 4e 40 bc 6f 33 b8 3b 03 a8 81 3d 38 cc 0a bc
       -0.011737418 0.0056213657 0.06330874 -0.008471541
0000f0 48 34 32 3d be 77 30 3e 3f 88 5a be 16 eb 94 bb
       0.04350689 0.17233178 -0.21341036 -0.004544626
000100 ec ed 79 bc b8 ad 38 be 3a 97 be bc 95 98 0c 3d
       -0.015254479 -0.18035018 -0.02326547 0.0343252
000110 ca 00 bc bc 7f 43 d4 bc 9a b7 ec bd d3 2c 47 bd
       -0.022949595 -0.02591109 -0.11558457 -0.048626732
000120 97 3f 42 bd 3a df 2c 3c 8c 81 9f 3d 3f a7 d9 bd
       -0.047423925 0.010551268 0.07788381 -0.10627603
000130 59 1c 96 bc 39 f5 04 be 45 92 c6 be d5 38 0e be
       -0.018324064 -0.1298417 -0.3878347 -0.13888867
000140 61 4c 4a 3d 20 4a 8c 3c a1 16 89 bc e3 3e 3d 3d
       0.049389247 0.01712519 -0.016734423 0.04620255
000150 a5 c5 80 bd 81 5c dd bd 2b 13 7a bd d2 fa 53 3d
       -0.06287698 -0.10808659 -0.061053436 0.051752873
000160 4d b0 e1 bf 1a b6 f7 bc 06 28 08 bd 35 79 01 be
       -1.7631928 -0.0302382 -0.033241294 -0.12643893
000170 05 af 81 be 9d d0 82 be bc 0d 92 bd ca 1f 76 bc
       -0.25328842 -0.25549784 -0.07131526 -0.015022228
000180 46 69 30 bd f6 c8 f8 3c 96 7d ab 3c bd e4 b4 bd
       -0.043069147 0.030369263 0.020933907 -0.08832691
000190 58 2b c0 bc ed ea ef 3d 5e 52 08 3c 68 cd 5f be
       -0.023458168 0.117147304 0.008320419 -0.218557
0001a0 1c 94 9a bc c6 78 e2 bd 1c ab 5d bd 4e c1 e8 3b
       -0.018869452 -0.11058192 -0.05411826 0.007103122
0001b0 13 47 9e 3a bc fa 21 bc f5 04 85 bd b3 56 6a bc
       0.0012075625 -0.00988644 -0.06495086 -0.014302897
0001c0 d1 c0 f4 bd 5f c0 e8 bd 46 db 6a bd 0b f5 e5 ba
       -0.11950839 -0.11364817 -0.05733802 -0.0017544342
0001d0 a9 a0 d2 bd eb af bd be 18 32 c0 bd 36 98 cf 3d
       -0.1028455 -0.37048277 -0.093845546 0.10136454
0001e0 26 f7 a0 3b 40 8c 42 bd 2b e7 96 bd a0 1f 6e bd
       0.004912275 -0.047497034 -0.073683105 -0.05813563
0001f0 d8 40 f3 bc d5 79 33 3d a1 a7 a6 bd 7e 3e f1 bc
       -0.029694006 0.04381736 -0.081374414 -0.029448744
000200 96 ea 65 be 00 c3 3a bd 2c 5b 09 bf 17 f7 7c bd
       -0.22452769 -0.045596123 -0.5365474 -0.06175908
000210 96 c5 25 bd 8d 50 1a 3d dc c6 13 be fe 26 84 ba
       -0.040471636 0.037674475 -0.14431328 -0.0010082421
000220 05 87 a4 3d 24 6c bf 3d fe 81 f0 3c 60 ce 09 bf
       0.080335654 0.09346798 0.02935886 -0.5383053
000230 c4 3b 8d 3d c4 48 aa 3d 03 c3 14 3d 51 4f 9e be
       0.06896165 0.0831466 0.03631879 -0.3091989
000240 ed 22 1b 3c 5d 2e 62 3e 0e 84 e2 be c7 08 d7 bd
       0.009468776 0.22087999 -0.44241375 -0.10499721
000250 0d f0 bd 3b cf 41 ad 3e e3 69 74 3e 59 c2 86 3c
       0.0057964385 0.3383927 0.23868518 0.016450094
000260 85 33 82 bd 18 c4 59 bd 64 31 21 bd e0 43 8c 3e
       -0.06357483 -0.053165525 -0.039353743 0.27395535
000270 6b 61 86 3b 9b 29 45 be 2d 8b fc bd 6e 0f 2b 3d
       0.0041009686 -0.19254152 -0.12331233 0.04176276
000280 fb d9 2a bd ab 70 d9 bd 76 46 12 3d 7c 03 a6 3d
       -0.04171179 -0.10617193 0.035711728 0.08106133
000290 11 47 d5 3c 48 96 f8 bd 22 1b 64 be 7e 37 98 3c
       0.026034864 -0.12138039 -0.22275975 0.018581148
0002a0 1a fe 4a bd 06 8e 94 bc 8f 36 40 bd 44 96 10 be
       -0.049558736 -0.018134128 -0.04692703 -0.14119822
0002b0 51 e5 5f bd 40 11 f5 be 20 51 a6 bc f5 dd 81 be
       -0.054662053 -0.47864723 -0.020302355 -0.25364652
0002c0 e9 27 a9 3d 42 c2 34 bd d7 1a 00 be 71 01 f1 bd
       0.082595654 -0.04413057 -0.12510239 -0.11767853
0002d0 9f 95 78 3e e1 83 a0 3e 65 42 4e bf f4 c7 9f bd
       0.24275826 0.31350616 -0.8057006 -0.0780181
0002e0 c4 08 81 be 00 9c 9c bd 97 df 05 3c 12 b4 9a be
       -0.25202 -0.07646942 0.008170984 -0.30215508
0002f0 23 4b 3d bd b2 d4 fc 3c b6 09 52 3d 8b bb 23 3e
       -0.046214234 0.03086314 0.051278792 0.1598951
000300 a0 07 ab 3c c5 83 8c be 36 46 8b 3d d9 e4 24 3d
       0.02087766 -0.27444282 0.06800501 0.04025731
000310 3e 33 a2 be 41 d1 34 bd 71 bb 21 bd b0 ab 91 3d
       -0.3167972 -0.044144873 -0.0394854 0.07112825
000320 ab 11 2e bc 62 ff 30 3d 12 da 89 bd 58 88 ef bc
       -0.01062433 0.043212302 -0.06731047 -0.029239818
000330 f4 f6 9a bc cd c0 f3 3c 98 6f 18 be 00 43 de 3d
       -0.018916585 0.02975502 -0.1488632 0.10852623
000340 01 1a 37 bd fd e2 d8 3b 94 d8 43 3d 91 60 a5 3d
       -0.044702534 0.006618856 0.047813967 0.08075059
000350 0e 43 f8 bc 8e 91 83 bd af 3e 48 be 65 8f 72 bd
       -0.030305412 -0.06424247 -0.19555162 -0.059218783
000360 ff 42 29 be ce 17 85 3c 39 24 ab 3d 2f ce af bc
       -0.16529463 0.016246703 0.08356518 -0.02146062
000370 b8 f4 e2 3d 98 28 b8 3d 64 8d 71 3c d4 f1 f8 bd
       0.11081833 0.08992118 0.014743183 -0.121555
000380 7a 75 2a 3d 91 d1 b0 bd 24 18 9d 3d 0e 82 8c bc
       0.04161594 -0.086337216 0.0767062 -0.017151859
000390 ae 19 a9 bd c4 c0 85 3d ec 7f 0c be a3 b1 1e 3e
       -0.08256851 0.06530908 -0.13720673 0.1549745
0003a0 dd 4c 4b bd db 99 04 be 50 04 0c 3d b4 8f 81 3d
       -0.04963385 -0.12949316 0.0341838 0.06326237
0003b0 7b c8 63 3e fc 6b 1b be 3f c4 5d bc 78 21 d4 bc
       0.22244446 -0.15177912 -0.013535558 -0.025894865
0003c0 78 78 77 bd 12 fa 8f 3e 14 aa 18 bd 80 07 06 bc
       -0.060417622 0.28120476 -0.037271574 -0.008180499
0003d0 5c 32 be 3a bb 82 a6 3d 37 97 ae 3e f6 b5 47 be
       0.0014510858 0.081304036 0.34099743 -0.19503006
0003e0 09 1a 13 be b6 bd ea bd 73 4d 02 bc 78 e9 51 be
       -0.143654 -0.11461966 -0.007953036 -0.20499218
0003f0 52 26 ee 3b 4a c2 cd 3b e0 ea 9b bd df b8 0c be
       0.0072677517 0.0062792646 -0.07613158 -0.13742398

bias f4 [64]
000000 4b 32 30 3e 0e ed 81 bf 61 87 9c be fb 2f ed be
       0.17206685 -1.0150468 -0.30572036 -0.4632567
000010 9a 95 bb 3d 9d e0 15 3e ee f7 27 3e af 18 df be
       0.091593936 0.14636464 0.16403171 -0.4357352
000020 cb 3b 1c 3e c2 b3 c3 bf f8 28 38 3b a2 81 96 3d
       0.15257184 -1.5289233 0.002810059 0.07348944
000030 2c 40 ad 3d 49 97 e6 3d 42 60 86 3e f2 1a 35 3e
       0.084595054 0.11259324 0.26245314 0.1768606
000040 fc 49 3a 3e 09 01 f4 3d 87 e5 f2 3d 27 6f 95 3e
       0.18192285 0.1191426 0.11860185 0.29186365
000050 1b 95 27 be 31 8b c3 3d f0 b1 10 bf 5b 4c fd 3d
       -0.16365473 0.09548033 -0.5652151 0.12368079
000060 db 02 73 3e 1e b9 4f 3e 6d ad 26 3e 5f b1 26 3e
       0.23731558 0.2028546 0.16277094 0.16278599
000070 bb dc 40 3e 0f 4a 3f 3e ae 9e cd bc 20 02 3e 3e
       0.18834202 0.18680595 -0.025100078 0.18555498
000080 9f 04 33 3e fe dd 86 3e f9 df cd 3d 3f 6f 3c 3e
       0.17482232 0.26341242 0.10052485 0.18401812
000090 0c a0 0b bf 35 75 9b 3d 5e 79 8a 3d b5 13 86 3d
       -0.5454109 0.07590715 0.0676143 0.065467276
0000a0 08 1b 3a 3e 86 1d df 3d 49 fe 4a 3e c0 9e 15 3d
       0.18174374 0.10894303 0.19823565 0.03652835
0000b0 7d 94 01 3e 89 c0 e4 3d 75 eb c9 3d af 60 ec be
       0.126543 0.11169536 0.09859363 -0.46167514
0000c0 84 39 30 3e e1 30 f3 be bd fa 1b 3e ca ba 54 3e
       0.1720944 -0.4749823 0.15232368 0.2077438
0000d0 7b da 6a 3e 93 23 da 3d 5a 0b 20 3d 8a b3 07 3c
       0.22934906 0.106513165 0.039073326 0.008282552
0000e0 28 c2 bb bd 73 4c d9 3d 04 1c 2e 3e ac 12 e2 bd
       -0.09167892 0.10610285 0.17002875 -0.11038718
0000f0 9b 0d 17 3e ba 5a cd 3c 64 4c e1 3d 6d ea 10 3e
       0.14751284 0.025067676 0.110008985 0.14151926

weight f4 [32, 64]
000000 e3 5e de bc f1 8e 55 be 11 5d 4e bd 1a e8 e0 3c
       -0.027144855 -0.20855309 -0.050381724 0.027454425
000010 71 59 9a bd 40 17 47 3e 54 ff 15 be ce 9e bf bd
       -0.07536591 0.19442463 -0.14648181 -0.093564615
000020 3a c9 14 be 6b 66 13 be 25 60 99 3b f1 db 0e bc
       -0.14529887 -0.14394538 0.004680651 -0.00871943
000030 c8 ba 50 bf de 2c b8 3d c1 d4 5e 3d 12 90 14 bf
       -0.81535006 0.08992933 0.054402117 -0.58032334
000040 cd 7a 13 be 1f cc 69 bc 2d 8d 6e 3a a6 54 31 3e
       -0.14402314 -0.014269858 0.00091000163 0.17317447
000050 0c 2b 90 3c 04 5c cd 3c 06 95 84 bc 3c 80 7a be
       0.017598651 0.02506829 -0.016184341 -0.2446298
000060 cc a9 f4 bd 15 51 01 3c 03 cb c1 3d 20 f1 63 3c
       -0.11946449 0.007892867 0.094625495 0.013912469
000070 29 18 8c 3d 4b a3 97 3c 0a b0 6c bd 78 1e 85 bf
       0.06840546 0.018510481 -0.05778507 -1.0399923
000080 42 cd 2c be 5f d0 82 be 5b 49 a2 3e 26 ba c7 be
       -0.16875175 -0.255496 0.3169659 -0.39009207
000090 d4 df c8 bd 1c 0d 55 3e 85 ba 23 3f 2f 8c 8a ba
       -0.09808317 0.20805782 0.6395648 -0.0010570342
0000a0 1f 0b a1 bc 4f 0d 03 be 92 18 ad bd f3 b8 08 3f
       -0.019658623 -0.12798046 -0.08451952 0.5340721
0000b0 81 f3 85 3c b0 ba 94 bd e3 3c 4b 3e eb ff eb bd
       0.016351463 -0.0726217 0.19847445 -0.11523422
0000c0 35 21 ac 3c 64 14 1a bd 0d 41 07 3e f0 42 ae bd
       0.021011928 -0.037617102 0.13208409 -0.08508861
0000d0 6e d4 ea bc d9 4e a5 3c 4b fc 04 3e 73 84 99 3d
       -0.028665747 0.020179199 0.12986867 0.07495966
0000e0 6c 8a a3 3d 34 3d 38 3e 2e 86 2b 3e ff 99 b1 3d
       0.07985386 0.17992097 0.16750404 0.086719505
0000f0 2a dd 2e be 33 22 a8 3e 8d 02 c9 bf c1 fd 69 3d
       -0.17076555 0.32838592 -1.5703903 0.057126764
000100 c6 58 49 3d 0d b5 ae bb 8a 10 07 be 7b e1 3b 3d
       0.049156927 -0.0053316415 -0.13189903 0.04586933
000110 44 ea f4 bd ce 1e 51 3e 33 a4 39 3c 69 c8 ed bd
       -0.11958745 0.20421907 0.011330652 -0.11610491
000120 46 a2 09 bd aa 57 95 bc 07 2f c5 3d b4 4a 89 bd
       -0.03360202 -0.018230278 0.096281104 -0.067037016
000130 8f 92 f7 be 90 77 81 3d de 7e f3 3d be 3a 51 bf
       -0.48354003 0.06321633 0.11889432 -0.8173026
000140 d0 15 d6 bd 76 81 b2 3d a8 b9 c7 3c ea a6 34 3d
       -0.10453379 0.08716099 0.02438052 0.044104494
000150 ae 01 2b bc c9 ba 41 3d b3 60 fd bb a7 da 5d be
       -0.010437412 0.047297273 -0.0077324747 -0.2166544
000160 b6 37 7e be d2 f8 f6 bc 4e 71 0e 3e e3 1b ac bd
       -0.2482594 -0.030147944 0.1391041 -0.084037565
000170 0a 9c fd 3d 9a 02 cc bd 85 fd cc bc 09 7c a6 bf
       0.12383278 -0.09961434 -0.025023231 -1.3006603
000180 4f 72 34 bd c3 67 c0 be e1 ca dc 3e a5 a3 e6 be
       -0.044054326 -0.37579164 0.43123534 -0.45046726
000190 aa 69 3c bd 38 c2 0b 3f 5b 40 31 3f 37 b9 87 bd
       -0.045999207 0.5459323 0.69238824 -0.06627124
0001a0 66 4e b5 3c 60 fe 60 bd 31 0e 46 be a8 65 20 3f
       0.02213211 -0.05493009 -0.19341351 0.62655115
0001b0 c1 c7 f6 3d 3c 26 97 3c a6 48 92 3e 8b 34 42 3b
       0.12049819 0.018450849 0.2857105 0.0029633369
0001c0 91 07 60 3c b6 f4 ae bb 78 68 b0 3d 1c 61 a0 3d
       0.013673679 -0.0053392304 0.08613676 0.07831022
0001d0 c0 21 52 3c 92 d4 fc bd df 09 9b 3e 27 0d a4 3d
       0.012825429 -0.12345232 0.3028097 0.08010321
0001e0 1e dd 92 bd d6 c6 02 3f 7f 8b 6b 3e 14 cb 9c bd
       -0.07171081 0.5108465 0.23002432 -0.076559216
0001f0 ba f3 4a be 91 13 08 3f 48 45 60 bf c0 71 3b be
       -0.19819537 0.53154856 -0.87605715 -0.18305111
000200 69 7c c8 be 3c 2b 13 be 9b ac 3e be 38 0d 55 be
       -0.39157417 -0.14371961 -0.18620531 -0.20805824
000210 8f 14 c6 3c 3a 28 1b be d4 dc be 3d 55 39 fa bd
       0.024179725 -0.15152064 0.09319463 -0.122179665
000220 4d 60 6e 3d 5f 5e 67 bc 1a 8f 81 bd 7f 67 f4 bf
       0.05819731 -0.014121621 -0.063261226 -1.9094085
000230 44 29 ac 3c 7e 4e a5 bf 98 ba e8 be 21 42 eb bd
       0.02101577 -1.2914579 -0.4545486 -0.114872225
000240 e3 5a fb bd ec f9 d7 bf bb 68 13 bf b5 aa 28 3d
       -0.12273195 -1.6873145 -0.5758168 0.041178424
000250 8c 04 f0 3d 5c b8 4e be 90 ee 28 be b0 a2 b2 3c
       0.11719617 -0.20187515 -0.16497254 0.021806091
000260 a8 0e 9a be 79 5d e1 3d 6f 5c c0 3c 10 87 6d bf
       -0.30089307 0.110041566 0.023481576 -0.92784214
000270 0c 47 19 3d b3 d5 a0 3e 80 99 49 3a 3f f3 c2 bd
       0.03742127 0.3141304 0.0007690415 -0.09519052
000280 67 8e 3e 3f f2 44 be be 8f af 31 be dd 3f 88 be
       0.7443604 -0.37161976 -0.17352127 -0.26611224
000290 7b 04 82 be eb e6 62 be 35 28 80 3d 4d 9b 89 be
       -0.25394043 -0.221584 0.06257669 -0.26876298
0002a0 0b b8 c8 bf a2 c4 80 3e 8d 7d 45 3d 25 41 34 be
       -1.5681165 0.2515002 0.048215438 -0.17602976
0002b0 5f 1b dc be a6 a1 6a 3e 38 84 14 bc cf 7a 09 be
       -0.42989632 0.22913226 -0.0090647265 -0.13425754
0002c0 0e 63 a3 ba 1d 95 bc bc 4c af 16 be a7 30 80 bf
       -0.0012465434 -0.023020322 -0.14715308 -1.0014848
0002d0 c5 44 61 be 7d c5 e6 3c 54 66 8f be 05 86 b7 be
       -0.2199889 0.028170342 -0.28007758 -0.35844436
0002e0 48 d2 bc 3c 8b 3c 8d bd 6b c6 c8 bc 87 ae 5a 3d
       0.023049489 -0.06896313 -0.024508676 0.0533891
0002f0 95 84 9e 3d 25 92 4e be a6 72 ad bd 78 59 00 3d
       0.07740132 -0.20172937 -0.08469133 0.031335324
000300 a4 a0 a2 bf 98 62 09 bd 63 b6 3b 3d aa 48 1b bd
       -1.2705274 -0.033541292 0.045828234 -0.037911095
000310 00 fd d7 3c 4d bc 9d be 12 22 bd 3e ed da 86 3b
       0.026365757 -0.30807725 0.36940056 0.0041154535
000320 dd a6 ec 3c f2 88 c4 bc 34 4d 04 3c 2f 1c 69 be
       0.02888816 -0.023991082 0.008075047 -0.22764657
000330 f4 67 b8 3c c4 d4 ad bd f7 b4 1a be 18 af 35 3e
       0.022510506 -0.084878474 -0.15108095 0.17742574
000340 f2 54 4e 3e 9e ec 0c bd 29 db 28 bf 54 87 b3 bc
       0.20149592 -0.034405343 -0.6595941 -0.021915115
000350 97 5a d8 bd 43 85 62 bf 0b c2 22 3c 01 88 8d 3d
       -0.10564154 -0.8848459 0.009933959 0.06910706
000360 e3 cd 46 3e af 54 31 3e dd 69 6f bd 3a 87 80 bc
       0.19414477 0.1731746 -0.05845057 -0.015689481
000370 69 d5 b6 bc fe 97 8c 3e ed 12 b7 bd 9f fd 47 3e
       -0.022318559 0.2745971 -0.08939157 0.19530343
000380 96 62 31 3f 21 3b 8f 3e d1 31 f6 bd f0 23 38 3e
       0.69291055 0.279748 -0.120212205 0.17982459
000390 26 6a 4d 3d e9 be 67 bd 95 a2 90 bc df 15 91 bc
       0.05015006 -0.05657855 -0.01765565 -0.017710624
0003a0 85 f3 e3 bc 37 67 2e 3e 8c 47 a2 bd 0d 96 ed bc
       -0.02782608 0.17031561 -0.07923803 -0.029002214
0003b0 14 26 6c be 74 b2 f1 3d 08 6c 0c bd 55 db 0b 3d
       -0.230614 0.11801615 -0.034282714 0.03414472
0003c0 66 fb 0b 3e e2 3f 73 bd 87 28 06 bf 06 86 ed ba
       0.1367012 -0.059387095 -0.5240559 -0.0018121607
0003d0 e4 94 9e bf 3c 05 83 3d 17 37 ab bd d2 11 48 3c
       -1.2389188 0.06397483 -0.08360117 0.01221128
0003e0 17 3a c9 bd f4 bf 4b 3d a2 42 f3 ba d5 c4 da bd
       -0.09825533 0.049743608 -0.0018559287 -0.10682074
0003f0 05 fd 99 3e 50 8e 4e be 39 2e fb 3b cd e8 05 3d
       0.3007585 -0.20171475 0.0076654223 0.03269272

bias f4 [32]
000000 76 74 cd 3d a1 9a 44 3e 5b 73 99 3e 72 30 67 3e
       0.10031979 0.19199611 0.29970822 0.22577074
000010 3e 73 7c 3e 91 79 86 3d f3 4e 0f 3e 99 14 73 3e
       0.24653336 0.06566156 0.1399496 0.23738326
000020 f7 4b 26 3e 0e 0b 09 3e 42 43 8b 3e be 12 a3 be
       0.16239916 0.13383123 0.2719975 -0.31850237
000030 fd 6c ba 3d a1 b5 ee 3d 39 80 52 3e 21 0d 74 3d
       0.09102819 0.11655737 0.20556726 0.059582833
000040 67 36 7b 3e 07 9b 8a 3e 66 5b d6 3d e2 45 1b c0
       0.24532472 0.270714 0.104666516 -2.4261403
000050 b7 07 68 3e a5 df 7b 3d 1c 79 15 3e 4a 6f 05 3e
       0.22659193 0.06149258 0.14596981 0.13030735
000060 96 c3 3a 3e de 63 43 3e d1 7c 43 3e e8 9b 99 3e
       0.18238673 0.19081065 0.19090582 0.3000176
000070 4e 76 40 3e 51 72 28 3e b2 8d 85 3d 75 14 a2 3d
       0.1879513 0.16449858 0.06521167 0.07914058

weight f4 [1, 32]
000000 e2 e2 ba be 09 80 39 be e6 4f 8d 3f 5f d0 41 3e
       -0.36501223 -0.18115248 1.1040008 0.18927144
000010 b6 f8 3c 3f 5e 0d af be 3c 34 82 be 08 f5 fe be
       0.73817 -0.34189886 -0.25430477 -0.4979632
000020 8d d9 71 be 95 db db 3e 1a 4d 01 be ae fb 28 bd
       -0.23618145 0.42940965 -0.12627068 -0.041255645
000030 7f 3c 90 be b4 14 80 3e 5f 56 0f be e8 78 cf be
       -0.28171155 0.25015795 -0.13997792 -0.40521932
000040 a7 09 32 3e 4a 50 6a 3e 87 59 6d 3e 31 05 30 3f
       0.17386495 0.2288219 0.23178683 0.6875792
000050 ec cf 22 3e 2f ac d6 3e 4c 00 85 be 41 45 dc 3e
       0.15899628 0.4192824 -0.2597679 0.43021587
000060 92 27 fe 3d 06 55 3a be 70 59 10 3f 0b ff 71 3e
       0.12409891 -0.18196496 0.5638647 0.23632447
000070 84 4b 12 be 06 a2 ad 3e 2b fe a1 3e a1 9e 80 be
       -0.1428662 0.33912677 0.31639227 -0.25121024
