unitree_rl_gym/logs/actuator_net_v3_best.pth (torch, 48476 bytes, 7 tensors)

net.0.weight f4 [128, 6]
0	0x3e014764	0.1262489
1	0xbd8c9bc6	-0.06865649
2	0x3dc205b0	0.09473741
3	0xbe4bfd98	-0.19920957
4	0xbe879879	-0.26483515
5	0xbe2f6e03	-0.1713181
6	0xbe110a5a	-0.14164105
7	0x3d846e9e	0.06466411
8	0xbd41897e	-0.047250263
9	0x3e8328ab	0.25616965
10	0x3e3e1d82	0.18565944
11	0x3d223d55	0.039609272
12	0x3e63af64	0.22234875
13	0xbd67154f	-0.056416806
14	0x3d97e890	0.07417405
15	0xbe8a2390	-0.26980257
16	0xbe33c285	-0.17554672
17	0xbd96fac3	-0.07372048
18	0xbe67cb6a	-0.2263619
19	0xbc5d5459	-0.01350888
20	0xbdb0c307	-0.086309485
21	0x3e8865ea	0.26640254
22	0xbe8b7207	-0.27235433
23	0x3d9cb7cb	0.07652243
24	0x3c622549	0.013802835
25	0x3dafde86	0.08587365
26	0xbce89d7b	-0.028395405
27	0xbeabf051	-0.33581784
28	0xbdd74787	-0.1051169
29	0xbd83fa34	-0.06444207
30	0x3e0fe12c	0.1405074
31	0xbe34e1eb	-0.17664306
32	0x3e018880	0.12649727
33	0xbd1a1333	-0.037615966
34	0x3e8a79e5	0.27046123
35	0x3e6324db	0.22182028
36	0x3ce1bfb7	0.027557237
37	0x3d8519be	0.064990506
38	0xbcf9470b	-0.030429384
39	0xbea210f8	-0.3165357
40	0x3e6b81d2	0.22998741
41	0x3e86558a	0.26237136
42	0xbe161e83	-0.14660077
43	0x3d885032	0.06655921
44	0xbd829603	-0.06376269
45	0x3eb8714a	0.36023933
46	0x3e34f3db	0.17671148
47	0xbe3df00b	-0.185486
48	0xbe7ad4aa	-0.24495187
49	0x3d893b4c	0.06700763
50	0x3d7bf29f	0.06151068
51	0x3e1a17dc	0.15048164
52	0xbe601857	-0.21884285
53	0xbe5af9f8	-0.21384418
54	0x3b15a8f7	0.0022836307
55	0x3e3eac58	0.18620431
56	0xbd933ed4	-0.07189718
57	0xbe852c2b	-0.2601026
58	0x3eac360d	0.33634987
59	0x3def3eeb	0.116819225
60	0xbe3931dc	-0.18085426
61	0x3d9bedf1	0.07613743
62	0xbcdd6af3	-0.027028536
63	0x3e9efc44	0.31051838
64	0x3d3bd085	0.045853157
65	0xbe13d55d	-0.1443686
66	0xbe343bb0	-0.17600894
67	0x3d3bc136	0.045838557
68	0xbbd26f42	-0.0064219544
69	0x3e8a87a5	0.27056614
70	0x3c953bb4	0.018216945
71	0xbd2fc330	-0.042910755
72	0x3df2ed47	0.11861663
73	0xbd5ca87d	-0.05387162
74	0xbc7ea89e	-0.015543131
75	0xbe941b10	-0.28926897
76	0x3dc4318c	0.09579763
77	0x3e5b18b7	0.21396147
78	0xbc878048	-0.016540661
79	0x3e1a5753	0.15072374
80	0xbde20ecd	-0.11037979
81	0xbe723f8e	-0.23657057
82	0x3e6604b9	0.22462739
83	0xbc6957b3	-0.0142421005
84	0x3dbbd03a	0.091705754
85	0x3c46b040	0.012126982
86	0x3cac8c26	0.021062922
87	0xbe892118	-0.2678306
88	0xbe2362dc	-0.1595568
89	0xbe1815cd	-0.14852066
90	0xbd2a5c0f	-0.0415917
91	0xbe2d22a7	-0.1690775
92	0x3d95f893	0.073228024
93	0x3e14b8e3	0.14523654
94	0xbc9e5c10	-0.019331008
95	0x3e9705e3	0.2949668
96	0x3dd1e734	0.102491766
97	0xbdd9ae9c	-0.10629007
98	0xbe406bcb	-0.1879112
99	0x3df4e273	0.11957254
100	0xbe0e1ea9	-0.13878883
101	0x3dc44a2c	0.0958446
102	0xbe10c0a0	-0.1413598
103	0x3b4a8844	0.0030903975
104	0x3b06e717	0.0020584518
105	0x3e258444	0.16163737
106	0xbe54a04f	-0.20764278
107	0xbda70b87	-0.081564955
108	0x3d8a6749	0.06757981
109	0xbbaf26d0	-0.005345203
110	0x3ce57c91	0.0280135
111	0xbed3ba93	-0.41353282
112	0xbe633715	-0.22188981
113	0x3b67f153	0.0035391643
114	0xbdb393b5	-0.08768407
115	0xbd6e820d	-0.058229495
116	0x3dc0f89c	0.094224185
117	0x3eb4ae5d	0.3528928
118	0x3ddb7aa6	0.10716753
119	0x3e491b9a	0.19639435
120	0x3d846afc	0.06465718
121	0x3d5eb713	0.054373812
122	0xbcd0ffbc	-0.025512569
123	0xbe8e2384	-0.2776147
124	0x3d17d46f	0.037067827
125	0x3c8e9d5c	0.01740902
126	0xbd5512b7	-0.0520198
127	0x3c63cc99	0.01390376
128	0xbd0213b4	-0.03175707
129	0x3e56fe92	0.20995548
130	0x3da0d2ce	0.07852708
131	0x3db7f994	0.0898315
132	0x3dcc9dd6	0.09991042
133	0xbd254a21	-0.040353898
134	0xbccc4201	-0.024933817
135	0x3c2f46ad	0.010698003
136	0x3e885a24	0.26631272
137	0x3c2d92a8	0.010594048
138	0x3c880d34	0.016607858
139	0x3d77dd65	0.060513873
140	0xbe23841d	-0.15968366
141	0x3e2300c3	0.1591826
142	0xbe1c36f9	-0.15255345
143	0x3e374e96	0.17901072
144	0x3e1f846c	0.15577859
145	0xbdb8a080	-0.09014988
146	0x3cc71d81	0.02430606
147	0x3ddd4b1d	0.10805342
148	0xbc866d94	-0.016409673
149	0xbeab0863	-0.33404836
150	0xbe181c69	-0.14854588
151	0x3d0ce10f	0.03439432
152	0x3d53a8b8	0.051674575
153	0x3c927c3d	0.017881507
154	0xbe8d3241	-0.27577403
155	0xbb39b91e	-0.0028339098
156	0xbd8bb38f	-0.068213575
157	0xbc9ccf29	-0.01914175
158	0xbc1b50e4	-0.009479735
159	0x3ea52695	0.32255998
160	0x3de17ab9	0.110097356
161	0xbd92f8a9	-0.071763344
162	0xbda2d4f5	-0.079507746
163	0x3cbae187	0.022812618
164	0xbca55257	-0.020180864
165	0x3e92be35	0.2866074
166	0x3d744e57	0.059645023
167	0xbd7146a1	-0.058905248
168	0xbc5aa007	-0.013343818
169	0x3dda16e7	0.106488995
170	0x3c9bda7a	0.019025076
171	0xbea1dffb	-0.31616196
172	0x3c7fdf04	0.015617136
173	0x3cdf7911	0.027279409
174	0x3e5db9ab	0.21652858
175	0xbd62f1f4	-0.055406526
176	0xbda3be57	-0.07995289
177	0x3db255dd	0.08707783
178	0x3e9df8da	0.3085392
179	0xbdd65987	-0.10466295
180	0xbda76cc8	-0.08175045
181	0x3d384af5	0.04499336
182	0xbcee1c30	-0.029066175
183	0x3dbf0cbd	0.093286015
184	0x3d0f5508	0.0349932
185	0x3e3c09a9	0.1836306
186	0x3e61caa6	0.2204996
187	0xbdb7cc28	-0.089744866
188	0x3d4b810e	0.049683623
189	0xbe8513f8	-0.25991797
190	0x3d6bc398	0.05755958
191	0xbd9e53a6	-0.077307984
192	0xbe5b7ea6	-0.21435031
193	0x3e18155f	0.14851902
194	0xbdfcca16	-0.12343232
195	0x3e069a70	0.1314485
196	0xbd14e9cd	-0.036355782
197	0x3995fd5b	0.0002860826
198	0x3e1e9d8e	0.1548979
199	0xbd94167f	-0.07230853
200	0x3d37ab3f	0.044841047
201	0xbe77354f	-0.2414143
202	0xbd1b9400	-0.03798294
203	0xbad7b208	-0.0016456256
204	0x3df51e22	0.11968638
205	0x3d91aadb	0.07112666
206	0xbde15d7e	-0.1100416
207	0xbec63aae	-0.38716644
208	0x3e6aa311	0.22913767
209	0x3ead66f5	0.33867612
210	0x3d052b1b	0.03251181
211	0x3ca812b9	0.02051674
212	0x3b3bde2d	0.0028666363
213	0xbe5e3fc3	-0.2170401
214	0xbdda4c05	-0.10659031
215	0xbdf7b6b6	-0.12095396
216	0x3e8337d3	0.25628528
217	0xbe82a14c	-0.25513685
218	0x3df17bf2	0.11791219
219	0x3e72448d	0.23658963
220	0x3debc8cb	0.115129076
221	0xbe312aef	-0.17301534
222	0xbe32b55d	-0.17451997
223	0xbcc6753f	-0.02422583
224	0x3d28011c	0.041016683
225	0x3ee8600c	0.45385778
226	0xbd7887f2	-0.060676523
227	0xbe2ba0fc	-0.1676063
228	0xbe6ccc95	-0.23124917
229	0x3e554001	0.20825197
230	0xbe3c8af8	-0.18412387
231	0x3cabbb74	0.020963408
232	0x3e8eefaf	0.2791724
233	0x3ea148f3	0.31500968
234	0x3cdc4c83	0.026891952
235	0x3da4879d	0.08033679
236	0x3c6ce5a2	0.014459046
237	0xbeafc156	-0.3432719
238	0xbe34bbc5	-0.17649753
239	0xbbad7d70	-0.0052944943
240	0x3e667fb0	0.22509646
241	0xbdc3fe8b	-0.095700346
242	0x3d32a113	0.043610644
243	0xbec4efc8	-0.3846419
244	0xbd82cc74	-0.063866526
245	0x3d8ef13e	0.06979607
246	0x3e96699e	0.29377455
247	0xbe4bb516	-0.19893298
248	0xbe54854c	-0.20753974
249	0xbdd42656	-0.103588745
250	0x3e489a1c	0.19590038
251	0xbea52c1b	-0.32260212
252	0xbe1460e1	-0.14490081
253	0x3dc246d8	0.094861686
254	0xbdbf41d9	-0.09338731
255	0x3e340666	0.17580566

net.0.bias f4 [128]
0	0xbd0da891	-0.034584586
1	0xbe728dc0	-0.23686886
2	0xbeaa00b4	-0.3320366
3	0xbe13ac90	-0.14421296
4	0x3e481580	0.19539452
5	0xbd0b4d71	-0.0340094
6	0x3dd479ec	0.10374817
7	0x3be94185	0.0071184062
8	0x3b8a7608	0.004225496
9	0xbe7103b1	-0.23536564
10	0xbe8adf0f	-0.27123305
11	0xbeb2824f	-0.34865043
12	0x3e67078a	0.2256147
13	0x3e22b5a2	0.158896
14	0xbe96c9f6	-0.2945096
15	0xbe8323cb	-0.25613245
16	0xbe039dd0	-0.1285317
17	0xbea405e2	-0.32035738
18	0x3e591178	0.2119807
19	0x3e99faad	0.30074063
20	0xbe81b639	-0.25334337
21	0x3e78309a	0.2423729
22	0x3d6d2495	0.057896215
23	0xbe6abda0	-0.22923899
24	0x3c032544	0.00800449
25	0xbd97ad92	-0.07406153
26	0xbe1c2118	-0.15247
27	0x3e5b545f	0.21418904
28	0xbd972312	-0.07379736
29	0xbea23c03	-0.3168641
30	0x3e8d4fdc	0.2759999
31	0xbf1ecc35	-0.62030345
32	0xbe076cef	-0.13225149
33	0xbeb69aa4	-0.35664856
34	0xbe5cbd67	-0.21556626
35	0x3e5dfb41	0.21677877
36	0xbd383610	-0.044973433
37	0xbee1016a	-0.4394639
38	0xbcce418c	-0.02517774
39	0xbd9b3269	-0.07577974
40	0xbeefcb29	-0.46834686
41	0xbdef9b8a	-0.116995886
42	0x3e1ec823	0.15506034
43	0x3e8313c7	0.25601026
44	0xbeb23932	-0.34809262
45	0x3c28da40	0.010305941
46	0xbe9d86e0	-0.30766964
47	0x3e55946f	0.20857404
48	0x3e3356e6	0.17513618
49	0xbee2fab7	-0.44331905
50	0x3e8f924a	0.28041297
51	0x3e4c1197	0.19928585
52	0x3e88f540	0.2674961
53	0x3ea62070	0.32446623
54	0xbea0a4cd	-0.31375733
55	0xbe6b16ef	-0.22957967
56	0x3c8b85a2	0.017031495
57	0xbe0bde61	-0.1365905
58	0xbd4ef29f	-0.05052435
59	0xbe03e0b9	-0.12878694
60	0x3df2d53c	0.118570775
61	0xbd524912	-0.051339217
62	0xbe7be0c3	-0.24597459
63	0xbefae391	-0.49001744
64	0xbedd7672	-0.4325443
65	0xbebdbbc4	-0.37057316
66	0xbe03bd66	-0.12865219
67	0x3e2e6aa7	0.17032872
68	0xbe8fec70	-0.28110075
69	0xbea3ce8c	-0.3199352
70	0xbe67c13a	-0.22632304
71	0x3d8c1298	0.06839484
72	0xbea7a0c4	-0.32739842
73	0x3e1e0eac	0.15435284
74	0xbecba0ad	-0.39771023
75	0xbd752909	-0.059853587
76	0x3e2f06d1	0.17092444
77	0xbca94052	-0.020660553
78	0x3e57dc97	0.21080242
79	0xbe12c707	-0.14333735
80	0xbe5ff484	-0.21870619
81	0xbe841779	-0.25799158
82	0xbe8da4ae	-0.27664703
83	0xbe2c62b3	-0.16834526
84	0xbb0bda4d	-0.0021339834
85	0x3dfe4edd	0.12417386
86	0xbdab62ba	-0.0836844
87	0xbed9138f	-0.42397735
88	0x3e4db2ac	0.20087689
89	0xbe09c377	-0.1345347
90	0xbeae1901	-0.3400345
91	0xbedd88d2	-0.43268448
92	0x3e873b8e	0.26412624
93	0x3c472487	0.012154705
94	0x3e51330c	0.20429629
95	0x3e829f23	0.25512037
96	0x3e3f613b	0.18689434
97	0xbd825c20	-0.06365228
98	0x3e575844	0.21029764
99	0x3c50eb88	0.0127514675
100	0x3dde1deb	0.1084555
101	0xbe3ae255	-0.18250401
102	0x3e742651	0.23842742
103	0xbf012e6c	-0.5046146
104	0x3c8f5c1d	0.017499978
105	0xbbf29b76	-0.0074037863
106	0x3e322ae0	0.17399168
107	0xbefaa824	-0.48956406
108	0x3e5e4eb0	0.21709704
109	0xbd1c932f	-0.038226303
110	0x3e41778d	0.18893261
111	0xbe160b63	-0.14652781
112	0xbeb774ab	-0.35831198
113	0xbe334256	-0.17505774
114	0x3db75627	0.08951979
115	0x3d031f7c	0.032012448
116	0x3cb4b00f	0.022056608
117	0xbea80727	-0.32817957
118	0xbdf642aa	-0.12024434
119	0xbe0f9dd7	-0.14025055
120	0xbe1365e6	-0.1439434
121	0x3d4d3737	0.050101485
122	0xbeba7946	-0.3642065
123	0xbedb856d	-0.42875233
124	0xbe7a5969	-0.2444817
125	0xbebf850b	-0.3740619
126	0x3e6bc6da	0.23025075
127	0xbe07a214	-0.13245422

net.3.weight f4 [64, 128]
0	0x3d8ad321	0.06778551
1	0xbbd6a742	-0.0065507004
2	0x3c63c5f3	0.013902175
3	0x3cda3558	0.026636764
4	0x3d0ef9ee	0.03490632
5	0x3d04434b	0.032290738
6	0x3d80d6ee	0.062909946
7	0x3cc6c8af	0.024265615
8	0x3c4ccf09	0.012500533
9	0xbbf782ca	-0.007553433
10	0xbb767ccb	-0.0037611003
11	0x3bd855dc	0.006602032
12	0x3d026abc	0.03184007
13	0x3d814c99	0.06313438
14	0x3d3b6560	0.045750976
15	0x3c4000cc	0.01171894
16	0x3cb17fc5	0.02166737
17	0xbd7d1c0b	-0.061794322
18	0x3d015508	0.031575233
19	0x3c841dcf	0.016127495
20	0x3c25bc0d	0.010115636
21	0x3c992deb	0.018698653
22	0x3cc1053e	0.02356207
23	0x3ca19c18	0.019727752
24	0xba8c26f8	-0.0010692766
25	0x3cfa6983	0.03056789
26	0xbdafe7f4	-0.085891634
27	0xbd178e5d	-0.037001003
28	0x3d05cae7	0.032664206
29	0x3ce5a515	0.028032819
30	0x3d5f841f	0.05456936
31	0xbcc5d0e6	-0.024147462
32	0x3bb4fbdc	0.005523188
33	0x3cd9992c	0.026562296
34	0xbc520828	-0.012819327
35	0x3d00ec92	0.03147561
36	0xbc49ae83	-0.012309673
37	0xbbd8c864	-0.0066156853
38	0xbbc617ae	-0.0060453033
39	0x3d4c29e4	0.049844638
40	0xbcda974f	-0.026683478
41	0x3c3c47f2	0.0114917625
42	0xbd08f083	-0.033432495
43	0x3d85389a	0.065049365
44	0x3d4ba3fe	0.049716942
45	0x3d91016d	0.0708035
46	0xbc1e93b7	-0.009678773
47	0x3db978ba	0.0905623
48	0x3d12fa8d	0.035883475
49	0x3d5a6126	0.053315304
50	0x3d622bff	0.05521774
51	0x3caec9bb	0.021336427
52	0xbcd48ed7	-0.025947018
53	0x3d0e63c3	0.03476311
54	0xbbee7ad5	-0.0072778263
55	0x3d23c909	0.039986644
56	0xbd279f38	-0.040923327
57	0xbbc8751b	-0.0061174757
58	0x3ca75df8	0.02043055
59	0xbc621d95	-0.013800998
60	0x3c9cdc96	0.019148152
61	0xbca322f2	-0.019914124
62	0xbcd445a1	-0.025912108
63	0x3b1f4aba	0.0024306015
64	0xbd0722d1	-0.032992188
65	0x3d0dc3ce	0.034610562
66	0xbcac97c2	-0.021068458
67	0x3d3b479f	0.0457226
68	0x3b5d3a61	0.003375672
69	0x3d49c742	0.049262293
70	0x3d26034c	0.040530488
71	0x3c3ddfc4	0.011588994
72	0xbc5966ed	-0.013269168
73	0x3d6c6273	0.057711076
74	0x3ca0c108	0.019623294
75	0x3d0c2979	0.03421924
76	0xb859dd64	-5.1943018e-05
77	0x3c876473	0.01652739
78	0x3d8a3f4c	0.06750354
79	0xbd8600cb	-0.0654312
80	0x3d20b849	0.039238248
81	0xbc6a2b67	-0.0142925745
82	0xbc7bde2c	-0.015372794
83	0xbc9dbb2f	-0.019254295
84	0x3d6f0bbb	0.058360796
85	0x3c4e128c	0.012577664
86	0xbd492cd3	-0.049115013
87	0x3d1b45dd	0.037908424
88	0x3c4c93b5	0.012486388
89	0x3cbc8ea1	0.02301723
90	0x3ca5631d	0.020188862
91	0x3d42fa09	0.047601733
92	0x3d59d9e2	0.053186305
93	0x3c37e023	0.011222872
94	0x3ce68bd7	0.028142853
95	0x3d450374	0.048098996
96	0xbb91696c	-0.004437616
97	0xbb847db0	-0.0040433034
98	0xbb05352c	-0.0020325882
99	0x3c54833a	0.01297074
100	0x3da696d3	0.08134236
101	0x3c1949dc	0.009355988
102	0x3dad29f4	0.084552675
103	0x3d80286c	0.0625771
104	0x3d9f564f	0.07780134
105	0x3d37bf3c	0.04486011
106	0x3ca610e1	0.02027172
107	0xbbad76ce	-0.0052937036
108	0x3ce12932	0.027485464
109	0xbd7b6f2a	-0.06138531
110	0x3dae152d	0.08500133
111	0xbd1b5b60	-0.03792894
112	0xbca91e31	-0.02064428
113	0x3cc785d1	0.0243558
114	0x3d363663	0.04448546
115	0x3ca11721	0.019664349
116	0x3d78ccd9	0.060742233
117	0xbc4f8286	-0.012665397
118	0x3c2cd760	0.010549396
119	0x3c018e15	0.00790741
120	0x3ccbea95	0.02489213
121	0x3c331912	0.01093127
122	0x3d1b5b0c	0.037928626
123	0xbd215b3d	-0.039393652
124	0xbcb1b5b5	-0.02169309
125	0xbc378e38	-0.011203341
126	0xbb8f1481	-0.004366458
127	0xbc90e39f	-0.017686663
128	0x3bc40ed6	0.005983214
129	0xbc6ecbe5	-0.014574979
130	0x3d5f500b	0.054519694
131	0x3cd06544	0.025438912
132	0xbcf784d0	-0.030214697
133	0xbc345986	-0.011007672
134	0xbcb871d7	-0.02251522
135	0xbce04650	-0.027377278
136	0xbd2f5f99	-0.04281578
137	0x3da26b44	0.079306155
138	0x3d329fbb	0.043609362
139	0xbd016d5a	-0.031598426
140	0xbd1da06b	-0.038483065
141	0x3d4e8715	0.050421793
142	0x3db58619	0.08863468
143	0xbc16e876	-0.009210696
144	0xbd130686	-0.035894893
145	0x3d4df5d7	0.05028328
146	0xbd1f8d6c	-0.03895323
147	0xbce71a71	-0.02821085
148	0x3d901278	0.07034773
149	0xbd5a1356	-0.053241096
150	0xbd20e321	-0.039279107
151	0x3ccf2877	0.02528785
152	0x3d147676	0.036245786
153	0x3c0c2097	0.008552692
154	0x3d4755b8	0.048665732
155	0xbe2170e2	-0.15765718
156	0xbd23e229	-0.040010605
157	0x3d48592c	0.048913166
158	0xbdb9df61	-0.09075809
159	0x3e2a67b0	0.16641116
160	0xbc8b9973	-0.017040944
161	0x3e261179	0.16217603
162	0x3e098f86	0.13433656
163	0xbd022e73	-0.03178258
164	0xbcb3564f	-0.021891741
165	0x3d30b916	0.04314526
166	0x3d80d410	0.06290448
167	0x3d72f638	0.059316844
168	0x3da6e673	0.081494235
169	0xbb069894	-0.002053772
170	0x3d67d8ea	0.05660335
171	0xbc23a519	-0.009988093
172	0x3e09c6ff	0.13454817
173	0x3d251d01	0.040310863
174	0xbc7bac5a	-0.015360916
175	0x3cf334db	0.02968829
176	0xbdb9a86b	-0.09065326
177	0x3d0e9e97	0.03481921
178	0xbc090ead	-0.008365315
179	0xbd8e2b3c	-0.0694184
180	0xbd676c6b	-0.05649988
181	0xbd03e95f	-0.032204982
182	0x3b913397	0.004431199
183	0x3c912690	0.017718583
184	0xbd989243	-0.07449772
185	0xbd0e4f16	-0.03474339
186	0x3ba0e43e	0.004910021
187	0x3d8a9aa2	0.06767775
188	0xbd19596d	-0.0374388
189	0xbc45af77	-0.01206576
190	0xbc4642da	-0.0121009
191	0x3dd62fa7	0.10458308
192	0x3cb990fe	0.022652145
193	0x3d4fd288	0.050737888
194	0x3d25f775	0.040519197
195	0x3d79e4c1	0.061009172
196	0x3d4bab73	0.049724054
197	0x3c839fd9	0.016067432
198	0x3d1d7dda	0.0384501
199	0x3c566f4d	0.01308806
200	0xbca48664	-0.020083614
201	0x3c9a1e30	0.018813223
202	0x3d1e8b85	0.038707275
203	0x3d84ddb1	0.06487597
204	0xbb8a8ce1	-0.00422822
205	0x3d2b6941	0.041848425
206	0xbcc341bd	-0.023835057
207	0x3c94fa5a	0.018185783
208	0x3d7d90ec	0.061905786
209	0x3d96f68b	0.07371243
210	0xbd3f6fc6	-0.046737455
211	0x3c80050b	0.015627405
212	0xbcc61965	-0.02418203
213	0xbd13d307	-0.036089923
214	0x3ce3c398	0.027803227
215	0x3d10a957	0.035317745
216	0x3ce3de55	0.027815977
217	0x3e0140a8	0.1262232
218	0xbd5d8b0f	-0.054087695
219	0x3df4aba7	0.119468026
220	0xbcd2ab67	-0.025716497
221	0x386de4a6	5.671815e-05
222	0xbcf10bbb	-0.029424539
223	0x3c5bf5cb	0.013425301
224	0x3b392d34	0.0028255703
225	0x3d580933	0.052743148
226	0xbca27b61	-0.019834222
227	0x3cb29cc9	0.021803277
228	0x3b03b4a6	0.0020096689
229	0xbca08725	-0.019595692
230	0x3cd6d339	0.026223766
231	0x3d89da41	0.06731082
232	0x3c375972	0.011190759
233	0x3d867d72	0.065668955
234	0x3d04fdbe	0.03246855
235	0xbb3ea264	-0.0029088492
236	0xbda1d5bb	-0.07902094
237	0xbcf7c9c0	-0.03024757
238	0x3c85e064	0.01634235
239	0x3d1ba4df	0.03799903
240	0x3daba069	0.08380205
241	0x3c85624a	0.01628222
242	0xbdb29dd1	-0.08721507
243	0x3d561d4c	0.052274033
244	0xbc5f1721	-0.013616354
245	0x3e03cd3f	0.12871264
246	0x3dcaf360	0.09909701
247	0x3d135f4e	0.03597956
248	0x3e240ff5	0.16021712
249	0x3d0d99bb	0.034570437
250	0xbc681cdc	-0.014167037
251	0xbc9c8c97	-0.019110007
252	0x3dd82701	0.105543144
253	0x3d6ffd26	0.05859103
254	0xbcc6e63e	-0.02427971
255	0x3db67d77	0.08910649

net.3.bias f4 [64]
0	0x3c14861b	0.009065176
1	0x3e35e798	0.17764127
2	0xbcb46e3e	-0.022025224
3	0x3db62dfc	0.088954896
4	0xbaa9a48d	-0.0012942717
5	0x3d9fd966	0.07805137
6	0x3e3904d7	0.18068253
7	0xbdc7aae8	-0.09749395
8	0x3cd53c4e	0.026029732
9	0x3d8fee2c	0.070278496
10	0x3d3d059b	0.046147924
11	0x3cc8b255	0.024499098
12	0x3d0432e3	0.03227509
13	0x3df7e4ad	0.12104163
14	0x3dc999ee	0.09843813
15	0x3de8e8be	0.11372517
16	0x3e119f8e	0.14221022
17	0x3e08f1ab	0.13373439
18	0x3d881dcf	0.066463105
19	0x3e0c92dc	0.13727897
20	0xbca3a541	-0.01997626
21	0x3dc8a551	0.097971566
22	0x3d3bc8a6	0.04584565
23	0x3d3763e6	0.044773005
24	0x3de968ca	0.1139694
25	0x3dfbe3a4	0.122992784
26	0xbe197433	-0.14985733
27	0x3d6a3697	0.057180967
28	0x3d571dc2	0.052518614
29	0x3d8e11d3	0.069369934
30	0x3ddde833	0.10835304
31	0x3d9d4350	0.076788545
32	0x3e08ba88	0.13352406
33	0x3d911afe	0.070852265
34	0x3db587cc	0.08863792
35	0xbba0c4eb	-0.004906287
36	0xbda986ad	-0.082776405
37	0xbcbea57e	-0.023272272
38	0x3e08f735	0.13375552
39	0x3c55e5e9	0.013055303
40	0x3e166a2b	0.14688937
41	0x3df0c05a	0.11755438
42	0xbda0598a	-0.07829578
43	0xbdb7008c	-0.08935651
44	0x3d923d81	0.07140637
45	0xbcc51d4a	-0.024061818
46	0x3e0deddf	0.13860272
47	0x3d600eb6	0.05470153
48	0xbce5e591	-0.028063567
49	0x3d2310c9	0.03981093
50	0x3df36999	0.118853755
51	0x3d9d85bb	0.07691523
52	0x3e00484c	0.12527579
53	0xbc8a6978	-0.016895995
54	0x3d38c3c0	0.045108557
55	0x3d9f9e43	0.07793858
56	0x3d8d7aba	0.06908174
57	0xbd0b8996	-0.03406676
58	0x3d27e878	0.040993184
59	0x3da25134	0.079256445
60	0x3db6bf66	0.08923225
61	0x3b970f72	0.0046099955
62	0x3dba7caf	0.09105813
63	0x3df65cf7	0.120294504

net.6.weight f4 [32, 64]
0	0xbd08164f	-0.0332244
1	0x3d8b10a5	0.06790284
2	0x3dc324b0	0.09528482
3	0x3dc67816	0.09690873
4	0x3d4d126d	0.0500664
5	0xbd8f053a	-0.06983419
6	0x3cf66aa8	0.030080155
7	0xbdd33194	-0.10312191
8	0xbbe8fea7	-0.007110435
9	0xbc6c6dfc	-0.014430519
10	0xbda89e72	-0.08233346
11	0x3dcb552b	0.09928354
12	0x3cb8f6a8	0.022578552
13	0xbceff6c3	-0.02929247
14	0xbdbd81f0	-0.09253299
15	0xbd0bc265	-0.034120936
16	0xbbb1b3c2	-0.00542304
17	0x3d184f39	0.037184928
18	0xbd55c98c	-0.052194163
19	0x3ceee11b	0.029160073
20	0x3ca8a90a	0.020588417
21	0xbd2461f8	-0.040132493
22	0xbd5b4a9c	-0.05353795
23	0xbc3af932	-0.011411952
24	0xbd253079	-0.04032943
25	0x3bce277c	0.006291328
26	0xbdb16d1b	-0.08663388
27	0x3d0c46f8	0.03424737
28	0x3cca9069	0.024727063
29	0xbc2729e7	-0.010202861
30	0x3d93c4b4	0.072152525
31	0x3d2c7f60	0.04211366
32	0x3d8faf8e	0.07015906
33	0x3d63ae63	0.05558623
34	0x3cbeb36c	0.023278914
35	0xbcd9d56b	-0.026591023
36	0xbd26fe1e	-0.04076969
37	0x3b5d671e	0.0033783386
38	0xbc149ee1	-0.009071083
39	0xbcfb3370	-0.030664176
40	0x3d1513fa	0.036396004
41	0x3e0a2a82	0.13492778
42	0xbda9fa1d	-0.082996584
43	0xbc4ffeb7	-0.012695006
44	0x3d1d7cf0	0.038449228
45	0x3d64111e	0.055680387
46	0xbdae05b9	-0.08497185
47	0xb8bb53db	-8.932474e-05
48	0x3d827e06	0.06371693
49	0xbdb3aaa7	-0.08772784
50	0x3daecef4	0.08535567
51	0xbd5ea8f7	-0.054360356
52	0x3c8c960c	0.017161392
53	0xbbca5880	-0.006175101
54	0xbde0742b	-0.10959657
55	0x3d6867bf	0.056739565
56	0xbb24ced5	-0.0025147696
57	0xbc6928ce	-0.01423092
58	0x3d862a69	0.06551058
59	0xbdeb6b6b	-0.11495098
60	0xbca4e81f	-0.020130215
61	0xbaacfff0	-0.0013198834
62	0x3dc221ef	0.094791286
63	0x3d475795	0.04866751
64	0xbd4a18f4	-0.049340203
65	0x3da29964	0.07939413
66	0x3d2ab309	0.041674647
67	0x3cbaf00c	0.022819541
68	0xbe064ccc	-0.13115233
69	0xbd95e57b	-0.073191606
70	0xbc93df6c	-0.018050872
71	0x3d3d914b	0.04628114
72	0xbd2e6a86	-0.042582057
73	0x3e01b8c0	0.12668133
74	0x3c1f728e	0.009731902
75	0xbd9a6c8b	-0.07540234
76	0xbd0c2249	-0.034212384
77	0xbcaccf52	-0.021094952
78	0x3c9db6f6	0.019252282
79	0xbaf65a19	-0.0018795162
80	0x3ddcba56	0.10777728
81	0xbd512d36	-0.051068507
82	0xbac563eb	-0.0015059685
83	0xbd58b8ae	-0.0529105
84	0xbd7f30e8	-0.0623025
85	0x3debc431	0.1151203
86	0x3c3d640b	0.011559497
87	0xbd92396e	-0.0713986
88	0x3dbc114a	0.09182985
89	0xbd6a31b5	-0.05717631
90	0xbd3b6e46	-0.04575946
91	0x3e16877c	0.1470012
92	0x3d293071	0.041305963
93	0xbc94ad2d	-0.018148983
94	0xbd00fb26	-0.031489514
95	0x3b8b7d52	0.0042568827
96	0x3e1b2bb5	0.15153392
97	0x3ca67ac0	0.020322204
98	0x3ddacd1c	0.10683653
99	0xbde63836	-0.1124119
100	0xbd98026c	-0.07422337
101	0x3d7fe740	0.062476397
102	0xbd0a099c	-0.03370057
103	0x3b86dcd5	0.0041156807
104	0x3c90bf67	0.017669393
105	0x3d4bafc9	0.04972819
106	0xbcd68975	-0.026188591
107	0xbe105c11	-0.1409762
108	0x3d5a1b29	0.05324856
109	0xbd04fe57	-0.03246912
110	0x3dfbe0aa	0.12298711
111	0xbb8ff673	-0.0043933927
112	0xbe006d78	-0.12541759
113	0x3ced6e9f	0.028983412
114	0xbd633133	-0.055466842
115	0xbd804b1b	-0.06264325
116	0x3dcddc33	0.10051765
117	0xbd592ed6	-0.05302318
118	0xbd20a6c0	-0.039221525
119	0x3c3b42a9	0.011429467
120	0xbd6c25aa	-0.057653107
121	0x3d69d7ab	0.057090443
122	0xbdf86e69	-0.12130434
123	0xbd16267d	-0.0366578
124	0xb8f34a30	-0.000116009614
125	0x3cfa1155	0.030525843
126	0xbd0135b3	-0.031545352
127	0x3dcdcae7	0.10048466
128	0x3bbc0a6c	0.005738547
129	0x3ce00e6a	0.027350623
130	0x3dec1ed8	0.115293205
131	0xbd3985eb	-0.04529373
132	0x3d9fc892	0.078019276
133	0xbcce893d	-0.025211925
134	0x3da778ac	0.08177313
135	0xbd46fea7	-0.0485827
136	0xbe10e05f	-0.14148091
137	0xbd6ee692	-0.058325358
138	0xbdc6dc77	-0.09710019
139	0xbd5ad6ed	-0.053427625
140	0xbc58fa1d	-0.013243225
141	0x3db82194	0.089907795
142	0xbc9b238e	-0.018937852
143	0xbc83df45	-0.016097674
144	0xbc5f1754	-0.013616402
145	0x3e05e7f2	0.13076761
146	0x3cf8f731	0.030391308
147	0x3dfc15fe	0.12308882
148	0x3cedc890	0.0290263
149	0xbca90a58	-0.020634815
150	0xbdce3da0	-0.10070348
151	0xbd9a6082	-0.07537939
152	0xbdb020a7	-0.08599978
153	0x3d737e10	0.059446394
154	0xbe0f876e	-0.14016506
155	0xbd6eab3b	-0.058268767
156	0x3dce67f4	0.10078421
157	0x3d3d012d	0.0461437
158	0x3db65b2f	0.08904111
159	0x3e0961f5	0.13416274
160	0xbdc02b1a	-0.09383221
161	0x3e080f00	0.13286972
162	0x3d23d4de	0.039997928
163	0xbb9ac960	-0.004723713
164	0xbd0606a9	-0.032721195
165	0x3d8cf629	0.06882889
166	0xbd546047	-0.05184963
167	0xbe0c536c	-0.13703698
168	0x3ce3d4f3	0.027811503
169	0x3d724bdd	0.05915438
170	0xbd99e20e	-0.0751382
171	0x3d9c768c	0.076397985
172	0x3d0735c4	0.03301026
173	0x3be3b831	0.0069494476
174	0x3d4dae2d	0.050214935
175	0x3dfcce0e	0.12343989
176	0xba773899	-0.0009430736
177	0xbdd45020	-0.10366845
178	0x3ddb1de2	0.10699059
179	0xbb313f29	-0.0027045703
180	0x3ba9ba56	0.0051796837
181	0x3b76cd5d	0.0037659027
182	0xbc465d2c	-0.012107175
183	0x3da74738	0.08167881
184	0xbd7257dc	-0.05916582
185	0xbb471f75	-0.003038374
186	0xbcba0355	-0.022706667
187	0x3cc5eaed	0.024159873
188	0x3d155234	0.036455348
189	0x3d1e700b	0.03868107
190	0x3db4ab31	0.08821715
191	0x3d4f86f7	0.050665822
192	0xbe0c9ce4	-0.13731724
193	0xbd8ba51e	-0.06818603
194	0xbbb7578d	-0.0055951537
195	0xbd5dea4e	-0.05417853
196	0xbd9e4ef5	-0.077299036
197	0x3d307a26	0.04308524
198	0x3dc9b3e5	0.09848765
199	0xbe5e4994	-0.21707755
200	0xbd950f41	-0.072783
201	0x3d521723	0.051291596
202	0xbdd08079	-0.10180754
203	0x3cd2da50	0.025738865
204	0x3d1109da	0.035409786
205	0x3db395cd	0.087688066
206	0x3ddd42aa	0.10803731
207	0x3c14cfa1	0.009082706
208	0x3c487d60	0.012236923
209	0x3e03fdd3	0.12889795
210	0xbd2a0078	-0.041504353
211	0x3e05939a	0.13044587
212	0xbbd48ec6	-0.0064867465
213	0x3d1c1010	0.038101256
214	0xbd4c9adf	-0.049952384
215	0x3cc74895	0.024326602
216	0x3dc322be	0.09528111
217	0x3cdaddba	0.026717056
218	0xbe6f9e21	-0.23400165
219	0xba7f19fb	-0.00097313494
220	0x3e311371	0.17292573
221	0x3d1846e9	0.037177
222	0x3d035140	0.032059908
223	0x3d912323	0.0708678
224	0xbce016db	-0.027354648
225	0x3d9cca84	0.07655814
226	0x3d0294e7	0.031880286
227	0x3a7bea9a	0.00096098485
228	0x3d374075	0.044739205
229	0x3d9ee4af	0.07758462
230	0x3d29ee1f	0.041486856
231	0xbdfb9342	-0.122839466
232	0x3e0a9a44	0.1353541
233	0x3e1e08ba	0.15433016
234	0xbe3aaa0c	-0.1822893
235	0x3c589e5d	0.0132213505
236	0x3decf352	0.11569847
237	0xbd9f690a	-0.077837065
238	0x3d6096ad	0.054831196
239	0x3dc317a9	0.09525997
240	0xbc7b70c5	-0.015346711
241	0xbdf3b8ca	-0.1190048
242	0x3e21c728	0.15798628
243	0xbdff3c08	-0.12462622
244	0x3d133d26	0.035946988
245	0x3dc9bfdb	0.09851047
246	0x3cbf1bf2	0.023328755
247	0x3e06cc0e	0.13163778
248	0x3d562db3	0.052289676
249	0xbdd8d494	-0.10587421
250	0xbd06c0c7	-0.03289869
251	0xbc913fc9	-0.01773061
252	0x3d23a920	0.039956212
253	0xbcbcf7cc	-0.023067378
254	0x3db73ed2	0.08947529
255	0x3d7abbf7	0.061214413

net.6.bias f4 [32]
0	0x3e47a5ee	0.19496891
1	0x3e70f62c	0.23531407
2	0x3e1d28f9	0.15347661
3	0x3ecde1e2	0.40211397
4	0x3db81d96	0.08990018
5	0x3e709a57	0.23496376
6	0x3e69911c	0.22809261
7	0x3e45d1b2	0.19318274
8	0x3e97326d	0.2953066
9	0x3ea9652c	0.33085
10	0x3e67915a	0.22614041
11	0x3e1d0f50	0.15337873
12	0x3e280301	0.16407396
13	0x3df933e6	0.12168102
14	0x3e20b93e	0.15695664
15	0x3e4c31bc	0.19940847
16	0x3e445c83	0.19175915
17	0x3e38dc9a	0.18052903
18	0x3e7fe816	0.24990878
19	0x3e52a638	0.2057122
20	0x3e91769f	0.28410813
21	0x3e3951c0	0.18097591
22	0x3e51dd9d	0.20494695
23	0x3de0c2f2	0.10974683
24	0x3e6a0c09	0.22856154
25	0x3e13e629	0.14443268
26	0x3e575cf5	0.21031554
27	0x3ea43a11	0.3207555
28	0x3e2bf235	0.16791613
29	0x3f18c44e	0.5967454
30	0x3ec3385c	0.38128936
31	0x3e3ad30d	0.18244572

net.9.weight f4 [1, 32]
0	0xbd587f05	-0.05285551
1	0x3d3d4814	0.046211317
2	0xbd2c44e1	-0.042057876
3	0xbd177d4e	-0.036984734
4	0x3d81ef25	0.06344441
5	0x3d3ae76c	0.045630857
6	0x3d2e5f96	0.042571627
7	0x3d3cfeb0	0.046141326
8	0x3d2d703c	0.042343363
9	0x3d3624aa	0.04446856
10	0xbd48b243	-0.04899813
11	0xbd32b055	-0.043625195
12	0xbd4dc84f	-0.050239857
13	0x3d3668a2	0.04453338
14	0xbda45374	-0.0802373
15	0x3d55299c	0.052041635
16	0xbd296a60	-0.041361213
17	0xbd72ed47	-0.059308317
18	0xbd2ab0eb	-0.04167263
19	0x3d445001	0.04792786
20	0xbd2ab5ad	-0.041677166
21	0x3d7be153	0.061494183
22	0x3d3ec710	0.04657656
23	0xbd319950	-0.0433591
24	0x3d407905	0.046990413
25	0xbd25ffcc	-0.04052715
26	0xbd2491d7	-0.040178146
27	0x3d2feed5	0.042952377
28	0x3d6b58c1	0.05745769
29	0xbd1b9c60	-0.037990928
30	0x3d23b687	0.039968994
31	0xbd3e0712	-0.04639346
