unitree_rl_gym/logs/residual_net.pt (torch, 20712 bytes, 5 tensors)

weight f4 [64, 2]
00000000: 4099 f4bc b6d7 a9be 91fd 8dbe 318e aabe
00000010: 6b60 9bbc 0008 4dbe f48d 92bd c974 6d3e
00000020: e67b 11bf d9cc da3e 47ff 093f 6a31 dabe
00000030: 47ab 8e3a bd9f 913a ab19 cc3f 96ac 67be
00000040: 5a21 27bf 87d9 3dbd 6cd8 1e3f 80d4 35bd
00000050: aef9 a23f d73e e8be c0e0 403f f2d5 b3be
00000060: 469e babe 7843 c5be 04e6 eebd 07cb 1e3f
00000070: d674 0fbf 9687 b5be d907 9f3e e8bf 1d3f
00000080: 369c 883d beb0 163e e078 b13e 74c3 4b3e
00000090: e842 0bbf df4e f23d 3710 b4be 463c 203f
000000a0: 11eb a7bd 1af5 2fbf 0474 7cbe 93df da3e
000000b0: 6dc0 0dbe c668 b03e f432 33bc d58c 923a
000000c0: 3352 c43d e3fa 27bf d164 c03e b927 993d
000000d0: c90e d93e 0223 29bf 8361 44bf e8d5 8b3e
000000e0: 1425 9fbe 5345 20bf 7896 1abf 9ffd c8be
000000f0: 2b0f b13e 2d87 da3e 53a6 50bd 30f3 27bf
00000100: 833e 723f cef4 2abf c37e 293f dd37 24be
00000110: 3c5b e1be f4b2 ec3e b376 ec3e cb1e 78be
00000120: 7bad c33f 8f15 84be e95a a9bd dcc5 883e
00000130: c8a1 f3be d836 233f 1596 c6be 359b 14bd
00000140: 8972 b3bd 7b54 e03e bc89 e23d 31f4 8ebe
00000150: cfb9 b7bd 3be0 c03e 9ef0 87be 7c46 113f
00000160: ebb9 f4be d7da e6be ea67 bdbd 9a69 853e
00000170: 60be 453e 1f5a 743e f0c1 a3be aaab 67be
00000180: 4aaf 363f 3acf d03d 8c78 38bd 903c 853d
00000190: 59b8 91be cd7d c23e 0512 3fbe e214 7d3e
000001a0: bbfe d7bd ff11 ffbe a646 3d3f 4fd3 ed3e
000001b0: 79aa 053f 6af8 983e fd52 b53f 59a9 99bd
000001c0: 2136 9abe a4a1 863f 1b12 a83e 20ba 043f
000001d0: d641 22bb 80e9 82ba e16e a33a a089 17ba
000001e0: 4e2e 913f a0f0 11be 9e1d 703f bcb8 08be
000001f0: ef1a 813b f0a1 1f40 fd28 cd3d aad5 19bf
-0.029858232 -0.33172387 -0.27732518 -0.33311608 -0.018966874 -0.20022583 -0.07155982 0.23189081
-0.5682968 0.4273441 0.5390515 -0.42615825 0.0010884785 0.0011110228 1.5945333 -0.2262443
-0.65285265 -0.04635003 0.62048984 -0.04439211 1.2732446 -0.45360443 0.7534294 -0.35124165
-0.36448878 -0.38528037 -0.11664966 0.62028545 -0.5603765 -0.35455006 0.31060675 0.6162095
0.0667042 0.1471586 0.34662533 0.19898778 -0.54398966 0.1183145 -0.3516862 0.6259197
-0.08199132 -0.6873337 -0.24653631 0.427487 -0.13842936 0.34454936 -0.010937441 0.0011180887
0.09585991 -0.656172 0.37576917 0.074782796 0.42394093 -0.6606904 -0.7671129 0.27311635
-0.31082976 -0.6260578 -0.6038585 -0.39255998 0.34581885 0.42681256 -0.05093987 -0.6560545
0.94626635 -0.6677979 0.6620905 -0.16036935 -0.4401492 0.4623028 0.4618431 -0.24230497
1.5287317 -0.25797698 -0.08269293 0.26713455 -0.47584367 0.6375556 -0.38786379 -0.03628083
-0.0876208 0.43814453 0.11061427 -0.27920678 -0.08970987 0.37671074 -0.26550764 0.56748176
-0.47798094 -0.45088837 -0.09248336 0.2605713 0.19310904 0.23862503 -0.319839 -0.22624078
0.7136122 0.10195775 -0.045036837 0.06505692 -0.2846096 0.37986603 -0.18659218 0.24714997
-0.10546633 -0.49818417 0.73935926 0.46450278 0.52213246 0.29877025 1.4165951 -0.075030036
-0.30119422 1.0518079 0.32826313 0.51846504 -0.002475848 -0.0009987801 0.0012468958 -0.00057807006
1.1342256 -0.14251947 0.9379519 -0.1335172 0.0039399783 2.4942589 0.100175835 -0.6009165

bias f4 [64]
00000000: 6de5 c33e 534c 4ebe 177f 6c3e f054 81bc
00000010: 18f9 09bf 7c5e bbbf ba38 01bd 6d59 233e
00000020: 4227 e1bb f23a 143f 49ae fd3d 3e3d 683e
00000030: 0a57 803e d836 aa3e 7bed e1bd ab55 a8bf
00000040: 59c5 203f f940 5cbe 4b57 123e 8e65 5dbf
00000050: dc2c 383f 0d45 15bf e216 2fbd 90dd 0bbe
00000060: e7bd c6be fe41 1b3f d6f2 fabe 6403 2abf
00000070: ec53 63bd 6a28 d7bd e11f 85bf c381 bebe
00000080: 436b 6cbe b24f cc3e 5b00 50bd b174 d1be
00000090: 9ff0 23bd bf36 fe3d 6037 d5be 517c 33bf
000000a0: 5f40 6c3e b0a9 8f3b 628b a93e a1f3 96bf
000000b0: 5558 90bf 601b 6f3e c8e5 343f 33ec 7c3e
000000c0: 108c 3e3f f537 75bd c92e 81be 8e84 bc3e
000000d0: 153b fd3e c024 3c3f b22f babd 1cdb 20bf
000000e0: 312d 56bf 32a4 80bf 1ecd 0cbd 5b42 bcbc
000000f0: e962 ffbe ff79 54bf 4559 5d3c 9f02 bb3d
0.38260975 -0.20146303 0.23095356 -0.015787572 -0.5389571 -1.4638209 -0.03154824 0.15952082
-0.006871135 0.57902443 0.12386758 0.22679612 0.25066406 0.33244967 -0.11031624 -1.3151144
0.6280113 -0.2150916 0.14291112 -0.86483085 0.7194345 -0.5830849 -0.042746432 -0.13658738
-0.3881676 0.6064757 -0.49013394 -0.66411424 -0.055499956 -0.10505755 -1.0400354 -0.37208375
-0.23087792 0.39904553 -0.05078159 -0.4090934 -0.040024396 0.12412786 -0.4164381 -0.70111567
0.2307143 0.004384242 0.33114153 -1.17931 -1.1276957 0.23350286 0.7066312 0.24699478
0.7443247 -0.059867818 -0.25231007 0.3681988 0.4945914 0.73493576 -0.090911284 -0.62834334
-0.83662707 -1.0050108 -0.034375302 -0.02298086 -0.4988015 -0.8299865 0.013510053 0.09131359

weight f4 [32, 64]
00000000: 037c 313e 9fbe 4f3d f676 233e 43ad c73d
00000010: dd3f f2bd 0b3e 49bf 096e e4bc ad7c 8bbe
00000020: 34fa 183e 6b36 b8be e8c7 0ebe 851c 6ebf
00000030: 8261 c3bc 5d62 643e 41b3 0a3e d77d c83e
00000040: e7bb 37bd a86a 263e 7381 7f3e b73a 853e
00000050: afe1 e23d bc49 ec3d 5266 263e 683d 8a3d
00000060: 72cf cb3d 67fc f8be 8024 a23d c966 8a3e
00000070: dcea bc3d 4d1e d73c 45ef a43e 07c6 253e
00000080: 4c2e 473e 7b81 dbbe fee4 133e 03dd 5a3f
00000090: 7344 52be 72e1 003d 7ecc 7a3e 89fd 60be
000000a0: cfa0 113d 6628 783d a145 163e 23d2 80bf
000000b0: e583 17bd 06bb 793d a032 f93d 2bc0 4a3e
000000c0: 1496 abbd e3a6 533e 4635 943d c8c7 873d
000000d0: d75c 053e c523 f2bd 5bb3 3fbd 85d1 713d
000000e0: 0fcb 9e3e 809b 903e 0e49 0abb 851c debd
000000f0: da80 ce3e 3cef 2dbf c433 093e c976 003e
00000100: 3a09 2e3d 5e81 35be 1046 cb3d d7fb 80bd
00000110: 61d7 90be f256 d9bf 153f b63d 84bf f93d
00000120: 2e09 ccbe 7aec 71bd f8cd 043e 6be2 29be
00000130: 2a60 a43d bfcd a0bf d977 24bf d72d 803d
00000140: 2aeb 70be 7a63 5bbf 0481 4f3f afee b93e
00000150: 52a3 5ebd f6a2 2a3e 9b12 bcbd ac12 7ebe
00000160: 2fe9 723c 014e 98bd ae1d b7bc 3e5e 713e
00000170: bc89 253d b6da 23bf fd0c 493e 1862 1bbb
00000180: b2f4 cb3d d770 b43d 3cc1 8ebd c3b8 983e
00000190: 4c3a 223e aa68 76bf 78ac 4f3c 32be 9dbe
000001a0: fd88 98bf 6614 b73d 9829 1c3f 563f 69bf
000001b0: 78e7 91be 2d61 1f3f 9e76 403d a4be ba3d
000001c0: b1cd f43c dbf6 58be ac7e c83d e33a a6bd
000001d0: dc77 b03d 8832 3bbe 057f 41bf 0a64 1fbe
000001e0: ab2a 353d ec03 74bd 0056 5a3d bc18 9a3d
000001f0: 71bb 3e3d 83b4 37bf 1f5d 34bd 2fcd 0d3e
00000200: fb1b 003e d258 cf3d 5fd0 d73d 0fd5 3abd
00000210: 2a98 cfbb be9c d23d 0e4a 0b3e 06f2 8bbc
00000220: 7efd 033d ebca 873d bb94 08c0 af4b a13f
00000230: 3d90 313c 7729 be3d 5abb c43d c2f2 6dbf
00000240: 008b 3bbd da70 95be b88b b53c 30bf a3be
00000250: 0aa6 5f3e d415 8bbd ffcb 60bc a374 bebd
00000260: c5e9 1e3f 7193 003e 172f 54be 1d05 a1bd
00000270: c17c 5a3e 7d76 103d d2ea 07bf b0ae 2cbf
00000280: fc50 d6bf 5f00 783e 4d2a 483d ef30 a13d
00000290: 05a5 a03e 4be0 0a3d ebf1 b63d 7f37 713d
000002a0: 15a7 ab3d 6b3b e0bc e7ae ba3c f88c a03f
000002b0: 465a 28bf 5877 ca3d 40d7 c03d ff44 45bd
000002c0: 996c 8dbd bcf1 a33d d76c 453d 122c ca3b
000002d0: 9a5e 7a3d 2118 8e3e 4a7f 56bd 6cc8 18bf
000002e0: 5151 063e a342 7cbe d6c8 c83d 651a 873d
000002f0: 7ac1 59c0 b74c c1bc 88cc e73c 5dcd f7be
00000300: 46a9 85bc eddc a23c 3286 ebbd 92dd dabd
00000310: 1bb1 143d d2c3 eabe 99e5 c43d 4470 4abf
00000320: 089a ff3d e690 64bc beb8 4b3e 5b70 403e
00000330: bcc2 8f3c 1f75 1ebf 082e 053e aad6 5abd
00000340: 1ebd 8abd 4aa2 fdbd 1843 353e 5d82 1b3f
00000350: fab1 a23d a31f 023f 8a3f 5abe b22e a1bd
00000360: 60aa 2abe 60ca 813e 6e42 a2be 4c68 dc3e
00000370: 5fbb 153e 955d e63d 5f86 993d fc39 dbbd
00000380: e379 cebd 3f7e e4be a0e7 7ebd d69e d93e
00000390: 56f2 73c0 7065 10bf 3290 87bb ca53 c83d
000003a0: e6d6 12bf 8a14 b2bd c983 8abe 46aa a5bf
000003b0: 4202 4cbe 47d1 09bf dc70 ca3e 2822 c53d
000003c0: 5196 fc3e 23b3 3cbd 121f 06be 1bdd 89bd
000003d0: 1698 263e 4f39 e5be bbc8 afbc 7d80 cbbd
000003e0: 1458 4e3f a130 513d 10e7 00be 9216 843d
000003f0: 4c00 28be 2fde 423d 446b edc0 45cb 033e
0.17332463 0.0507189 0.15963349 0.09749844 -0.11828587 -0.78610295 -0.0278845 -0.27243558
0.14939195 -0.35979018 -0.13943446 -0.9301227 -0.023850206 0.22303148 0.13544942 0.39158508
-0.044856932 0.16251624 0.24951725 0.26021358 0.11078202 0.11537501 0.1624997 0.067499936
0.099516764 -0.48630068 0.07917118 0.27031544 0.09224483 0.026259566 0.32213798 0.16188823
0.19451255 -0.42872223 0.14442822 0.8549349 -0.20533924 0.031465 0.2449207 -0.21971716
0.03555375 0.060585402 0.14674999 -1.0064129 -0.03699102 0.060969375 0.12167859 0.19799869
-0.083782345 0.20669131 0.072367236 0.06629902 0.13023697 -0.11823229 -0.046801906 0.059037704
0.31014296 0.28243637 -0.0021100673 -0.108452834 0.4033268 -0.6794317 0.13398653 0.12545313
0.042489268 -0.17725131 0.09925473 -0.06298035 -0.2828932 -1.6979659 0.08898751 0.12194732
-0.39850754 -0.059063412 0.12969196 -0.16590278 0.08026154 -1.2562789 -0.64245373 0.06258743
-0.23527208 -0.85698664 0.8105624 0.36314914 -0.054354973 0.16663727 -0.09183236 -0.2481181
0.014826103 -0.07436753 -0.02235302 0.23571107 0.040414557 -0.640056 0.19633861 -0.0023709591
0.09958781 0.08810585 -0.0697045 0.29828462 0.15842551 -0.96253455 0.012675397 -0.3080917
-1.1916806 0.089394376 0.6100097 -0.9111227 -0.2849691 0.62257653 0.046988122 0.09118393
0.029883238 -0.21187918 0.09789786 -0.081167005 0.08616611 -0.18280995 -0.7558444 -0.15565506
0.044230144 -0.059574053 0.053304672 0.07524249 0.046565477 -0.71759814 -0.04403412 0.13847803
0.12510674 0.10124363 0.105377905 -0.045613345 -0.006335278 0.102838024 0.13602468 -0.01708318
0.03222417 0.066305004 -2.1340778 1.2601222 0.010837612 0.092852525 0.09606047 -0.92948544
-0.045786858 -0.2918766 0.02216135 -0.31981802 0.21840683 -0.06791273 -0.013720511 -0.092995904
0.62075454 0.12556244 -0.20721088 -0.078623034 0.21336652 0.03526925 -0.5309268 -0.6745405
-1.6743464 0.24218892 0.048868466 0.078706615 0.313759 0.03390531 0.08932861 0.058890816
0.08381478 -0.027372083 0.022788478 1.254302 -0.65762746 0.09886044 0.09416056 -0.048161503
-0.06905479 0.080050915 0.0481995 0.0061698044 0.061125375 0.27752784 -0.052367486 -0.5968082
0.13116957 -0.24634795 0.098039314 0.06596831 -3.4024339 -0.02359615 0.02829577 -0.48398867
-0.016316067 0.019880736 -0.11500205 -0.106867924 0.036301713 -0.45852524 0.09614105 -0.79077554
0.12480551 -0.013950562 0.19894692 0.1879286 0.017548911 -0.6189746 0.13005841 -0.053427376
-0.067743525 -0.1238447 0.17701375 0.60745794 0.079441026 0.50829524 -0.213133 -0.078702345
-0.16666555 0.25349712 -0.31691307 0.43048322 0.14622258 0.11248318 0.074963324 -0.10704419
-0.10081842 -0.44627568 -0.062232614 0.42503995 -3.811666 -0.5640478 -0.0041370625 0.097816065
-0.5735916 -0.08695324 -0.2705367 -1.2942588 -0.19922736 -0.53834957 0.3953923 0.096256554
0.49333432 -0.046069276 -0.1309779 -0.06731626 0.16268954 -0.44770285 -0.02145802 -0.099366166
0.80603147 0.051071767 -0.12588143 0.064496174 -0.16406363 0.047575172 -7.419344 0.1287051

bias f4 [32]
00000000: 198a fc3d c3d9 00bc 5a72 263e 59b6 ab3d
00000010: 91f8 7d3e 5253 07be f7b0 5d3d 5c11 1dbe
00000020: c099 473e 732b acbe 2530 00be e292 e9bd
00000030: 9751 f13c 6952 e9bd 4b64 e33d 97d6 5bbd
00000040: 3ee5 6f3d 9c2d 883d 0ea0 7fbd e780 c0bc
00000050: 07a0 b83c 4cee 613d 3fd2 873e 199c 3e3e
00000060: b2f2 fa3d f7d7 0fbc 9457 3e3e 373b 823c
00000070: 0224 c9bd b32c fc3c 1fb5 8fbc fa73 c5bd
0.123310275 -0.007864418 0.16254559 0.083843894 0.24801852 -0.13215378 0.054123845 -0.15338653
0.19492245 -0.336269 -0.12518366 -0.11404969 0.02945785 -0.113926716 0.11103114 -0.053671446
0.05856823 0.06649324 -0.0624085 -0.023498965 0.022537244 0.0551589 0.26527593 0.18614234
0.12253322 -0.008779517 0.18588096 0.015897376 -0.09821321 0.030783033 -0.01754242 -0.096412614

weight f4 [1, 32]
00000000: 9297 663e b814 f13e 04ba f7be 9888 103f
00000010: e5b2 173e 4bbd e33e cea3 cd3b cee2 bc3d
00000020: 1dcc e33e b97f 493f 9b6b 28be 340b 24be
00000030: 2093 5d3e 5fd6 a4be 044b 0f3f bb4c 81bc
00000040: e8eb c7bb 55a9 ad3b 7775 483e 666a ffbd
00000050: 2763 edbd dab8 17bf 5082 d8bd c8c2 2f3e
00000060: 9e92 a73e 4009 0ebd 4608 21be bb91 003f
00000070: 9638 60bc fea7 0b3e d6d9 f03e a8e0 82b9
0.22518757 0.4708612 -0.48384106 0.56458426 0.14814337 0.44480357 0.0062756306 0.09222947
0.44491664 0.78710514 -0.16447298 -0.16019899 0.21638155 -0.32194802 0.5597384 -0.015783658
-0.0061011203 0.005299727 0.1957606 -0.12471466 -0.115911774 -0.59266436 -0.1057173 0.17164147
0.32729048 -0.03467679 -0.15725812 0.5022237 -0.013685366 0.13638303 0.47041196 -0.00024962914
